trained_models/LSTM_trained_model_3.pt (torch, 870803 bytes, 33 tensors)

lstm.weight_ih_l0 f4 [200, 33]
000000 9a d5 84 3a 84 ce 86 3a 99 d2 45 39 af 7b db 39
       0.0010134459 0.0010284935 0.00018865838 0.00041863087
000010 3c 4f 41 b9 87 ef 82 3a 6f 39 81 3a e1 31 b2 37
       -0.00018435431 0.0009989598 0.0009859035 2.124248e-05
000020 8a 77 2b 38 86 cc a7 37 52 53 89 3a 77 d0 80 38
       4.0880906e-05 2.000319e-05 0.0010477102 6.142345e-05
000030 79 87 b4 37 56 92 d2 39 3e 51 04 39 9f 3f 7e 3a
       2.1520756e-05 0.0004016335 0.00012618766 0.00096988113
000040 9e 50 ea b5 58 82 81 35 26 95 05 b3 75 43 01 b4
       -1.7457821e-06 9.649184e-07 -3.1102125e-08 -1.2038602e-07
000050 b4 16 c6 b6 66 06 b0 b6 6e 81 c1 35 ad f7 f9 38
       -5.903503e-06 -5.2459536e-06 1.441729e-06 0.000119193784
000060 4e 5c 73 32 8d c5 bc b3 39 e8 48 39 a5 6d d3 b6
       1.4165449e-08 -8.7903665e-08 0.00019159996 -6.3010543e-06
000070 3e ef 4e b6 4c b7 d1 38 78 2a 7f 32 e9 a1 0f b0
       -3.083565e-06 0.00010000038 1.485261e-08 -5.2253185e-10
000080 3c be 3c 34 55 4e 07 ba 4d 5e 20 ba c9 34 60 b8
       1.7578071e-07 -0.00051615137 -0.00061175675 -5.345492e-05
000090 0c e8 5a b9 fc e4 29 b9 7c 08 17 ba 95 88 9b b9
       -0.00020876544 -0.000162024 -0.0005761457 -0.00029665665
0000a0 04 9d 3b b7 8d 39 0b b8 b6 07 35 b7 70 90 9b b9
       -1.1182627e-05 -3.319378e-05 -1.0790236e-05 -0.00029671518
0000b0 1d ef 4a b8 f8 22 24 b7 db 89 19 ba 58 3f 8a b8
       -4.8383245e-05 -9.7833035e-06 -0.0005857029 -6.5921515e-05
0000c0 42 a6 a7 b9 53 c8 40 39 b4 b6 89 37 c6 75 e4 33
       -0.00031976594 0.00018385173 1.641675e-05 1.06385e-07
0000d0 50 da 50 b9 43 71 c1 b4 74 e7 a7 37 5a 1c 3e 36
       -0.00019917754 -3.603146e-07 2.001573e-05 2.832871e-06
0000e0 c0 45 b1 b8 c6 6f 5b b5 7e c2 0e 35 dc 4a 28 b6
       -8.45301e-05 -8.174651e-07 5.3182146e-07 -2.5077525e-06
0000f0 c4 44 0d b6 fd 9b 62 33 c6 af 06 b6 dc 27 07 39
       -2.1050664e-06 5.2761596e-08 -2.006987e-06 0.00012889452
000100 51 20 54 30 4b 94 d3 34 4e f5 5f ba 96 93 55 ba
       7.7171075e-10 3.940971e-07 -0.0008543328 -0.0008147297
000110 c5 20 69 ba 0d 2e 69 ba c4 2a 0a b7 71 a9 77 ba
       -0.00088931277 -0.0008895107 -8.235398e-06 -0.0009447551
000120 d5 9a 6a ba 7f 19 1e ba 3b f1 44 ba 00 3d ea b9
       -0.00089494634 -0.0006031021 -0.0007512753 -0.00044677407
000130 ba 76 77 ba 06 49 56 ba bb 9a da b9 ae 11 be ba
       -0.0009439994 -0.00081743335 -0.00041695483 -0.0014501119
000140 c8 ee 68 ba 03 3e 66 ba 2e 47 b4 38 70 b3 78 b8
       -0.0008885679 -0.0008783044 8.596327e-05 -5.929492e-05
000150 26 dd fe b6 15 0e 48 b3 12 6d 9c 38 bd e3 6a 38
       -7.595535e-06 -4.6578936e-08 7.4589756e-05 5.6002045e-05
000160 8e 39 09 39 05 e9 00 b9 f0 30 72 32 3b cc ed b7
       0.00013086779 -0.00012293838 1.4097381e-08 -2.8347704e-05
000170 36 6f 49 38 fe 72 d4 37 26 b8 0b b9 2f 7b a1 37
       4.8025708e-05 2.5325917e-05 -0.00013324674 1.9250057e-05
000180 01 9b 17 b9 e9 91 63 ad a5 75 27 b9 f9 09 1f 3b
       -0.00014458226 -1.2935855e-11 -0.00015970187 0.0024267419
000190 5a 08 0a 3b 32 48 ac 3a 6e b3 fb 3a b9 04 08 bb
       0.0021062107 0.0013144074 0.0019203254 -0.0020754768
0001a0 85 1b 04 3b 05 93 30 3b 48 ed 33 36 e9 ca 80 38
       0.0020158004 0.00269431 2.6811194e-06 6.1413106e-05
0001b0 15 5d 99 b9 a1 13 03 3b 4a 6e 4d 3a d2 c0 cd 39
       -0.00029251786 0.0020000713 0.0007836564 0.0003924431
0001c0 47 4b 81 3b 67 79 a0 3a d2 37 4c 3b 43 04 66 b8
       0.0039457413 0.0012243212 0.0031161201 -5.4840242e-05
0001d0 4e b4 84 b9 91 77 53 32 b9 02 08 b0 0d d3 5b b3
       -0.0002531134 1.2309003e-08 -4.948038e-10 -5.118186e-08
0001e0 ea c2 9d b4 72 0e ea 37 a8 af 61 b3 18 4f bf b9
       -2.9385347e-07 2.79017e-05 -5.2546653e-08 -0.00036489288
0001f0 bf 5e f7 ab 7e 50 91 b7 32 06 d3 b6 f8 d4 10 b6
       -1.7576703e-12 -1.7322829e-05 -6.2890113e-06 -2.1581636e-06
000200 a0 8d 08 31 b7 4b 0b 37 f7 20 0e 39 a0 83 5b 23
       1.987111e-09 8.302674e-06 0.00013554456 1.18998865e-17
000210 9d fb ac bd 05 fa 74 bc 3f 92 5e 3d 71 c9 d0 bd
       -0.08446429 -0.014952187 0.05433869 -0.10194672
000220 e5 a7 cf bd e3 61 89 3d ac 3d ce bd 75 59 fe bc
       -0.10139445 0.067081235 -0.10070357 -0.031048516
000230 32 f3 5a 3d ca 33 00 3c 30 f4 5c bc 95 fd aa 3d
       0.053454585 0.0078248475 -0.013485953 0.08349148
000240 9e dd c2 bc 7a 54 d4 3d 58 aa e4 3c cb cf dd 3d
       -0.023787316 0.10367675 0.027913257 0.10830649
000250 38 98 c2 b6 18 5d 0a bb 3c 2d a4 b9 0f a5 ec ba
       -5.799371e-06 -0.0021112617 -0.0003131422 -0.0018054562
000260 2e fd 05 bc 40 0c 55 bb 87 9c da b7 24 32 9b 3b
       -0.0081780385 -0.0032508522 -2.6060514e-05 0.004736202
000270 9d 22 ce 36 a1 df 8b 33 83 7c b5 3a 44 c8 a3 38
       6.143308e-06 6.51337e-08 0.0013846311 7.809748e-05
000280 de 52 ae ba ef 9f e4 b9 3e a7 28 bb 32 ce 57 ae
       -0.0013299843 -0.0004360671 -0.002573445 -4.906848e-11
000290 48 f2 c8 3a f4 35 48 bb ee 3e c3 ba 01 95 05 b2
       0.0015330995 -0.0030549737 -0.0014896074 -7.7754985e-09
0002a0 af ef 4b b9 74 f0 3d 39 00 c9 8b ba ac e1 dc b7
       -0.00019448878 0.0001811402 -0.0010664761 -2.633113e-05
0002b0 1b 44 3d b8 61 d2 c5 a0 6e e3 13 33 11 e3 b8 a4
       -4.512454e-05 -3.3512315e-19 3.443295e-08 -8.0181945e-17
0002c0 c7 a6 a7 34 fe ea b8 9f 61 88 70 ba f7 c3 82 b3
       3.122752e-07 -7.831579e-20 -0.00091755955 -6.0892425e-08
0002d0 4c 2f 60 a3 00 02 07 36 f8 41 b7 b1 ed 33 13 36
       -1.215308e-17 2.0117732e-06 -5.3335008e-09 2.1934932e-06
0002e0 f9 4d 84 39 0b 30 17 b6 1c 99 0d b0 b4 ff 80 36
       0.00025235096 -2.2528718e-06 -5.151308e-10 3.844465e-06
0002f0 8d d2 b0 ad d3 45 b6 af 1a 42 58 b3 12 a5 d2 31
       -2.0102387e-11 -3.315522e-10 -5.0351538e-08 6.1305707e-09
000300 3b 44 3a 39 04 ce 17 af bd 7e 8c b7 a8 45 e2 9e
       0.0001776376 -1.3806561e-10 -1.6748318e-05 -2.395749e-20
000310 5b 00 c0 b8 f8 ef 31 36 d0 98 05 3a 46 f9 06 3a
       -9.15534e-05 2.6514736e-06 0.0005096318 0.0005148839
000320 6d 23 ac 39 a6 11 9d b8 93 04 eb b9 d8 6c db 39
       0.0003283279 -7.489631e-05 -0.000448261 0.0004185203
000330 d3 75 34 3a 9d 67 b5 37 5c 84 48 38 f9 5b ba 38
       0.0006884012 2.162513e-05 4.7806985e-05 8.8863024e-05
000340 b9 56 0f 3a 94 fe 83 39 25 d0 2d b9 78 89 17 3a
       0.000546794 0.00025175943 -0.00016576106 0.00057806773
000350 93 fd be 39 6f 32 2a 3a ee 5c 4d b7 a0 90 b4 b8
       0.00036428552 0.00064925005 -1.2240589e-05 -8.610007e-05
000360 76 9b 6d b6 34 3a f3 b6 95 8d 24 b7 60 33 b3 38
       -3.5406242e-06 -7.24874e-06 -9.808126e-06 8.5449545e-05
000370 1b 18 84 37 fc 99 88 b4 e7 38 b6 36 fb 3d f3 38
       1.5746851e-05 -2.5444012e-07 5.430647e-06 0.00011598688
000380 c9 b1 34 37 c2 12 41 37 d6 9f 11 37 09 22 10 37
       1.077023e-05 1.1508064e-05 8.679888e-06 8.590993e-06
000390 4a 49 4f 37 34 1f a1 37 af 6e 90 39 32 ce 53 38
       1.2355225e-05 1.9207226e-05 0.00027548286 5.0498355e-05
0003a0 b2 1f 79 38 86 0b 98 b2 24 26 3e b6 3b 06 3c b6
       5.9395745e-05 -1.770037e-08 -2.8334407e-06 -2.801781e-06
0003b0 40 1f a2 37 c6 e7 f7 37 d7 69 80 39 6d 33 86 33
       1.9326457e-05 2.9552622e-05 0.0002449292 6.2492155e-08
0003c0 2a a3 79 b3 86 eb ee b4 b2 77 8c 33 dc e6 79 39
       -5.8123227e-08 -4.450232e-07 6.5410305e-08 0.00023832492
0003d0 0b a4 0f 39 5e 31 05 b4 be e5 89 37 50 37 df 32
       0.00013698653 -1.240455e-07 1.6438655e-05 2.598577e-08
0003e0 8f 0a d0 b2 d2 30 5a 36 fa c9 c7 34 89 28 b9 b2
       -2.4219188e-08 3.2512949e-06 3.7213596e-07 -2.1555268e-08
0003f0 30 a7 58 b9 00 f4 64 35 dc e0 60 b6 67 e2 03 33
       -0.00020661647 8.5291686e-07 -3.3509486e-06 3.0706726e-08

lstm.weight_hh_l0 f4 [200, 50]
000000 c0 b2 77 b3 ba 5a 78 b5 2d 3d 96 32 71 b8 cf b8
       -5.767174e-08 -9.2519224e-07 1.7490118e-08 -9.904884e-05
000010 f0 fb 64 35 be 27 e4 0e e6 57 a8 b9 09 a6 c1 b6
       8.5303236e-07 5.624461e-30 -0.00032108946 -5.7711773e-06
000020 e5 d7 66 0a a6 53 8c b6 a7 6b d1 22 00 1c b5 b2
       1.11147024e-32 -4.182063e-06 5.6763545e-18 -2.1083906e-08
000030 ef 46 8b 39 2f 18 de 36 13 b7 41 35 1f 56 1f 36
       0.00026564996 6.618931e-06 7.216451e-07 2.3742975e-06
000040 3e 0a 4f 31 91 4d e7 1b e5 41 d8 b6 a3 d2 1c b3
       3.0128287e-09 3.826587e-22 -6.4449728e-06 -3.6513153e-08
000050 c2 9d 55 32 39 2a cd 2c 04 ea 90 b3 a8 9e 89 36
       1.2434102e-08 5.831138e-12 -6.74809e-08 4.101388e-06
000060 e9 f1 2a 35 fb 4f b9 1c 03 3b 07 37 ca 97 eb b7
       6.368196e-07 1.2262948e-21 8.060367e-06 -2.8084865e-05
000070 25 5f 86 1e 77 fc e0 b8 9a 54 2f 00 96 89 b4 39
       1.4227153e-20 -0.000107281776 4.346618e-39 0.00034434785
000080 ab 91 c8 b6 87 e4 b2 37 dc b9 94 b6 7d 48 f1 b5
       -5.9774225e-06 2.132567e-05 -4.4323806e-06 -1.7976996e-06
000090 9a 57 87 b3 99 5c 16 24 a0 42 38 38 03 22 84 24
       -6.302362e-08 3.26045e-17 4.3931068e-05 5.730349e-17
0000a0 2a 45 d1 b6 a4 f7 c4 9c 86 9e dc b6 ba 37 56 0c
       -6.236737e-06 -1.3034206e-21 -6.5749655e-06 1.650273e-31
0000b0 45 88 f4 2e 6e 66 05 80 7e e2 05 b7 2f 20 30 b4
       1.1120042e-10 -4.95922e-40 -7.980152e-06 -1.6402986e-07
0000c0 46 83 72 b2 c4 9a 29 37 1e eb 84 36 9f 52 29 b2
       -1.4116102e-08 1.0109219e-05 3.961278e-06 -9.855881e-09
0000d0 6d b5 26 36 8f 5a be b4 9c 8a 59 b6 8c 37 8c 36
       2.4841531e-06 -3.5456148e-07 -3.24162e-06 4.1787916e-06
0000e0 0d fb 75 27 de 7d 91 36 61 3c cf 38 e8 2f 5e 36
       3.4136675e-15 4.3359896e-06 9.8817756e-05 3.3108463e-06
0000f0 ba ef ac 33 40 c0 77 af 68 37 66 36 27 db 81 b6
       8.05298e-08 -2.253282e-10 3.4304921e-06 -3.8700123e-06
000100 05 56 ba b5 66 f6 24 a5 0b f7 1d 39 57 e1 8e 29
       -1.3883115e-06 -1.4308216e-16 0.00015064717 6.345157e-14
000110 a6 aa f0 a6 f4 5c 24 39 c6 6c de b3 da f5 2a b2
       -1.66996e-15 0.00015674887 -1.0357466e-07 -9.9512025e-09
000120 45 47 ad 39 7e 92 0e b6 27 6c 50 b6 5a 26 82 38
       0.0003305023 -2.1244919e-06 -3.1057368e-06 6.2060266e-05
000130 da 85 a0 b6 4d 91 9e b6 8c 7a 80 ab 97 18 c1 34
       -4.783954e-06 -4.725682e-06 -9.128961e-13 3.5966943e-07
000140 c9 1d d1 38 96 23 2b b7 e6 09 27 38 9e 9a f2 36
       9.9714445e-05 -1.020068e-05 3.982512e-05 7.230162e-06
000150 d6 f1 88 b6 4b f7 24 37 83 37 95 2e 6c 97 39 32
       -4.0812693e-06 9.832739e-06 6.7855964e-11 1.0802847e-08
000160 3d 77 a9 aa 73 5a f5 a4 f7 20 98 36 ca 4d d7 ab
       -3.010317e-13 -1.0640504e-16 4.5337906e-06 -1.529826e-12
000170 e5 58 9f 36 45 8c cf 10 38 db 10 00 82 41 8a 38
       4.748918e-06 8.1863223e-29 1.548009e-39 6.5925546e-05
000180 a0 f7 b7 35 b8 5f 05 80 04 a8 f5 b3 86 8b d3 b5
       1.3706631e-06 -4.93515e-40 -1.14392634e-07 -1.5761332e-06
000190 c8 1c 24 27 8f 1a cd a5 e5 10 5f 35 45 9f 33 b3
       2.2775174e-15 -3.5579828e-16 8.309856e-07 -4.182154e-08
0001a0 d5 a4 c0 b8 b4 37 5f 38 74 d6 52 38 43 9c 27 39
       -9.185976e-05 5.321922e-05 5.0267627e-05 0.00015984573
0001b0 ce 9b e5 b8 28 c2 0f 39 40 ce fe 96 1e 99 dc 38
       -0.00010948592 0.00013709872 -4.1166075e-25 0.00010518938
0001c0 bb 63 8b 38 a5 f4 42 b9 72 f8 41 b7 41 5f dc b1
       6.646613e-05 -0.00018592419 -1.1561542e-05 -6.413672e-09
0001d0 3b 43 95 20 f6 d2 0b 2a 27 77 23 39 d8 c3 5c 35
       2.528607e-19 1.2418872e-13 0.00015589279 8.2241377e-07
0001e0 3c 6e 35 b9 6a c6 a4 38 46 9d fb b8 ab 39 28 b9
       -0.0001730257 7.857087e-05 -0.00011997907 -0.00016043212
0001f0 1a c8 00 b9 67 1e be ad f9 2c 23 b9 15 39 26 b9
       -0.00012281575 -2.1614e-11 -0.00015561645 -0.00015852258
000200 eb 96 c0 aa 9d bd d0 9e 87 7c 66 b6 02 cc 05 29
       -3.4210772e-13 -2.2101279e-20 -3.4345155e-06 2.970888e-14
000210 d4 2b 22 b2 89 71 80 b2 98 a6 2d 39 99 35 23 39
       -9.439606e-09 -1.4952791e-08 0.00016560627 0.00015564858
000220 bb 10 b9 b3 5f 5b 05 80 92 62 b9 36 be 17 aa b7
       -8.617777e-08 -4.91955e-40 5.5249047e-06 -2.0276635e-05
000230 40 27 7f 39 38 14 4b 39 39 8f 23 39 d6 03 06 80
       0.00024333317 0.0001936712 0.00015598246 -5.52389e-40
000240 b7 58 05 00 b9 57 05 00 6d 07 13 39 ec a9 a9 26
       4.91002e-40 4.90646e-40 0.00014021779 1.1772788e-15
000250 43 65 05 00 b2 e7 2e b9 29 5a 26 98 0b 54 82 39
       4.95503e-40 -0.00016680246 -2.1500516e-24 0.0002485815
000260 c6 5a 05 80 aa f8 03 b9 00 bf 10 38 f3 71 08 b7
       -4.91741e-40 -0.00012585768 3.4510158e-05 -8.132763e-06
000270 7e 69 c8 b7 3f ff 2a b9 cf d3 1b b9 99 7d 8a b2
       -2.3890982e-05 -0.0001630755 -0.00014860857 -1.612243e-08
000280 10 16 d3 37 b4 b9 89 b2 8b 06 b1 a3 06 e9 5d 37
       2.5163434e-05 -1.6033347e-08 -1.919315e-17 1.32268815e-05
000290 30 25 bf 01 f3 26 91 07 1f 1f ca 37 d5 57 05 00
       7.021568e-38 2.1840067e-34 2.4094768e-05 4.90686e-40
0002a0 cc 44 2f b8 ba 20 14 0c 2c c0 86 b9 7f 3b 94 b0
       -4.1787323e-05 1.1411354e-31 -0.0002570165 -1.0785327e-09
0002b0 ff 6c da 99 fd ec 59 37 c0 b2 49 33 d7 59 05 00
       -2.2584695e-23 1.2989386e-05 4.696153e-08 4.91406e-40
0002c0 5a 64 66 35 d7 9a b0 39 72 56 1a b0 ad fd d0 a3
       8.582771e-07 0.000336847 -5.614772e-10 -2.2658841e-17
0002d0 24 43 72 0f c9 4a 03 39 99 d8 4a 37 04 37 a4 20
       1.1944452e-29 0.00012520993 1.2090569e-05 2.7819087e-19
0002e0 5c 27 84 b3 de fd a1 b6 65 d4 ae 11 ba 5e b9 0c
       -6.1538884e-08 -4.827728e-06 2.7583258e-28 2.8560775e-31
0002f0 13 f2 40 38 99 0b 6c 00 07 c6 7f b1 51 99 89 a7
       4.6001816e-05 9.922394e-39 -3.721995e-09 -3.8191365e-15
000300 03 22 8b b5 11 5a de af 14 58 05 00 88 67 eb 2a
       -1.0366206e-06 -4.044556e-10 4.90774e-40 4.1816225e-13
000310 e5 e4 91 b2 99 67 61 b4 6c dd 14 36 1c 67 26 33
       -1.698431e-08 -2.0992447e-07 2.2182603e-06 3.8743664e-08
000320 ad ba 48 0a d9 e2 85 b3 d9 63 7f b3 09 be e1 ba
       9.6647595e-33 -6.2345585e-08 -5.9462625e-08 -0.0017222773
000330 e5 df 80 b7 18 56 25 2b 22 3f f5 34 24 2e 43 3b
       -1.5363048e-05 5.8739255e-13 4.568074e-07 0.002978214
000340 c5 8c 07 22 06 da 00 ba 35 c6 7c 27 af 68 9f 9c
       1.8370434e-18 -0.00049153005 3.5079474e-15 -1.0548797e-21
000350 af ee 82 2a 8a 42 89 a7 37 ad a4 22 e6 63 41 39
       2.325826e-13 -3.809728e-15 4.4635687e-18 0.0001844313
000360 de 60 05 80 06 29 bc 92 27 f8 17 b5 f3 7a 9a 28
       -4.93927e-40 -1.1874581e-27 -5.661299e-07 1.7150755e-14
000370 f1 14 ac 35 40 39 f2 b3 46 18 0d b8 c7 c0 73 b9
       1.2821093e-06 -1.1279417e-07 -3.3639626e-05 -0.00023246101
000380 9c bf 63 bb 01 6c 27 a4 d8 be 2b 89 c9 fd a4 38
       -0.003475166 -3.6303835e-17 -2.067311e-33 7.8674006e-05
000390 ab 12 2e b6 c5 a6 be a1 94 59 e2 b5 c4 e3 3a 8a
       -2.5938887e-06 -1.2919044e-18 -1.6864383e-06 -8.998412e-33
0003a0 97 63 05 00 ed bd 44 af 0f d8 8b 36 9c 2b 6c 1a
       4.94904e-40 -1.7893571e-10 4.1676753e-06 4.8838884e-23
0003b0 7f 20 3d b9 12 1a 08 b9 1d b1 9d a7 e9 e7 89 b5
       -0.0001803655 -0.00012979683 -4.376828e-15 -1.027479e-06
0003c0 47 f8 09 a0 93 16 1a b8 5f 61 9e 24 c3 7d 02 a4
       -1.16865e-19 -3.6737485e-05 6.868653e-17 -2.829578e-17
0003d0 1c 01 1c b7 24 62 05 80 a5 f5 8c ba 58 e2 c4 36
       -9.298583e-06 -4.94384e-40 -0.001075436 5.867605e-06
0003e0 b0 16 6f 35 b5 93 0f b9 38 49 39 36 f9 74 6a b9
       8.906745e-07 -0.00013692568 2.7609767e-06 -0.00022359555
0003f0 ac 16 e3 a2 e3 fe 87 a2 be a4 bd 2f 7f a8 93 b5
       -6.155248e-18 -3.6861695e-18 3.4495956e-10 -1.1001392e-06

lstm.bias_ih_l0 f4 [200]
000000 15 87 58 b7 ca 4f e3 b7 55 ad 28 b9 33 25 50 35
       -1.29060545e-05 -2.7097663e-05 -0.000160863 7.754017e-07
000010 8f 7d 38 3b ff f7 4a 9f a7 c9 ca 36 21 1f 08 39
       0.002815101 -4.29803e-20 6.0435445e-06 0.00012981567
000020 1a 40 90 10 ef 10 96 b9 14 94 d6 2e 83 a0 14 36
       5.689675e-29 -0.00028622846 9.757897e-11 2.2147149e-06
000030 51 e9 0c 35 2c 91 c3 92 a3 e8 bc bd ea 3f d4 32
       5.2493584e-07 -1.2342018e-27 -0.092240594 2.4709113e-08
000040 7b 37 ad 9d 60 f5 4c 38 f1 53 85 ba e7 de 81 39
       -4.5850084e-21 4.8865913e-05 -0.0010172111 0.00024770873
000050 23 f7 23 34 c9 78 e0 3a 4a ab e9 b4 7f a1 fa 25
       1.5270466e-07 0.001712584 -4.352426e-07 4.347752e-16
000060 03 fd 99 b9 f6 c1 48 ad f8 df 76 38 5e ee 22 2f
       -0.00029370943 -1.1411752e-11 5.8859558e-05 1.4818499e-10
000070 31 da 3d 34 88 b7 de 37 35 3e 61 22 e0 51 c0 39
       1.7681374e-07 2.6549926e-05 3.0526118e-18 0.00036682095
000080 bc c3 d7 a2 53 0c 0b ae 40 6b 87 38 cd fa 01 39
       -5.848311e-18 -3.1615887e-11 6.4572785e-05 0.00012395829
000090 16 b0 c2 37 54 59 05 00 46 ee f1 38 3d cc 0f b3
       2.3208599e-05 4.91222e-40 0.000115361574 -3.3480536e-08
0000a0 b2 d3 cf 39 96 78 2d b9 06 58 03 37 bf c9 52 1e
       0.00039639842 -0.00016543487 7.828703e-06 1.11590275e-20
0000b0 0f be a7 35 af a9 ef b1 5c 86 61 37 66 5c 30 3b
       1.2497784e-06 -6.9751063e-09 1.3442328e-05 0.0026910543
0000c0 3f 5a 05 80 09 c5 5e 3a 8e 80 74 33 be dc de b8
       -4.91552e-40 0.00084979885 5.6927597e-08 -0.00010626901
0000d0 22 62 35 b5 b0 5f 46 bb 40 c8 d5 b5 29 69 21 ae
       -6.7570556e-07 -0.0030269437 -1.5928017e-06 -3.6700563e-11
0000e0 85 17 ca 36 41 a2 08 3b a4 99 03 10 b5 4f 89 b5
       6.022807e-06 0.0020848664 2.5953555e-29 -1.0230493e-06
0000f0 38 1e 78 2b 4f d0 50 39 53 d2 2b 3a 52 ee cc 31
       8.8149236e-13 0.00019914027 0.0006554473 5.9642753e-09
000100 a1 35 34 ba 34 d4 0f 35 5c 46 c9 b4 7c 60 f9 ab
       -0.00068744464 5.358045e-07 -3.749036e-07 -1.7719294e-12
000110 34 fa 7c ba 53 58 05 00 f4 ad 16 39 60 1a 15 ba
       -0.000965032 4.90862e-40 0.00014369917 -0.0005687829
000120 bd 98 e5 b0 c9 41 08 ba 03 67 df 3d ee 62 43 33
       -1.6705354e-09 -0.0005197791 0.1090832 4.549195e-08
000130 cd f1 1d 36 a7 99 86 3b 6c 4d ef 38 bd a9 02 b5
       2.353557e-06 0.0041076723 0.00011410829 -4.8675776e-07
000140 02 d8 09 38 38 dc 4c 3a 32 d9 12 36 ab 64 41 39
       3.286452e-05 0.00078147976 2.188212e-06 0.00018443416
000150 10 ed 94 ba 69 17 b7 37 0c 9f bb b8 e3 10 dc b6
       -0.0011362154 2.1826201e-05 -8.94648e-05 -6.558477e-06
000160 5d de c1 39 1b 6b 21 b2 ed b3 cb 39 a2 20 9e ac
       0.00036977502 -9.395786e-09 0.00038853232 -4.494253e-12
000170 a5 41 7e 3b a8 9c 14 b2 e9 41 8b 3d 43 67 80 31
       0.0038796451 -8.650353e-09 0.06799681 3.73703e-09
000180 ec fe 1d bb 1e 2c 1e 39 fc a3 24 32 3d 63 bb 3a
       -0.0024108244 0.00015084489 9.583342e-09 0.0014296543
000190 72 78 b3 b8 f3 ae 68 b1 01 05 ae 37 ff bd c5 3a
       -8.55782e-05 -3.385989e-09 2.0744747e-05 0.001508653
0001a0 9c 1d 2b 3b 80 d7 da a1 f9 3d 18 34 b3 33 3c b1
       0.0026110178 -1.4829297e-18 1.4178649e-07 -2.7386988e-09
0001b0 7b f8 4b af ee 8f 2c b7 42 cb a9 b0 ed 54 a1 82
       -1.855102e-10 -1.028551e-05 -1.2354138e-09 -2.3705569e-37
0001c0 2d 81 d9 ae 95 95 99 2e bb 3b 5a b9 e3 29 88 b3
       -9.890964e-11 6.9842056e-11 -0.00020812351 -6.340613e-08
0001d0 3c 28 b4 38 80 c9 ba 35 44 cf 04 38 47 a4 40 bb
       8.590563e-05 1.3916724e-06 3.1664284e-05 -0.0029394792
0001e0 86 36 28 b1 60 35 76 ad 9c e4 97 32 fa d7 c9 b8
       -2.447821e-09 -1.3995333e-11 1.7682673e-08 -9.624656e-05
0001f0 7e 1d 8e 33 8e 5c 05 34 b7 1c ba b0 0e 17 6a 38
       6.617755e-08 1.2420261e-07 -1.3541442e-09 5.581142e-05
000200 af 17 51 b6 9e 34 9b ae ca d7 7a 90 7e da 61 2e
       -3.1157213e-06 -7.0579306e-11 -4.9470044e-29 5.1353137e-11
000210 62 79 37 27 ec c7 63 b0 e8 65 07 3a 98 b6 8a b2
       2.5462153e-15 -8.2866225e-10 0.00051650265 -1.6148348e-08
000220 ff a0 1e 0d 75 94 64 ba 51 5d e0 b7 9d 90 57 37
       4.88813e-31 -0.00087196316 -2.6746335e-05 1.2848669e-05
000230 9f f6 96 ab 97 ac a3 b1 d2 1b ec b8 dd 8b c6 35
       -1.0726592e-12 -4.7635456e-09 -0.00011258539 1.4792855e-06
000240 14 ba 92 95 82 2d 9f 86 74 6c 67 ba cd 23 ed 26
       -5.926251e-26 -5.987602e-35 -0.00088281115 1.6454882e-15
000250 6a 6c 05 80 55 40 4f 32 53 e8 75 3a 63 71 f8 b6
       -4.98069e-40 1.2063613e-08 0.00093806273 -7.404176e-06
000260 87 a2 75 b9 ea 3e 8c 3d 56 ee 05 3e b1 3f b9 32
       -0.00023425567 0.068479374 0.13079199 2.1565798e-08
000270 08 21 bd b9 9e 06 03 b9 8f 57 05 00 2f 99 5a bd
       -0.000360735 -0.00012495599 4.90588e-40 -0.053368744
000280 a8 26 22 2d c2 9d 1b b4 96 f2 8e 3a 65 3f ad 3a
       9.217217e-12 -1.4492892e-07 0.0010906036 0.0013217746
000290 4e e3 ca 2f 75 25 0f 39 03 78 04 93 e5 2d 1d ba
       3.6905096e-10 0.00013651497 -1.6719913e-27 -0.00059959135
0002a0 5f bc bb 3a 86 d5 f9 ba dc 71 e2 b7 a9 0e c5 ba
       0.0014323107 -0.0019060827 -2.699432e-05 -0.0015034276
0002b0 52 31 07 32 23 f7 51 2e 44 81 f2 2e e4 16 e1 2b
       7.869248e-09 4.77406e-11 1.1027848e-10 1.5993565e-12
0002c0 88 ff 0b 3b e0 5b be b5 cc 30 49 ba 7b c3 05 b5
       0.0021362025 -1.4182842e-06 -0.0007674813 -4.983082e-07
0002d0 e5 01 2c b8 69 df af 3a 81 b5 65 b9 c5 ac eb b7
       -4.100976e-05 0.0013418022 -0.00021906757 -2.8094635e-05
0002e0 c5 d0 71 05 56 ee d6 39 9f 70 42 bb be 7d 32 bb
       1.13701104e-35 0.00040994835 -0.0029669178 -0.0027235593
0002f0 55 32 1f 3a 70 fd 41 b7 13 46 89 15 e3 b7 a4 bb
       0.0006072869 -1.15627045e-05 5.544442e-26 -0.005026804
000300 d3 f9 34 34 cc 6f 3c b8 45 1b 32 bb 77 f1 fe ba
       1.6854692e-07 -4.4926812e-05 -0.0027176898 -0.0019450624
000310 8a 3d a1 b8 9a f9 36 bb d8 7e c0 3a fa 5e 12 3b
       -7.688541e-05 -0.002791977 0.001468624 0.0022334442

lstm.bias_hh_l0 f4 [200]
000000 0e 4e 73 39 09 e4 18 b6 42 f8 25 b9 65 4d da 34
       0.00023203364 -2.27825e-06 -0.0001582811 4.0661976e-07
000010 0f 33 70 39 14 77 19 38 da 14 de 36 08 27 6f b9
       0.00022907204 3.6588943e-05 6.618543e-06 -0.00022807356
000020 7d 06 28 b0 f0 b8 45 b7 2d 4b ac b9 1b 5a c3 a4
       -6.1127264e-10 -1.1785174e-05 -0.00032862407 -8.4720414e-17
000030 c6 7a 9b 35 bb 61 05 00 d9 31 e5 bd 0d 43 35 b8
       1.1584132e-06 4.94237e-40 -0.11191148 -4.321621e-05
000040 60 34 bd b0 fb 08 82 b1 89 54 85 ba fd 1c 1e bb
       -1.3766446e-09 -3.784519e-09 -0.0010172288 -0.0024126165
000050 0a a2 1b 2a 6b 41 21 3b f1 bc 2d b7 db 2c 39 38
       1.3822984e-13 0.0024605643 -1.0355595e-05 4.4149212e-05
000060 aa 08 f2 33 3f ce aa 2d ff 95 38 b1 5b 5d 27 b6
       1.1270579e-07 1.9418354e-11 -2.6860787e-09 -2.493928e-06
000070 e5 eb 67 39 80 de 0c b2 94 56 6b 39 de bf d8 39
       0.00022117754 -8.199663e-09 0.000224436 0.00041341683
000080 e7 66 35 95 1d 3e 87 2d c5 48 88 38 f7 bd 87 31
       -3.6633835e-26 1.5375307e-11 6.49854e-05 3.9506136e-09
000090 95 64 c0 37 4e 9d 7e b6 61 a9 fa 39 45 47 12 b7
       2.293502e-05 -3.7940513e-06 0.00047809913 -8.718872e-06
0000a0 c2 0d 50 b9 cf c6 11 b9 7f a9 80 37 9f 04 23 36
       -0.00019841551 -0.0001390234 1.5337717e-05 2.4291583e-06
0000b0 d2 93 c7 b8 be 54 46 ad f7 96 e2 20 a7 29 a9 3b
       -9.516593e-05 -1.12738135e-11 3.838579e-19 0.005162436
0000c0 3a 30 7c b8 13 ac c5 3a ec 01 53 36 53 ca f6 b0
       -6.0126396e-05 0.0015081189 3.1442569e-06 -1.795636e-09
0000d0 b9 5c 1f b3 7c bc 22 bb 3d 17 62 b1 39 37 1e 39
       -3.7104403e-08 -0.0024831584 -3.2900538e-09 0.00015088626
0000e0 01 f7 5a 38 fb c2 b4 3a e9 67 5d b4 ca df 1a 32
       5.220529e-05 0.0013791019 -2.0620031e-07 9.0148635e-09
0000f0 0d 48 89 b0 bc 0e a4 b6 87 e2 2a 3a d3 d9 4e b6
       -9.98854e-10 -4.889296e-06 0.00065187406 -3.0823182e-06
000100 1f 21 d3 34 47 e3 3f 39 96 5c 05 00 ae 80 90 35
       3.932591e-07 0.00018299847 4.92391e-40 1.0766287e-06
000110 b5 08 7d ba 52 d8 45 b6 c0 00 fb 32 51 44 14 b9
       -0.00096524815 -2.9481203e-06 2.9220587e-08 -0.0001413983
000120 b7 95 c1 b2 e7 39 09 ba 2d db 35 bd e9 5a 22 2b
       -2.253624e-08 -0.00052347634 -0.044398475 5.7680125e-13
000130 a6 96 43 36 9c c7 0a 3b 0f 30 65 35 52 0f 7a b9
       2.9144953e-06 0.0021176105 8.537908e-07 -0.00023847565
000140 ac ad 9c b0 d6 78 4a 3a 94 62 19 34 0a 3b eb 2e
       -1.1399854e-09 0.00077236944 1.4285098e-07 1.069705e-10
000150 1e b9 93 ba a8 12 59 33 71 de 54 a8 65 8e 0d 90
       -0.0011270379 5.0541217e-08 -1.1816598e-14 -2.7917044e-29
000160 1d fd e5 39 ad 44 64 2a 65 9f 91 39 67 54 97 b4
       0.00043866868 2.0274295e-13 0.00027775313 -2.8187353e-07
000170 49 63 ec b9 f3 1d b0 ab 58 e5 62 bd db fe 34 b9
       -0.000450874 -1.2513865e-12 -0.0553945 -0.00017261079
000180 c1 1f b7 ba 38 db a4 07 99 62 05 80 8d f3 4b 3a
       -0.0013971255 2.4804823e-34 -4.94548e-40 0.00077801273
000190 3e 53 16 b4 b7 9b 54 35 a7 68 65 32 e9 6e f4 3a
       -1.4000122e-07 7.920275e-07 1.33533495e-08 0.0018648776
0001a0 ea 21 2b 3b a4 98 42 39 62 e9 94 38 72 bd 25 39
       0.0026112744 0.00018558145 7.100661e-05 0.000158062
0001b0 98 e1 df 95 35 22 d6 b3 77 93 84 38 80 4c 28 0c
       -9.0424907e-26 -9.971374e-08 6.321718e-05 1.296527e-31
0001c0 67 02 60 2f 4b 91 36 b2 bd 2a 12 2c 25 98 be 36
       2.0373535e-10 -1.062683e-08 2.0771572e-12 5.680153e-06
0001d0 74 c8 46 31 0d 44 8d b1 88 4e 76 b9 8c 2f 43 bb
       2.8926737e-09 -4.1113766e-09 -0.00023489643 -0.0029782979
0001e0 60 7d 7e b1 f9 54 70 a2 75 4c be 32 5f d4 ce 39
       -3.7033132e-09 -3.257105e-18 2.215368e-08 0.0003944961
0001f0 5e 94 86 af d3 05 1c b3 ba 94 0d 31 27 3a b3 2f
       -2.447988e-10 -3.6326878e-08 2.0602742e-09 3.260123e-10
000200 ee 55 65 18 9f 9e 7f 27 4c 94 98 b9 1b 90 65 39
       2.964094e-24 3.5474348e-15 -0.0002910219 0.00021892825
000210 b4 bb b0 b4 ca ef 71 b0 65 10 80 3a d7 2b b4 b2
       -3.2919127e-07 -8.801605e-10 0.0009770511 -2.0974694e-08
000220 61 c7 4b b7 f2 cd 61 ba d2 5b 42 35 60 ff 91 b8
       -1.2146164e-05 -0.0008613757 7.240425e-07 -6.961706e-05
000230 c8 1c c0 b5 d6 17 3b a6 d9 cc ec 37 4f 7b c5 a8
       -1.4313491e-06 -6.491096e-16 2.8228782e-05 -2.192487e-14
000240 31 c5 c0 2a 26 74 92 86 de 6a 67 ba ef de ac 2a
       3.424288e-13 -5.508976e-35 -0.0008827875 3.070803e-13
000250 b0 ce c3 31 6c 2c b5 38 7a 39 8c 3a c2 3e dd b6
       5.6987446e-09 8.639027e-05 0.0010698282 -6.593619e-06
000260 2b fb 8b b9 7a c9 26 3c b0 91 35 3b 42 7e f1 2e
       -0.0002669928 0.010179872 0.0027705245 1.0981839e-10
000270 fe b2 c1 b9 c4 a2 0a b9 68 55 5f a7 b6 7c bf 3d
       -0.00036945188 -0.0001322134 -3.0993766e-15 0.093499586
000280 a3 80 0f b9 ca 5b cc 35 74 0b ed b7 5b 7c c1 3a
       -0.00013685464 1.5225899e-06 -2.8257935e-05 0.0014761792
000290 62 33 9d 2a 2f ab e7 38 48 c3 41 26 2e d7 14 ba
       2.7924456e-13 0.00011046824 6.722498e-16 -0.0005677816
0002a0 17 18 be 3a 27 03 c0 bb ca 72 a6 35 af 07 ca ba
       0.0014503029 -0.005859751 1.2401372e-06 -0.0015413667
0002b0 3d 7b b4 aa 99 ec af b6 d2 c9 a5 b7 7c b3 73 b7
       -3.2059937e-13 -5.24295e-06 -1.9763513e-05 -1.4525718e-05
0002c0 42 c6 0e 3b d9 a2 aa b9 90 4b 4f ba 39 5b 36 b0
       0.0021785651 -0.00032546258 -0.0007907683 -6.634085e-10
0002d0 c9 ed 67 b8 58 15 b0 3a 7e f2 35 b7 93 10 1b b8
       -5.5296146e-05 0.0013434095 -1.08449e-05 -3.6970316e-05
0002e0 19 f2 ea 24 11 43 e1 39 88 cd 43 3a 55 3f 32 bb
       1.0189145e-16 0.00042965313 0.0007469286 -0.0027198393
0002f0 83 cd 46 3a 64 8c 52 34 da 1e 54 34 70 f5 a6 bc
       0.0007583724 1.9608848e-07 1.9755262e-07 -0.020380706
000300 a5 9d b4 36 15 f2 d6 b9 ed 8a 35 bb 87 45 fd ba
       5.3827703e-06 -0.00040997626 -0.0027701214 -0.0019323089
000310 06 b0 08 b9 8c 11 35 bb f4 06 a9 3c 16 3d 11 3b
       -0.00013035545 -0.0027628867 0.020633198 0.0022161654

lstm.weight_ih_l0_reverse f4 [200, 33]
000000 14 f9 53 3a 2e 79 fb 3a 5c e9 82 3a 02 37 0a 3b
       0.0008086127 0.0019185895 0.0009987759 0.0021089916
000010 9f a0 83 ba 7c 81 fb 3a 80 c0 af 3a bf d1 8d 39
       -0.0010042376 0.001918837 0.001340881 0.0002704989
000020 8a b7 38 3a 1f ce 64 3a d1 1d c6 3a 93 c7 89 3a
       0.00070463924 0.0008728224 0.0015115087 0.0010511748
000030 4e 46 1c b9 3e bc 1e 39 42 b0 9e 3a 21 0a 05 3b
       -0.0001490351 0.0001513818 0.0012106972 0.0020300227
000040 32 36 46 b8 aa fe a9 b6 04 14 dd b8 6d 4c 06 b5
       -4.7257352e-05 -5.0662393e-06 -0.000105418294 -5.0030104e-07
000050 8c c9 c3 b7 e2 f3 85 b7 bf 3e 0d b6 4d 1d 88 b5
       -2.3339664e-05 -1.5968402e-05 -2.104716e-06 -1.0141317e-06
000060 8a 23 b3 b7 90 31 77 b6 68 ec 09 2e 6a e2 87 39
       -2.1355012e-05 -3.6834717e-06 3.1360164e-11 0.00025917898
000070 61 5f 81 b6 15 5c 27 36 05 6a c5 b6 ba 2a 23 b5
       -3.855603e-06 2.4938538e-06 -5.8834e-06 -6.078441e-07
000080 3a a2 4a b7 3f 08 3e 3a ee 74 ca 3a c4 92 37 3a
       -1.207791e-05 0.00072491536 0.0015446225 0.0007002766
000090 8b ec 4b 3a f2 84 a1 38 73 22 e1 39 d3 5b ea 39
       0.0007779083 7.701841e-05 0.0004294101 0.00044700372
0000a0 6f 27 44 3a ae f3 34 3a 5e 91 20 ba e8 c1 11 3a
       0.00074826827 0.0006902766 -0.0006125177 0.00055602053
0000b0 84 f2 80 3a 02 79 1d 3a f3 60 18 3a d1 88 fb 39
       0.00098379 0.0006007106 0.00058127864 0.00047976387
0000c0 0e ea 63 3a 99 28 ce 3a 3e 88 d3 36 d0 7a 76 3a
       0.00086942397 0.0015728652 6.3041507e-06 0.0009402456
0000d0 47 6d 83 39 8c 4e 38 ba 3c e9 50 ba 49 6c f9 b9
       0.00025067685 -0.00070307474 -0.0007969325 -0.0004757366
0000e0 44 e9 9b b9 5b 7e fc ba eb c6 59 3a d1 1b 0b 3b
       -0.000297377 -0.0019263731 0.0008307534 0.0021226297
0000f0 d9 f6 de ba 10 c8 e3 b9 39 e5 c2 ba ea bc c4 38
       -0.0017010822 -0.00043445872 -0.0014869339 9.381196e-05
000100 7c f9 9a ba 7a 52 7c 3a 20 9f 1d 3a 76 92 18 3a
       -0.001182362 0.0009625327 0.0006012786 0.0005820164
000110 97 96 d8 35 7b 35 99 36 22 31 86 b6 1d ad 1b 3a
       1.6137082e-06 4.5659813e-06 -3.999231e-06 0.00059385767
000120 98 0f f2 38 a8 60 ac 34 31 34 86 35 7e 1b 27 34
       0.00011542364 3.2107823e-07 9.998968e-07 1.5563089e-07
000130 3a 9e fe 37 ac 2c b1 38 5c c4 c8 33 c2 a9 4a 3a
       3.035284e-05 8.4483385e-05 9.348943e-08 0.00077309844
000140 07 b4 c2 37 64 73 7e 38 e3 6e 0d b4 85 e9 98 32
       2.3210434e-05 6.0665785e-05 -1.3171989e-07 1.7801321e-08
000150 ae 0d b4 b1 48 64 b6 b2 0e 05 55 b4 a5 b6 1b b9
       -5.2402447e-09 -2.1233191e-08 -1.983901e-07 -0.00014849992
000160 60 ef 39 b4 c2 28 91 b8 8a 6b a8 b9 d5 bd 9e 35
       -1.7316552e-07 -6.9217305e-05 -0.0003212358 1.1827166e-06
000170 21 58 fb 32 e2 71 14 b2 e1 a5 a0 33 ad 5e 65 b8
       2.9260322e-08 -8.640628e-09 7.480754e-08 -5.468603e-05
000180 8d 3a a3 35 b8 cf 92 38 3e 17 46 36 d2 f0 75 3a
       1.2161487e-06 7.000513e-05 2.9517828e-06 0.00093818933
000190 30 20 8b 39 06 e6 5c 3a 5c 5c 1b 3b 88 00 af ba
       0.00026536128 0.000842661 0.0023706174 -0.0013351599
0001a0 9b c5 2e 3a 76 c8 96 3a 72 e1 18 3a 0a 13 2d 3a
       0.0006667019 0.0011503834 0.0005831934 0.00066022633
0001b0 b2 9e 78 3a 4f 1d 5c 3a 8e 04 16 3a f2 c8 03 3a
       0.00094840967 0.00083967013 0.00057227246 0.00050271966
0001c0 3e eb 5c 3a 37 95 2b 3a 2c 32 64 3a c4 c2 ad 38
       0.0008427388 0.0006545367 0.0008704986 8.285561e-05
0001d0 65 04 56 37 87 11 f8 b7 b5 14 e9 b9 80 8f 16 ba
       1.2756417e-05 -2.9572066e-05 -0.0004445665 -0.0005743429
0001e0 3a 3a 12 ba f7 9f 43 b7 e5 a5 84 b9 16 a0 2a b8
       -0.00055781344 -1.166015e-05 -0.00025300603 -4.068025e-05
0001f0 6e bc 16 ba a0 e4 87 39 a8 41 0f 39 83 07 2e b9
       -0.0005750124 0.00025919545 0.00013662002 -0.00016596731
000200 5c 40 8d 3a a2 7d 82 b9 8a cd bc b1 9e a4 d8 b9
       0.0010776627 -0.00024889136 -5.494887e-09 -0.0004132138
000210 4c 10 3e 3b f2 a6 fc 3a 37 65 08 3b d0 2e 08 3b
       0.0029001413 0.0019275828 0.0020812282 0.0020779856
000220 f9 ee 0b 3b 25 3b fb 3a 87 58 ff 3a 63 41 0b 3b
       0.0021352156 0.0019167407 0.0019481339 0.002124869
000230 51 7a 09 3b fb eb 09 3b 5e e4 08 3b 5a 0c 09 3b
       0.0020977447 0.0021045196 0.002088807 0.0020911903
000240 d3 a9 0a 3b 77 8b 19 3b 64 36 47 3b 36 22 02 3b
       0.0021158352 0.0023429075 0.003039741 0.0019856817
000250 11 bf 21 bb 7f 95 0b bb be f8 b3 b9 c8 8d 32 3b
       -0.0024680535 -0.0021298823 -0.00034326868 0.0027245153
000260 86 ec 22 3b c2 6f 0b 3b c6 89 11 bb 24 a4 24 3b
       0.0024860217 0.002127633 -0.0022207364 0.002512225
000270 e0 3a 00 3a b1 b6 16 bb 9c 30 db 38 89 6f 0a 3b
       0.00048915856 -0.0022997076 0.00010451788 0.002112361
000280 c8 50 10 bb 8a 61 0a 3b 85 cc 12 bb b2 19 f3 37
       -0.0022020806 0.0021115267 -0.0022399735 2.8979823e-05
000290 5c fb 0a bb d0 a1 cf 3a 47 66 b6 3a fc 72 de 3a
       -0.002120695 0.001584107 0.0013915979 0.0016971524
0002a0 1e e4 95 3a 8a 28 e2 ba bb 88 07 3b a7 54 c8 3a
       0.0011435782 -0.0017254513 0.0020680863 0.0015284017
0002b0 84 c6 ec 3a ac 9f 01 3b 1e 68 e5 3a c3 3d b5 3b
       0.0018064533 0.001977901 0.0017502343 0.005531044
0002c0 5b 95 d5 3a af 22 fc 3a d7 3b 61 3b 0f 4d ed 3a
       0.0016295122 0.0019236411 0.0034367943 0.001810463
0002d0 f0 3c b6 3a 9e 73 fd ba 8f a0 09 3b a2 67 8c 39
       0.0013903659 -0.0019336825 0.0021000241 0.00026780093
0002e0 bd f4 e9 ba 6e 07 36 3b c5 43 42 ba 21 56 02 3b
       -0.0017849427 0.0027775425 -0.0007410611 0.0019887763
0002f0 0b 31 2c 3b aa 01 a9 3b 97 27 41 3b df 6d 46 bb
       0.002627435 0.005157669 0.002947306 -0.003027789
000300 56 1f 0e 3b ca 49 f4 3a 16 a3 f6 3a 4a bc dc 3a
       0.0021686158 0.0018637714 0.0018816914 0.0016840782
000310 d6 81 ff 3a 9a 83 f9 3a 54 1f 60 bd 99 15 0a bd
       0.001949365 0.0019036413 -0.054717377 -0.033712003
000320 d5 d8 c7 b9 07 dd 4b 3d 50 f3 65 3a 4c d4 93 3d
       -0.0003811779 0.049771335 0.0008771913 0.07218227
000330 1a a4 94 bb d3 69 66 a0 ab 9c 92 b6 7c 13 2c 39
       -0.004536164 -1.9516772e-19 -4.3693776e-06 0.00016410457
000340 41 55 01 b6 89 cd 87 b9 b5 36 8b b2 03 67 57 bd
       -1.9272122e-06 -0.00025902342 -1.6206608e-08 -0.052588474
000350 6b 9f c5 3b c6 87 bb 3c 6f bf 2e 30 49 64 80 b9
       0.006030967 0.02289189 6.3572875e-10 -0.0002448878
000360 00 4c ad 3c f1 48 8e a7 e7 19 d1 b8 b0 6a d2 1d
       0.021154404 -3.9492e-15 -9.970721e-05 5.569685e-21
000370 0b 5a ef b0 ba 3f d0 32 eb 49 cd 32 d0 d1 ca 34
       -1.741513e-09 2.4243366e-08 2.3898755e-08 3.777809e-07
000380 4b 12 ce 30 54 e0 11 35 41 8c fd b5 4b 85 31 b2
       1.4993672e-09 5.434315e-07 -1.8890788e-06 -1.0333063e-08
000390 dd 75 17 29 b3 ff 3e b7 d9 79 b8 2b de b6 1f 3b
       3.3630965e-14 -1.1384417e-05 1.3107806e-12 0.0024370472
0003a0 4b 63 2e 3b 90 c2 06 3b 33 90 05 3b b3 56 14 bb
       0.0026609476 0.0020562746 0.002038014 -0.0022634685
0003b0 34 7a 63 3a b7 1d 2a 3b 11 50 b4 3a a5 42 d1 3b
       0.00086775725 0.0025957653 0.0013756772 0.0063861185
0003c0 3b 0f e1 3a 84 63 1d 3b 47 40 bb 3a 55 72 c6 3a
       0.0017170677 0.0024015615 0.0014286124 0.0015140275
0003d0 85 da 34 3b 33 41 0b 3b 59 09 22 3b 2b 16 3a ba
       0.0027596068 0.0021248579 0.002472481 -0.000709864
0003e0 e9 5f 3e a2 7a b4 e7 b5 85 56 52 b8 f6 66 f9 39
       -2.5800576e-18 -1.7263367e-06 -5.014848e-05 0.00047569693
0003f0 b1 c7 d4 39 0e 71 14 3a c4 f8 c5 38 ab 9d 18 38
       0.00040584573 0.00056625984 9.440028e-05 3.6386464e-05

lstm.weight_hh_l0_reverse f4 [200, 50]
000000 15 a4 46 34 24 ff 7d 39 10 ab a9 b7 b1 d3 22 33
       1.849988e-07 0.00024223007 -2.0226027e-05 3.7911096e-08
000010 3f a2 a7 37 57 7d dc 36 3f 9c 34 15 e0 7c d2 37
       1.9983503e-05 6.5711024e-06 3.6473967e-26 2.50921e-05
000020 41 f3 21 39 7c 1d 02 35 db f6 06 b9 4b ff 6c b7
       0.00015444776 4.847168e-07 -0.00012871197 -1.4126136e-05
000030 df 01 65 39 5c 2b 18 24 ff 5d aa 22 2e 4e 16 2a
       0.00021839839 3.2996473e-17 4.6178115e-18 1.33498e-13
000040 13 59 eb b9 90 ac 11 39 93 ac 2f b9 4e 0c c0 23
       -0.00044889058 0.00013892562 -0.0001675359 2.0821893e-17
000050 83 62 05 80 47 c1 c8 24 91 df 89 39 ae b7 90 38
       -4.94517e-40 8.70636e-17 0.00026297246 6.900668e-05
000060 d2 09 fa 39 5f 8e 2c 2e 47 6a 62 ac 66 45 e2 b6
       0.00047691033 3.9234723e-11 -3.2175527e-12 -6.743404e-06
000070 eb 0b 07 38 7d fd 9a 39 01 e0 9f b7 bb d5 61 35
       3.2197608e-05 0.00029562032 -1.9058587e-05 8.413005e-07
000080 b2 83 10 38 a7 c0 4e 39 94 7a 74 b8 bb 50 e6 37
       3.4454926e-05 0.0001971746 -5.8288293e-05 2.745573e-05
000090 05 b1 60 37 ac e3 a7 b7 d3 9e 0a b7 50 4b 75 b9
       1.3392656e-05 -2.001397e-05 -8.26242e-06 -0.00023393077
0000a0 a5 7a 30 39 f3 9c cc 86 82 0c f5 b7 c7 ea d7 82
       0.00016830357 -7.696689e-35 -2.92121e-05 -3.1726166e-37
0000b0 f3 db 38 b3 f9 f4 4a b9 57 c1 a9 b1 cf f0 7d 36
       -4.304088e-08 -0.0001935548 -4.9405275e-09 3.7840107e-06
0000c0 54 19 82 b8 d6 f0 bc b7 58 21 28 3a 8d d1 1b ba
       -6.203601e-05 -2.2523494e-05 0.000641366 -0.0005944006
0000d0 c3 d8 fa b9 55 c7 f7 b9 33 e9 be 3a 2c 3b ee 39
       -0.00047845216 -0.00047260025 0.0014565348 0.00045438984
0000e0 07 6b 05 00 8c 11 00 3a 35 02 d5 a3 21 cc 8d 26
       4.97572e-40 0.0004885427 -2.3094441e-17 9.83917e-16
0000f0 7b 70 b2 3a 63 ad 05 ba 11 79 e1 b9 a5 a1 24 b7
       0.0013613844 -0.0005099384 -0.00043005546 -9.8127975e-06
000100 a4 77 8f b7 06 ce fb b9 50 43 ee b9 1f 78 60 3a
       -1.710264e-05 -0.0004802795 -0.0004544505 0.00085628213
000110 62 49 09 3a 74 29 11 1c f8 cf 41 b5 bb 02 e7 31
       0.000523707 4.803005e-22 -7.2200737e-07 6.7232953e-09
000120 b4 0e 92 39 a5 ed 05 3a da cd 00 ba 0b 40 b7 3a
       0.00027858245 0.0005108959 -0.0004913487 0.0013980878
000130 b2 02 f6 b1 fc 10 4f 38 ea 03 02 3a f6 ef 21 21
       -7.1598487e-09 4.9368464e-05 0.00049596897 5.486651e-19
000140 31 0b b8 9c 7b df 4f b5 e4 a9 01 3b 45 a2 93 3a
       -1.2178992e-21 -7.7438716e-07 0.00197851 0.001126357
000150 6b 69 fe 39 24 de 03 b1 c4 e1 f5 b6 4c 62 01 ba
       0.00048525198 -1.9189281e-09 -7.3278516e-06 -0.0004935607
000160 32 33 f3 b9 a8 02 89 b8 da ef 07 38 91 e6 01 ba
       -0.00046386715 -6.533164e-05 3.2409887e-05 -0.00049553165
000170 98 88 f8 b9 90 69 fc 05 28 1a f3 ba 59 c2 dd 3a
       -0.00047404016 2.3736744e-35 -0.0018547224 0.0016918882
000180 13 6d ff 39 28 9f b1 37 ea 58 05 00 c3 c2 f9 b9
       0.00048718657 2.1174157e-05 4.91074e-40 -0.0004763809
000190 d0 8a f7 b8 14 12 ea 31 83 a9 02 b8 e4 00 f6 b1
       -0.00011803734 6.8123516e-09 -3.1152285e-05 -7.1596435e-09
0001a0 be 49 81 b3 d2 fc 15 32 33 2e bd b8 f2 f2 a4 b4
       -6.020444e-08 8.730426e-09 -9.0208276e-05 -3.0724146e-07
0001b0 53 20 87 39 c1 4c 66 34 45 30 cc b6 f4 22 e7 36
       0.0002577329 2.1448342e-07 -6.085293e-06 6.8884056e-06
0001c0 a7 6b ed b1 c6 fe 72 a9 f0 aa 0e 03 e0 fa 63 b9
       -6.9098465e-09 -5.3955775e-14 4.1926276e-37 -0.00021741865
0001d0 c4 1d 09 b2 7a 91 f6 37 53 5b 38 b7 20 d4 aa 2c
       -7.9812175e-09 2.9393228e-05 -1.0988518e-05 4.855241e-12
0001e0 3a 44 e2 8a 8b db 18 97 37 2a 13 b5 d0 00 13 32
       -2.1788672e-32 -4.939095e-25 -5.48232e-07 8.556711e-09
0001f0 11 84 19 b2 95 a3 29 b9 a8 90 32 b6 29 cf 08 b2
       -8.9358005e-09 -0.00016178035 -2.6608268e-06 -7.963345e-09
000200 20 91 19 32 0f 4c 87 33 62 95 ef 35 99 d4 9b b5
       8.93877e-09 6.3002624e-08 1.7850364e-06 -1.1610274e-06
000210 f2 f8 80 b1 8e 40 18 32 9a 01 2e b5 9c f3 c1 34
       -3.753592e-09 8.8622425e-09 -6.482238e-07 3.61263e-07
000220 5f f1 20 1e 1e 86 09 b2 b3 12 1c b9 22 e0 c0 b4
       8.520244e-21 -8.004944e-09 -0.00014884285 -3.5925865e-07
000230 b5 6e 3f 30 59 ce 97 37 9d 35 e1 37 69 3f 68 39
       6.964272e-10 1.809669e-05 2.6847056e-05 0.00022148866
000240 1c 2d cf b1 07 ad 0b 31 41 d0 33 b8 25 45 8d b9
       -6.0296212e-09 2.0325517e-09 -4.2870877e-05 -0.00026945132
000250 71 b5 ab 32 2a 24 67 37 1e d9 94 39 4c 92 a7 39
       1.998953e-08 1.3777093e-05 0.00028390525 0.00031961722
000260 f8 49 83 ba e4 c8 16 b8 ea 33 d0 39 07 48 f3 38
       -0.0010016551 -3.594988e-05 0.0003971153 0.00011600559
000270 eb b7 23 af 47 59 d1 39 71 72 07 b9 4e 5d 2e 21
       -1.4890104e-10 0.00039930103 -0.00012917236 5.907698e-19
000280 ef 89 55 b7 0f b4 a7 b9 eb ce 44 b9 a6 93 d2 32
       -1.27279045e-05 -0.00031986876 -0.000187691 2.451436e-08
000290 7b 41 5f 39 ac d6 25 2e 83 1a ec b9 49 5e 84 38
       0.0002129133 3.7707323e-11 -0.0004503318 6.3118125e-05
0002a0 69 71 e3 39 6c 1d 13 ad 43 3b ac 35 5a 56 2c b7
       0.0004338131 -8.3625155e-12 1.2832246e-06 -1.0272104e-05
0002b0 9e a5 c9 b9 ca 91 a7 39 29 2e cf b9 e5 a0 65 38
       -0.00038461102 0.00031961343 -0.0003951651 5.47477e-05
0002c0 a7 a8 c3 38 04 bb a1 b9 57 92 0a 38 9d 13 89 38
       9.3297385e-05 -0.0003084765 3.3038054e-05 6.536322e-05
0002d0 02 03 86 b3 d2 bd 55 25 3a c7 6d 3a 2f 39 cb 39
       -6.2404084e-08 1.8539119e-16 0.00090705196 0.00038761782
0002e0 8f e3 ce 39 19 05 70 ae f5 a9 25 39 a0 96 1a ba
       0.00039460926 -5.457421e-11 0.0001579894 -0.00058970787
0002f0 7d c8 5b ba f4 e0 81 b5 79 50 1d 39 a1 6d a3 1e
       -0.0008384062 -9.676719e-07 0.00015002665 1.7303638e-20
000300 e6 04 a8 b9 d2 19 45 33 e7 ad 52 b9 41 9b 60 39
       -0.00032047107 4.589112e-08 -0.00020091944 0.00021420141
000310 4a 50 91 37 27 88 5c b5 a7 fb af b4 03 9d d1 b9
       1.7322734e-05 -8.2154514e-07 -3.277939e-07 -0.0003998057
000320 79 5a 05 80 1e f2 1c 3b 1f 0e 1b bb cc c5 e8 35
       -4.91633e-40 0.0023948024 -0.002365954 1.7342913e-06
000330 c2 e4 1c 3b 1a c9 21 3b ef 0a b6 2e 5a 91 1f 3b
       0.0023940061 0.0024686516 8.278344e-11 0.002434811
000340 60 8d 7a 2f 1a f8 cd 27 b9 0d b1 bb 34 9c 9e 39
       2.2787594e-10 5.7167922e-15 -0.005403247 0.0003025249
000350 9e 4d 1b bb ef 60 cd 38 4c 1c 52 b1 c6 0a 81 a2
       -0.0023697386 9.793217e-05 -3.0575107e-09 -3.4976927e-18
000360 04 10 1c bb 94 6a 13 bb 00 dc 65 3b c1 c9 9d 28
       -0.0023813257 -0.0022493945 0.0035073757 1.7517998e-14
000370 43 f3 c0 2a 5d 58 16 35 6a fb 1b bb a8 85 1a bb
       3.4274848e-13 5.600794e-07 -0.0023800978 -0.00235782
000380 7c e0 1a 1c 54 90 15 bb 68 06 20 80 73 bc 19 bb
       5.1244465e-22 -0.0022821622 -2.941034e-39 -0.0023458272
000390 5b 30 19 3b c4 c1 5b b6 94 14 80 b3 53 00 0a a2
       0.002337477 -3.274633e-06 -5.9642076e-08 -1.870266e-18
0003a0 be 6f 16 3b c2 64 1d 3b 8e b3 73 a9 49 a9 4a 11
       0.0022954787 0.0024016355 -5.4112578e-14 1.5987155e-28
0003b0 ed 27 16 b9 cf 39 6a 3a 48 9e 1a bb 25 10 aa b7
       -0.00014319988 0.0008935006 -0.0023592878 -2.0273097e-05
0003c0 2e 83 0d 1f 1e c0 69 09 a2 74 18 bb c2 3e 25 27
       2.996642e-20 2.8136688e-33 -0.0023262878 2.293237e-15
0003d0 91 a8 1d 3b 30 b8 0e 3b b1 29 ea 35 7f fb c6 a5
       0.0024056772 0.0021777265 1.7446492e-06 -3.4517945e-16
0003e0 ea 8e 82 b3 22 14 1c bb b4 e0 86 8a b7 c4 4f 3b
       -6.079593e-08 -0.002381571 -1.2988255e-32 0.0031702945
0003f0 86 f4 f6 ba dd 3a 23 36 67 c0 fd 3a 3e ac ce 3a
       -0.0018841184 2.4323156e-06 0.0019359709 0.0015767885

lstm.bias_ih_l0_reverse f4 [200]
000000 5e 60 1f 38 c1 97 12 3a cd c8 f7 38 13 e7 d8 39
       3.7998303e-05 0.0005592071 0.0001181528 0.00041370894
000010 e0 43 6c 3b e1 24 ee 3a 0c 8e 4e b6 e0 a9 a7 39
       0.00360512 0.001816895 -3.0779074e-06 0.0003197929
000020 49 f1 7b 38 40 ac 75 37 f9 7a d2 2e c3 81 cc b2
       6.0067778e-05 1.4643243e-05 9.571539e-11 -2.3807734e-08
000030 06 93 22 3b 11 f4 0c ba 11 18 82 b8 02 1e e5 39
       0.002480687 -0.0005376945 -6.203366e-05 0.0004370064
000040 ee 1b 63 3b ac 83 85 38 b0 fd 1e 3c 01 62 38 ba
       0.0034654099 6.36646e-05 0.0097040385 -0.00070336467
000050 ea a8 00 bb ab d3 ab b9 00 b3 2e 1e 23 02 6b 34
       -0.001963193 -0.00032773367 9.2485e-21 2.1886858e-07
000060 25 db da 3a 96 7c 5d bd ac 6e 80 b9 ab 27 44 39
       0.001669739 -0.054073893 -0.0002449652 0.00018706794
000070 8a 9d b6 1b f4 f2 9a 37 01 dd 07 b6 99 e6 51 b4
       3.0211182e-22 1.8471364e-05 -2.0245209e-06 -1.9548533e-07
000080 1c 41 58 38 bc 40 da 3d b8 54 ce 3a 17 aa 09 3b
       5.155905e-05 0.10656878 0.0015741801 0.0021005922
000090 6f 8c 5b 27 c9 18 b7 33 62 f6 69 37 8f 56 ec ba
       3.0468485e-15 8.52611e-08 1.3945248e-05 -0.0018031168
0000a0 84 44 c9 b9 ec c2 90 36 af 18 fb bc 62 20 68 b5
       -0.00038388756 4.3142263e-06 -0.030651418 -8.647386e-07
0000b0 a5 4e c0 20 07 bb 2d bd c6 fd fb 36 9c 1c 55 ba
       3.2578108e-19 -0.04241469 7.509926e-06 -0.00081295683
0000c0 bf ab 3c af 55 7e da 33 45 a2 6e ba fd 33 13 bb
       -1.7159517e-10 1.0174396e-07 -0.00091031595 -0.0022461407
0000d0 9e f9 a7 b8 a8 43 26 38 19 5b 05 00 09 18 f4 b3
       -8.0096754e-05 3.9640494e-05 4.91857e-40 -1.13665074e-07
0000e0 8a 90 98 37 ff 22 be 37 e8 4f 41 a9 dd 08 6f b5
       1.8187118e-05 2.2666061e-05 -4.2923916e-14 -8.9047336e-07
0000f0 d5 78 1e 3b 10 e7 81 b7 27 21 5e 3b d3 21 5a 37
       0.0024180908 -1.5485595e-05 0.0033894272 1.3001688e-05
000100 ce 09 3a b5 6f ce 60 37 16 7d e0 b3 fa 23 30 bb
       -6.930467e-07 1.33995045e-05 -1.0453566e-07 -0.0026876912
000110 98 01 21 29 cf 20 0b b9 fe dc c9 b8 b9 9d a1 35
       3.5750564e-14 -0.00013268295 -9.62559e-05 1.2041338e-06
000120 67 ec 68 30 bb 43 08 bb f8 4a d0 1b 76 08 e5 b7
       8.4737056e-10 -0.0020792324 3.445916e-22 -2.7302867e-05
000130 b1 dc 95 35 dd fa 05 ba fb 40 e7 3a 3e 1d 61 b6
       1.1165595e-06 -0.0005110929 0.0017643267 -3.3544634e-06
000140 59 e5 57 b9 fb f7 69 2e c4 40 07 3b 33 de 87 bd
       -0.00020589436 5.3198317e-11 0.0020637969 -0.06634178
000150 b5 30 be 31 34 80 86 ae f8 a8 95 36 59 1c 95 3d
       5.535265e-09 -6.116388e-11 4.4602166e-06 0.072807975
000160 ec 7b 96 b0 1d b1 a2 b5 d1 79 20 39 f2 e7 69 b9
       -1.0949157e-09 -1.2121487e-06 0.00015304169 -0.00022307018
000170 6e ea fa bb fd ef 87 38 5b 43 cc bb ac 32 3d bc
       -0.0076573407 6.482003e-05 -0.0062336153 -0.011547726
000180 df 80 92 38 95 aa a8 b9 8d 92 4e 34 7b dc dd 33
       6.9858266e-05 -0.0003217055 1.923856e-07 1.03312196e-07
000190 9f 38 ab 38 84 09 1f 22 28 e7 11 35 c2 da b0 af
       8.164462e-05 2.1553556e-18 5.4353086e-07 -3.216965e-10
0001a0 b9 d7 6a 33 e5 a6 06 3b 38 95 24 36 fd 73 62 33
       5.467857e-08 0.0020546254 2.452476e-06 5.2725216e-08
0001b0 c3 78 f1 31 9b 3c 06 37 c3 8e 5e 3a 98 7b b6 3a
       7.027752e-09 8.001133e-06 0.0008489901 0.0013922332
0001c0 fc eb 2b b5 1d 74 6d b7 3f 41 f1 ac db 34 f5 38
       -6.4045867e-07 -1.41533355e-05 -6.8568757e-12 0.000116923555
0001d0 6c 20 88 bb 1b 59 05 80 3b 5c 05 80 21 ac 54 ad
       -0.0041542556 -4.91143e-40 -4.92264e-40 -1.2089025e-11
0001e0 51 ba 46 9d c1 5a 5e b5 d8 00 4d bd 1f 69 19 3b
       -2.6301405e-21 -8.283351e-07 -0.050049633 0.0023408604
0001f0 92 fd 10 b7 c1 31 83 39 47 27 f6 33 a7 57 1f bb
       -8.642108e-06 0.00025023337 1.1462412e-07 -0.002431372
000200 e5 2f 97 39 36 7b 28 0e 86 63 db ab ed 59 1d b0
       0.0002883665 2.0766923e-30 -1.5588509e-12 -5.724406e-10
000210 66 f4 0f be 11 2c e6 39 f7 e6 39 3a 4a 1a 07 ae
       -0.14058074 0.0004390185 0.00070916064 -3.0718796e-11
000220 df 71 1d b2 73 fe aa ba 22 77 7c 36 58 9a 44 b1
       -9.164494e-09 -0.0013045802 3.762027e-06 -2.8609488e-09
000230 71 1e da 33 54 24 8c 3a e7 8a 93 b9 b0 51 d5 38
       1.0156953e-07 0.0010691979 -0.00028141515 0.00010171847
000240 b3 ea c3 b5 56 da 69 3a da 7c bb 38 00 ca 0a b3
       -1.4596939e-06 0.0008920779 8.94011e-05 -3.2314347e-08
000250 43 b9 f7 11 57 fe ca 37 61 4a c9 3a 5b bc 7a 3a
       3.9083905e-28 2.4198713e-05 0.001535725 0.00095648103
000260 22 a3 c6 3d 93 a6 9c 39 e2 06 0d 31 92 43 4f 36
       0.09699084 0.00029878746 2.0522113e-09 3.0884735e-06
000270 7d 5d 66 9c 9a ce d3 3b 1d 35 27 37 19 ac b8 b7
       -7.6221447e-22 0.006463838 9.966342e-06 -2.2014648e-05
000280 e1 15 87 3d 58 2c aa b7 28 0d 08 3b fa e3 19 b3
       0.0659597 -2.0286228e-05 0.0020759795 -3.5830432e-08
000290 dc bc 11 bb 57 eb 8c 3a f1 04 38 3b a6 41 58 3b
       -0.0022237813 0.0010751289 0.0028079117 0.0032998114
0002a0 19 10 e6 31 ad 0a 3c 38 ad af b4 3b da 76 e6 b8
       6.695711e-09 4.4832635e-05 0.0055141062 -0.000109893925
0002b0 63 51 b6 3a d2 d3 2b ba 84 da c2 38 07 b0 0a 34
       0.0013909753 -0.0006554696 9.2913426e-05 1.291629e-07
0002c0 4c a9 02 b5 f5 aa 74 3a a5 02 85 34 e0 46 c2 37
       -4.8675133e-07 0.0009333336 2.4775105e-07 2.3159606e-05
0002d0 77 6b a0 36 3a 4b 04 93 0b 0b 65 bd 44 e4 51 3a
       4.780882e-06 -1.6697832e-27 -0.055918735 0.00080067315
0002e0 9d 83 ac 35 e2 72 09 b9 ad f4 f7 ba 5b bd 05 3b
       1.2853303e-06 -0.00013108135 -0.0018917524 0.0020407054
0002f0 d2 a6 02 bb 4e 69 b0 37 9e 15 0a 36 ae 8f ac 3a
       -0.0019935858 2.1029871e-05 2.0576185e-06 0.0013165378
000300 42 e7 40 b4 a9 12 1b ae 86 b6 d7 3d 68 19 0b 3b
       -1.7965525e-07 -3.5259493e-11 0.105328605 0.002122486
000310 c0 ba 85 3a ce 0a 42 b5 d3 cf b4 bb 98 9c 60 bb
       0.001020275 -7.2286355e-07 -0.0055179386 -0.0034273025
