trained_models/LSTM_trained_model_2.pt (torch, 870803 bytes, 33 tensors)

lstm.weight_ih_l0 f4 [200, 33]
00000000: 2406 3b3b f3e8 293b f541 5e3b 787f 363b
00000010: 97a7 36bb 2fec 333b 60a4 313b b10d 333b
00000020: 5be1 343b c70a 353b 9e66 343b 1d3e 383b
00000030: abed 303b d37f 323b 29ac 543b 22d0 353b
00000040: 92de 2ebb 9f32 2e3b 944d d3ba 2678 22bb
00000050: 5d8d 32bb 74ab 3bbb 542d 703b aa34 92b5
00000060: f6d0 ddba 8b6f 86bb 6011 223b 5320 bc3a
00000070: 67ec 303b 9494 283b 703f 303b e97f 2f3b
00000080: c7c6 1b3b a2b6 033b b011 033b 78c5 8736
00000090: 374b db3a 8f7d 00a6 7e61 153b bfac 8239
000000a0: 3916 7fb3 6c85 4436 8d57 0580 43dd 7821
000000b0: 2dba 6d11 67a3 dc25 b344 e73a ba38 a594
000000c0: cc21 c637 f15a 0500 4bba 832c f23d 4526
000000d0: 8adc 5cb1 fbe1 79b3 490a 4533 c5a4 bc27
000000e0: 3b6d 91ac 0288 03ad f994 b4ab d0e6 44ab
000000f0: 7ef7 b229 9f0d da36 cae8 0b34 6093 4a2e
00000100: 6af0 f2b6 c0aa 0cae 5ce4 d539 393f c139
00000110: 699a 9039 9ace dc39 6462 f7b9 8a1f d339
00000120: 12e4 e939 f687 4d39 6dc8 a039 4c08 0538
00000130: 2744 fc39 bfe2 5639 f737 3a38 6902 c639
00000140: ea3c cf39 c2e6 e639 b66d 7db7 cb28 bb37
00000150: 61c4 1fb6 71a7 c4b7 e716 ceb4 f9f8 eb36
00000160: be59 fa37 6133 9c35 4ae1 a936 cd4d 89b5
00000170: c32f 0c38 eb73 e4b6 cb28 b137 8f3c a0b5
00000180: e324 a937 18ed 01b6 20cf e437 77d1 6fa2
00000190: 0228 1937 4e3e 31b6 6250 5da2 b861 e9b1
000001a0: e537 ab35 456e 8ba1 e30b 4328 3b67 e32e
000001b0: 7ed9 469c e576 0da0 35d3 689d ba12 3634
000001c0: ea3c 4431 cace 0aa4 987b ec2a 7a5a 039c
000001d0: 4b57 a128 a1c4 a334 6403 0a1c 1a47 ce1a
000001e0: 66bb 85b7 2b59 792a 5c75 b1b2 a728 8637
000001f0: 8261 d836 18b0 f42c 6d6c a335 379e c0b5
00000200: 2238 5cb7 fbd8 009d c8c0 111c 8f8f f101
00000210: d050 6f3b 5895 6d3b 5598 df3a 5929 9e39
00000220: daac 313b f957 303b 6e9b 4d3b 8a49 a136
00000230: c11e a038 a30b 8e38 2a93 8f3b c113 3f39
00000240: 6064 7c37 cf60 733b 20ca eb3a 4180 1b3b
00000250: fe99 f2b6 5ef2 3730 6d76 64b5 cafa 0e35
00000260: de72 b2b4 c239 10b4 5318 8a2b fee7 9337
00000270: 9b5f 7db5 91f4 ed34 1c80 46a6 2db4 b736
00000280: 1e68 37a1 8457 a234 bdb8 80b7 b891 ad30
00000290: bd40 1fb5 1d9d be3b 3b88 cf3b 4fa5 9137
000002a0: cd12 1338 7735 c538 0942 d73b 5a54 a53b
000002b0: 8619 b0b5 9a51 8531 4c12 29b7 cf1b dd3a
000002c0: ae51 792d 6395 3cb7 5cac 2b3b 5bcf e42d
000002d0: 4916 9bb8 8059 0500 978f fa00 479e 282d
000002e0: 5a81 5fb5 cc5f 0580 44a0 5fa8 365b 0500
000002f0: e9df 2230 e85f 0580 f160 0500 4b92 fe31
00000300: c858 0580 01b0 3b32 9de6 11a6 eabe 4132
00000310: e4ba 2b37 39fd fab1 c56b f238 9b93 1039
00000320: c7e2 1ab5 a1e0 3eb5 e7b0 ce34 e688 ab38
00000330: aed8 bc37 22f1 c5b3 1fca 5ab4 d3e7 2bb5
00000340: 2116 09b5 4386 4bb2 f855 2db4 8c1b a038
00000350: d55d b8b4 576d e9b5 75fc 5a33 662c eb31
00000360: a241 96b1 96db 4532 a171 4734 53ca c133
00000370: 1462 7732 27ca dbb1 f490 d6b6 58e5 2c34
00000380: 3426 cdb3 be5a 7532 a0fe 82b1 0d87 28b6
00000390: 22e3 17b2 0ef8 02b2 b123 d2b1 f511 b73a
000003a0: c11c b03a 3dce d532 fad7 2836 b989 05b9
000003b0: ab02 b23a 3f1f 923a bfb6 c02c 4b3e 262e
000003c0: 90d7 0936 6243 9138 e1b2 ae37 6648 0635
000003d0: abbe b23a f074 8336 7ac1 3f3a 8250 a9b1
000003e0: c963 3233 2b3f 5e34 22be 1937 6e24 65af
000003f0: 79d8 bab0 8e72 979c c456 3832 9094 2137
0.0028537596 0.0025926202 0.0033913825 0.0027846973 -0.0027870887 0.0027454009 0.0027106032 0.0027321393
0.0027600143 0.0027624832 0.0027526985 0.0028113194 0.002699713 0.0027236834 0.0032451248 0.0027742465
-0.0026682955 0.0026580465 -0.0016121143 -0.0024790852 -0.0027244904 -0.002863613 0.0036648111 -1.0893175e-06
-0.0016923237 -0.0041026524 0.0024729595 0.0014352895 0.0026996376 0.0025723325 0.002689328 0.0026779121
0.0023769604 0.0020097871 0.0019999556 4.046302e-06 0.001673079 -4.4579085e-16 0.0022793706 0.00024924238
-5.9392026e-08 2.9283938e-06 -4.90585e-40 8.4318506e-19 1.8753373e-28 3.8274642e-16 0.0017644375 -1.6683117e-26
2.3619177e-05 4.91801e-40 3.7439266e-12 6.8432057e-16 -3.2139575e-09 -5.818036e-08 4.587699e-08 5.2359126e-15
-4.133275e-12 -7.476688e-12 -1.2831117e-12 -6.9953505e-13 7.947721e-14 6.498492e-06 1.3030072e-07 4.6060378e-11
-7.24015e-06 -3.198397e-11 0.00040796667 0.00036858933 0.00027580865 0.000421156 -0.00047184818 0.00040268555
0.0004461115 0.00019600973 0.00030666907 3.1717398e-05 0.00048115963 0.000204931 4.4397977e-05 0.000377673
0.000395275 0.00044040947 -1.5105519e-05 2.2311133e-05 -2.3807154e-06 -2.3442992e-05 -3.8387154e-07 7.03253e-06
2.9844112e-05 1.1637859e-06 5.0628196e-06 -1.0229938e-06 3.3423083e-05 -6.808424e-06 2.111904e-05 -1.1938554e-06
2.0163547e-05 -1.9360505e-06 2.7276168e-05 -3.250143e-18 9.128826e-06 -2.6411321e-06 -2.999364e-18 -6.792302e-09
1.275676e-06 -9.448194e-19 1.0827252e-14 1.0341102e-10 -6.5793807e-22 -1.1982503e-19 -3.0814136e-21 1.6956884e-07
2.855638e-09 -3.0099137e-17 4.2007782e-13 -4.34612e-22 1.7912448e-14 3.0504182e-07 4.566475e-22 8.5314474e-23
-1.59421e-05 2.2146579e-13 -2.065888e-08 1.5992975e-05 6.448653e-06 6.9544474e-12 1.2176002e-06 -1.4351161e-06
-1.3126091e-05 -1.7052835e-21 4.822564e-22 8.8735415e-38 0.0036516674 0.0036252346 0.0017058948 0.00030166915
0.0027111084 0.0026907905 0.003137316 4.806735e-06 7.635123e-05 6.773255e-05 0.004381557 0.00018222538
1.5043741e-05 0.003713656 0.0017989315 0.0023727568 -7.230089e-06 6.6919437e-10 -8.510895e-07 5.326407e-07
-3.323866e-07 -1.3432057e-07 9.812241e-13 1.7631795e-05 -9.438897e-07 4.4322636e-07 -6.886867e-16 5.4748e-06
-6.214061e-19 3.0238527e-07 -1.5344815e-05 1.2628822e-09 -5.932632e-07 0.005817069 0.0063333786 1.7362325e-05
3.506504e-05 9.4036506e-05 0.0065691513 0.005045456 -1.312045e-06 3.8800865e-09 -1.0077445e-05 0.001686925
1.4172148e-11 -1.1240455e-05 0.0026195263 2.6012683e-11 -7.395127e-05 4.91284e-40 2.3010384e-38 9.584839e-12
-8.3262205e-07 -4.93543e-40 -1.2413739e-14 4.91898e-40 5.925345e-10 -4.93582e-40 4.93954e-40 7.4090045e-09
-4.91026e-40 1.0924851e-08 -5.061952e-16 1.1277487e-08 1.0235908e-05 -7.3047457e-09 0.00011559533 0.00013787897
-5.7699475e-07 -7.1107394e-07 3.8499203e-07 8.179415e-05 2.2512246e-05 -9.217389e-08 -2.0376363e-07 -6.403981e-07
-5.106868e-07 -1.1846683e-08 -1.6143156e-07 7.6345255e-05 -3.4340943e-07 -1.7391675e-06 5.098669e-08 6.8444477e-09
-4.373036e-09 1.1516837e-08 1.8574657e-07 9.0240654e-08 1.4399593e-08 -6.396721e-09 -6.3945718e-06 1.6102183e-07
-9.5530055e-08 1.4281509e-08 -3.8124455e-09 -2.511256e-06 -8.841001e-09 -7.623397e-09 -6.115862e-09 0.0013967144
0.0013436304 2.489025e-08 2.5159666e-06 -0.00012735174 0.0013581117 0.0011148228 5.477257e-12 3.7799357e-11
2.0540065e-06 6.92669e-05 2.0825713e-05 5.0024244e-07 0.0013637146 3.9177175e-06 0.0007314902 -4.9277e-09
4.153461e-08 2.0698342e-07 9.163779e-06 -2.0840371e-10 -1.3594806e-09 -1.0021953e-21 1.0729938e-08 9.630938e-06

lstm.weight_hh_l0 f4 [200, 50]
00000000: cdd6 133b 76ed 303b fb34 e227 f805 27b3
00000010: 2771 2fbb 7d04 36bb ed26 542c 72b9 94bb
00000020: c65a 0500 bdd5 303b e959 0580 c5ec 303b
00000030: 7c65 242b 07a1 3eb1 3b17 313b 6ea1 32b6
00000040: 1253 488b 20ed 303b c023 75b7 10fe b827
00000050: 46ed 30bb b281 24a3 6ced 303b cac0 2fad
00000060: dbcc 8e3b dde2 303b 86ed 30bb 6336 363b
00000070: b87f 162b 5163 0580 a9e6 30bb 9ea6 303b
00000080: db5b 0500 90f8 a217 d654 79ae 60ed 303b
00000090: fac2 eb0e 14ec 30bb 9c15 bb2f 4c11 0e3b
000000a0: b369 0500 6364 d03a 7e5f 0500 8c89 a83b
000000b0: dd6c 3bb3 b8d6 9734 27f1 f5a1 28af 2dbb
000000c0: bd84 303b a71a 4816 9340 5d35 e23b 2896
000000d0: e36e 8a29 735c 0500 2c86 bb31 9f59 0500
000000e0: 6727 8527 205c 0500 d3da dcb1 c050 24b0
000000f0: 4000 bfac 00c3 2032 fcb4 fe20 29aa d9aa
00000100: 61a6 6e32 c875 efaf 954e 03a4 f5c3 f332
00000110: 8551 eb27 c35b ce24 7cf9 3036 451d 3526
00000120: b858 b32f 0e58 42a8 3100 9327 731b b931
00000130: 67aa 3eab d4ca f413 732c a436 b52a 4aa9
00000140: 705a 0580 0294 ae36 8257 0500 405f 83ac
00000150: b190 7f37 71b5 269c cb13 e120 9445 b335
00000160: 67f7 4d30 5111 e12c 7474 4fa2 2ce0 b230
00000170: d462 3436 4b33 0db3 de72 3e35 e105 7833
00000180: c033 bbaf 00ac ff32 288c 702c e41f 782c
00000190: 08c6 5938 7c5b 6138 9768 71b7 7916 c0a2
000001a0: 49db ccb7 960d 6b38 d69f 75b8 4004 7fb7
000001b0: f626 aaaf aca0 7bb8 d0c9 08af d780 5738
000001c0: 6428 b69c 1958 0500 1cf6 1438 2a86 1e14
000001d0: 952e 729c 4ce6 9737 eff8 9737 f554 ae9d
000001e0: 4e98 5537 8bb4 89ab 4348 7738 2ef4 4236
000001f0: f030 2635 9381 b337 156e 65b8 f5ed f637
00000200: 29bd f40f 4879 2238 8d9e 1c81 d5fd 95b7
00000210: 72bf 7b31 df13 ff35 c800 6cb6 4ae2 f89f
00000220: 8e5b bf0d b3b4 1238 4d01 10b0 9f5d 37b8
00000230: 1416 b49e 502b 4338 e99d a5b2 e9ff 2638
00000240: dfd6 b5af 4cb2 eeb7 15a2 152a 033d 01b8
00000250: 5015 dd37 1866 0580 7ce7 2633 9403 8db4
00000260: 2647 2335 4a39 ec36 0442 d81b 11f0 129c
00000270: d31c 111c 6645 131c 878e cfb4 1ba1 f81b
00000280: 6b66 0500 dcd6 5aab a457 0500 9c70 2937
00000290: cfd1 119c 26e3 a2b6 d36f 3b34 3772 93b3
000002a0: c254 b3b4 e305 73b6 d2f6 a0b6 2469 0500
000002b0: f47d c134 540d e9ac 79f4 329b f25b 75b1
000002c0: 2795 071c 24b3 049c 4094 b534 b1e6 129c
000002d0: 3327 4bb5 668b c71b 7bce 56b7 1c5c 0580
000002e0: 405c 0500 2c5d 9f30 df58 0500 c549 129c
000002f0: 2c1a 8f20 a496 5137 dc61 41a9 9dd7 dc9b
00000300: 8d58 0580 5f17 7b36 5a10 0434 598d d91b
00000310: 7e57 0580 cd1f 8a34 471b 009c 115d 0580
00000320: 6cc1 6935 0c36 ab32 b9c2 50ab 5d8e fc9b
00000330: 1de9 52ac ea9b 0db4 555f 0580 4c6c 81b3
00000340: 7259 0580 cb12 0835 68b5 2d32 26bf b032
00000350: 065b 0580 327e 5dae 4dbf c134 7fec 08b3
00000360: 4263 0500 2d19 8533 cde3 8530 353c 7a37
00000370: eadb 0ab3 effb d406 c188 3c33 5e5d a793
00000380: 9cdf a72d f65f 3d33 af13 0bb3 d6a8 9937
00000390: 4557 0580 9d04 148c 9243 3eb5 9187 4e33
000003a0: 0475 9a31 9ef3 05af d3f1 9db6 b5f1 bfb7
000003b0: bca0 c335 507d 19b3 4064 0500 2c95 9532
000003c0: 4ddb 5ab2 bc56 0933 afae e7b1 9dbf a832
000003d0: fc59 0500 0e0a 09a8 9a50 dc32 dd19 88a0
000003e0: 0af0 d732 e85f 0500 1d30 1d9c d80b 3db1
000003f0: b98f e48e 704c 28b5 8c57 3017 24d7 9098
0.0022558451 0.0026997006 6.2785042e-15 -3.8888146e-08 -0.0026770325 -0.0027773671 3.014862e-12 -0.0045387084
4.91741e-40 0.0026982867 -4.91431e-40 0.0026996594 5.840534e-13 -2.7740172e-09 0.0027021903 -2.6618031e-06
-3.8581094e-32 0.0026996806 -1.4611462e-05 5.1345714e-15 -0.0026996895 -8.917922e-18 0.0026996983 -9.990406e-12
0.004357917 0.002699069 -0.0026997044 0.0027803413 5.346795e-13 -4.94805e-40 -0.0026992953 0.002695478
4.92129e-40 1.0531751e-24 -5.6691395e-11 0.0026996955 5.811973e-30 -0.0026996182 3.4030456e-10 0.002167779
4.97095e-40 0.0015899058 4.93434e-40 0.00514335 -4.363834e-08 2.828217e-07 -1.6665678e-18 -0.0026502106
0.0026934587 1.6164281e-25 8.2422883e-07 -1.3589828e-25 6.147667e-14 4.92342e-40 5.45767e-09 4.91327e-40
3.6957636e-15 4.92226e-40 -6.42772e-09 -5.9777605e-10 -5.4285743e-12 9.357564e-09 4.314904e-19 -3.8665016e-13
1.38912535e-08 -4.3557535e-10 -2.847266e-17 2.8378034e-08 6.5313986e-15 8.949371e-17 2.6371263e-06 6.283666e-16
3.262295e-10 -1.0788257e-14 4.0800904e-15 5.3873292e-09 -6.773804e-13 6.1794263e-27 4.8927554e-06 -4.4890053e-14
-4.9162e-40 5.2028345e-06 4.9057e-40 -3.733819e-12 1.5232873e-05 -5.51593e-22 3.812958e-19 1.3356789e-06
7.4930145e-10 6.396807e-12 -2.811538e-18 1.3014918e-09 2.6879616e-06 -3.287577e-08 7.094767e-07 5.7747346e-08
-3.4051872e-10 2.9764124e-08 3.4183854e-12 3.5260623e-12 5.1921263e-05 5.372938e-05 -1.4389071e-05 -5.20655e-18
-2.4420808e-05 5.604102e-05 -5.856141e-05 -1.5200174e-05 -3.0950503e-10 -5.99927e-05 -1.2440826e-10 5.1379986e-05
-1.205419e-21 4.90781e-40 3.5515157e-05 8.003421e-27 -8.013129e-22 1.8107843e-05 1.8116521e-05 -4.614526e-21
1.27312505e-05 -9.784546e-13 5.8956688e-05 2.9050384e-06 6.191103e-07 2.13988e-05 -5.4700376e-05 2.9436293e-05
2.413312e-29 3.873676e-05 -2.876643e-38 -1.7880384e-05 3.6634131e-09 1.9004764e-06 -3.5167195e-06 -1.0540645e-19
1.1793325e-30 3.49774e-05 -5.2388743e-10 -4.371779e-05 -1.9067373e-20 4.653196e-05 -1.9280337e-08 3.981582e-05
-3.3076383e-10 -2.8454837e-05 1.3290092e-13 -3.081282e-05 2.6355177e-05 -4.95802e-40 3.886042e-08 -2.62659e-07
6.0825766e-07 7.0400174e-06 3.5776864e-22 -4.8617626e-22 4.801373e-22 4.8727915e-22 -3.8660457e-07 4.113227e-22
4.95918e-40 -7.7747335e-13 4.90617e-40 1.0099404e-05 -4.8247647e-22 -4.85442e-06 1.7456414e-07 -6.8659965e-08
-3.3403018e-07 -3.6213248e-06 -4.7971052e-06 4.96895e-40 3.6040694e-07 -6.623738e-12 -1.4802808e-22 -3.5704457e-09
4.486053e-22 -4.390667e-22 3.3821743e-07 -4.860551e-22 -7.5680435e-07 3.3011873e-22 -1.2803469e-05 -4.9222e-40
4.9227e-40 1.1595254e-09 4.91058e-40 -4.8402693e-22 2.4242461e-19 1.24924445e-05 -4.2939488e-14 -3.6535284e-22
-4.90944e-40 3.7415518e-06 1.2299407e-07 3.5990982e-22 -4.90564e-40 2.572764e-07 -4.23869e-22 -4.92563e-40
8.708073e-07 1.9931598e-08 -7.4166676e-13 -4.1781903e-22 -2.9972199e-12 -1.318837e-07 -4.93376e-40 -6.02673e-08
-4.91264e-40 5.0691295e-07 1.0111172e-08 2.057602e-08 -4.9183e-40 -5.0361666e-11 3.608824e-07 -3.188006e-08
4.94784e-40 6.1978746e-08 9.741769e-10 1.4915179e-05 -3.233064e-08 8.011572e-35 4.3896538e-08 -4.2248794e-27
1.9085004e-11 4.4092268e-08 -3.238136e-08 1.8317642e-05 -4.90484e-40 -1.1402894e-31 -7.0878843e-07 4.808641e-08
4.495293e-09 -1.218283e-10 -4.7071167e-06 -2.2881528e-05 1.4575412e-06 -3.573706e-08 4.9514e-40 1.7413718e-08
-1.2739133e-08 3.1976683e-08 -6.742844e-09 1.964491e-08 4.91458e-40 -7.607208e-15 2.5648024e-08 -2.305641e-19
2.5138451e-08 4.93582e-40 -5.2009127e-22 -2.7509852e-09 -5.634474e-30 -6.269611e-07 5.6979167e-25 -3.7440364e-24

lstm.bias_ih_l0 f4 [200]
00000000: 06cd 313b 46b9 5e36 e622 7038 739e a032
00000010: 4423 9c32 09ae 3f34 3492 91b6 0047 f82c
00000020: fc8a 0935 d783 393a 874a 81ba 6aaf c630
00000030: a438 a935 3109 a5b4 cee0 a026 5dcb 8ab7
00000040: a16a a0ba 3810 cf33 92e8 0400 3c4f 8436
00000050: 3fdd 803a fe5e 24ba 5763 da1c 324b 2d32
00000060: 92fb c83c 2fff 1d3a 79bf a03a 0562 1839
00000070: 2f66 beb9 811c 8035 7bb5 f329 a04e 973b
00000080: 018f e2ba 5964 0500 c23f f0ba 53ec 18b1
00000090: 048d 57b7 7e45 703b 1d60 303c c92d 833a
000000a0: 064e ea1e b8c3 6035 1e15 c396 759b 6234
000000b0: 59eb f030 0f0e 4134 5e42 1a16 2891 c03d
000000c0: afc3 3a3b b5d6 a9bb e684 363a 75ed 7234
000000d0: 054c 9835 b61c 1eb2 a965 a4b4 2e24 d037
000000e0: f626 d731 1d07 b239 4a3f cdb2 818c 2c3b
000000f0: cde0 39bb b71d 3531 2ee3 772b f6ce 45b6
00000100: c990 4435 9158 08b4 c5b7 9dba 8768 063b
00000110: e490 1223 9863 ac33 0d8b 5333 df26 af3a
00000120: 79ed f23a aff0 f536 dbbe cd36 fff3 a33a
00000130: d43c aeb5 c706 273b c4bb 47b0 1bd6 ba35
00000140: 951f aa3b 5c85 e3ba b4f5 9836 3d08 02b6
00000150: 973b 17b9 0c3b 9fae 8450 6136 5e5b 662f
00000160: 7a7b ba88 b75f 753c 273c 4c36 4b19 9a34
00000170: 5500 0f35 2095 3233 7534 5335 a0ff 0738
00000180: 6aab 031e 9a4c ea3b 3c19 1a3b e38c ecbd
00000190: 7cab 4334 6c0b 8732 e8d9 ed34 91e0 209e
000001a0: 7b32 5437 bf08 c130 90dd 93b3 8910 25ba
000001b0: 2b80 51b7 3d81 19ba 60f4 8235 d162 8f36
000001c0: 7878 12b6 b880 4e16 a82e 4036 b4a0 b4b3
000001d0: 2175 db27 2e5c 0500 d4de 9e32 3410 4028
000001e0: d351 9f32 e01b cfb3 baa0 f029 a80e 3f0d
000001f0: c82f 103d 79a5 fd32 65b3 17b9 5edd 253b
00000200: e703 1136 1823 3832 615a 0580 8156 9eba
00000210: 17ba 833a 3c4f c91c d62f acbb aa1e fcb6
00000220: 4962 ad2e 498d 3231 cf03 2938 f493 9535
00000230: 5ca6 90b2 8ece 2f32 aea9 b81b 1355 f988
00000240: 34dc eb2f 8a25 4ba5 02b4 0eb7 cf42 8bba
00000250: ea00 13b2 cec5 7d25 6859 ec34 5e1b 1f34
00000260: d87f 7c3a cd1a 85a8 b22d efb5 39bb 2537
00000270: 0325 013a 115d 3412 0b07 bb32 41d2 be82
00000280: 2865 6301 a11d 6c3b 0bf1 cdb9 0bc2 f4ad
00000290: 5f00 b731 74c5 bf31 1b5a b537 2d9d 0034
000002a0: 0c0c a73a 7ff9 8bbb 5b62 0500 8c12 bda4
000002b0: bbcf 023b 4025 49ba 6bbc f42d 71f8 2239
000002c0: 3fac b83a 08f8 acbc b375 4db1 25f2 ce2f
000002d0: 8d00 3bbb aa77 2c3b 5268 9fb4 16e7 70b1
000002e0: f118 823b 9760 193b fd19 30bb 4514 173b
000002f0: 4154 0c2e aaf7 bdb7 a909 bd8d ec6a 0f3b
00000300: 2ea2 2eaa b475 df39 2a20 84b7 cccf c33a
00000310: 6d75 03ba 9e7c 173b 05d6 9733 8a26 1020
0.002713026 3.3188421e-06 5.725296e-05 1.8698506e-08 1.8176827e-08 1.7851575e-07 -4.338357e-06 7.0564665e-12
5.1238726e-07 0.00070768356 -0.000986413 1.4456252e-09 1.2607966e-06 -3.0740333e-07 1.1163164e-15 -1.654558e-05
-0.0012238809 9.642139e-08 4.50772e-40 3.9431307e-06 0.0009831561 -0.00062702585 1.4451709e-21 1.0087023e-08
0.02453402 0.00060271 0.0012264095 0.00014532365 -0.00036315757 9.545039e-07 1.08228496e-13 0.004617527
-0.001728505 4.95175e-40 -0.0018329548 -2.2253246e-09 -1.2847831e-05 0.0036662514 0.010765103 0.0010008152
2.4807983e-20 8.373131e-07 -3.1517276e-25 2.1104445e-07 1.7529188e-09 1.797964e-07 1.2460963e-25 0.09402686
0.0028497984 -0.005183066 0.00069625524 2.2624393e-07 1.1347007e-06 -9.2033385e-09 -3.0621348e-07 2.481238e-05
6.261753e-09 0.00033956105 -2.3893922e-08 0.0026328864 -0.0028362751 2.6355857e-09 8.8067303e-13 -2.9475755e-06
7.322638e-07 -1.2698207e-07 -0.0012032917 0.002050908 7.945358e-18 8.02749e-08 4.925373e-08 0.0013363025
0.0018533907 7.3295882e-06 6.1316946e-06 0.001250863 -1.2981714e-06 0.0025486217 -7.266261e-10 1.3920393e-06
0.005191753 -0.001735847 4.5585566e-06 -1.9376305e-06 -0.00014422681 -7.240972e-11 3.357448e-06 2.0950838e-10
-1.1223497e-33 0.0149764335 3.0433382e-06 2.8703138e-07 5.3272134e-07 4.1579483e-08 7.867996e-07 3.2424578e-05
6.97053e-21 0.007150245 0.0023513576 -0.115503095 1.8223176e-07 1.5721263e-08 4.4303238e-07 -8.516769e-21
1.2647938e-05 1.4045084e-09 -6.885523e-08 -0.00062967144 -1.2487212e-05 -0.0005855745 9.756877e-07 4.273236e-06
-2.1825817e-06 1.6681164e-25 2.8637387e-06 -8.411135e-08 6.09117e-15 4.92245e-40 1.8494951e-08 1.06616545e-14
1.8547246e-08 -9.644259e-08 1.06860227e-13 5.887406e-31 0.035201818 2.9528325e-08 -0.00014467312 0.0025308947
2.1608955e-06 1.0718189e-08 -4.916e-40 -0.0012080224 0.0010049966 1.3321546e-21 -0.005254726 -7.513755e-06
7.884588e-11 2.598272e-09 4.0296287e-05 1.1144425e-06 -1.6839458e-08 1.0233306e-08 3.05499e-22 -1.5006143e-33
4.2902715e-10 -1.7620162e-16 -8.505771e-06 -0.0010624769 -8.556734e-09 2.2011271e-16 4.4023477e-07 1.4817985e-07
0.00096320873 -1.477759e-14 -1.7820187e-06 9.878358e-06 0.00049264746 5.69127e-28 2.1772868e-08 -2.803867e-37
4.176589e-38 0.0036028402 -0.00039280238 -2.782576e-11 5.326043e-09 5.5812794e-09 2.161884e-05 1.1978109e-07
0.0012744679 -0.0042716856 4.94461e-40 -8.1997104e-17 0.0019960243 -0.0007673092 2.7823263e-11 0.00015542076
0.0014089419 -0.021114364 -2.989833e-09 3.7643236e-10 -0.0028534264 0.0026316443 -2.969196e-07 -3.5055954e-09
0.0039702584 0.002340352 -0.002687096 0.0023052853 3.1907147e-11 -2.2645883e-05 -1.165035e-30 0.0021883799
-1.5510572e-13 0.0004262157 -1.5750604e-05 0.0014939248 -0.0005014751 0.002311505 7.0704154e-08 1.2210026e-19

lstm.bias_hh_l0 f4 [200]
00000000: b10f 313b e4c8 9ab3 41cc 7f38 30c7 25aa
00000010: d744 9432 655f 0500 68bf 25b3 6efe 8733
00000020: fce7 b234 17dd 393a 3abf fa39 6f1d 9982
00000030: 6a58 3337 00c9 71a1 2d3e 441f 5160 9ab7
00000040: dd93 a0ba f3fc 3335 30d4 c800 a89d 15b7
00000050: c11a 803a a877 a0b9 1150 7db7 93f8 7a97
00000060: 7282 17bd 0af1 223a a640 943a 488e dcbb
00000070: 34dc bfb9 d77a fb30 a838 94a9 bc9e 423b
00000080: b0fc 80ba 06cf d431 e40f efba 82a3 58b6
00000090: 4069 6027 9cca 593b 3ae4 0cbb 4d95 95b9
000000a0: cd72 0b37 40bf 2c30 e52d 1237 27cd d835
000000b0: 4986 e830 b310 6733 2ae7 651e 47fd e4bc
000000c0: 4bc2 3a3b 378b dabb d9bb 183b 47db 5835
000000d0: d27b 5cb7 3b0a e49b 259e 21b5 eb59 2438
000000e0: a2ae 27b6 5b9c b139 e93c 9ca7 8b8c 2c3b
000000f0: 4ee1 51bb 0936 9436 b1b8 9232 012e 1504
00000100: 2694 aa33 6e7c ee2a 2cb8 9dba 2b34 733b
00000110: 922e 2e35 ed60 0580 9eb1 bf32 fe6f 6a3c
00000120: 2718 f13a 5665 0bb3 a4ac d936 f9a4 833a
00000130: 9f19 932c 495d bc3b de3d 0280 dd0d 9c34
00000140: d32d b13b 20c2 e3ba 08f4 88ab c988 59a5
00000150: bd4a 19b9 1227 7d87 0b95 ccaf af09 b320
00000160: 2ced 8b9b 762f 013b 9f17 93a7 8f70 0bb7
00000170: 23a3 0baa 5302 0933 7af6 8534 c31b 0e35
00000180: 9bc2 5a32 9b79 75ba 45c5 3a3b 89f6 f1bc
00000190: cebb b235 4450 2d33 c912 5db5 a6d1 01b0
000001a0: fcae 88b7 bfbb ab2a 9e15 07b4 526f 2cba
000001b0: 84de 4c27 dd72 59ba c14d deb5 0c51 1498
000001c0: 4015 b2b1 cafd 1831 f341 2735 7c08 682d
000001d0: c1f3 0ba3 2846 de36 bdc9 dd35 de03 b036
000001e0: 58ff fc32 724b b0ae 8177 f535 419a 400d
000001f0: 49db 21bd b419 dc32 cd44 8db6 5098 4e3b
00000200: 551e 3eac 3b26 6130 3f56 e9b6 c655 9eba
00000210: 3bba 833a 7768 0580 d52f acbb 2fd4 9831
00000220: 92d9 35a6 878f 9a2c e78e 4a38 28db feb2
00000230: 8b5d 0580 fae4 7e30 10bc 54b7 6502 2e37
00000240: 8c85 9d2f b1f9 2113 4885 cfb1 5743 8bba
00000250: f743 f2b3 7199 3c27 d45c fc31 2411 07b6
00000260: 4164 723a 0827 8f9c 1714 e935 bb87 8935
00000270: 0680 013a 456c 0a14 e488 9f32 6966 aa15
00000280: 774f 96af c0b6 d43b 1fd4 c9b9 1d75 81ab
00000290: 7400 d934 d759 0580 0a51 d727 f83b 0034
000002a0: 5754 a63a 8fd6 afbb 1c72 cd23 ee14 b131
000002b0: b49d 6438 178d 47ba 8cd4 c5b7 65ab 3539
000002c0: ef05 9d3a bb50 69bd 8fba 07b2 f9a3 aa32
000002d0: 0478 3ebb 6480 283b bc0a dc32 2832 c8b0
000002e0: 0881 813b 0632 133b db74 47bb 44d0 eb3a
000002f0: 6df1 7f82 c5b0 90b8 6f88 fb2e aec4 123b
00000300: 5d12 4faf ff60 df39 847f 14b5 f67b c33a
00000310: c98a 03ba 6b86 1a3b 1929 1637 c75b 5825
0.002701741 -7.2077256e-08 6.0986964e-05 -1.4724051e-13 1.7260772e-08 4.93399e-40 -3.859114e-08 6.332708e-08
3.3323875e-07 0.0007090135 0.0004782619 -2.2498224e-37 1.0689817e-05 -8.1919997e-19 4.1556045e-20 -1.8403081e-05
-0.0012251098 6.7050786e-07 1.8443218e-38 -8.917799e-06 0.0009773598 -0.0003060673 -1.5098617e-05 -8.10931e-25
-0.036989637 0.0006215727 0.0011310771 -0.0067308284 -0.00036594423 1.8297567e-09 -6.5823486e-14 0.0029696664
-0.0009840932 6.193548e-09 -0.0018238989 -3.2281682e-06 3.11433e-15 0.0033232337 -0.0021498338 -0.00028530732
8.311775e-06 6.284502e-10 8.712964e-06 1.6152961e-06 1.6918388e-09 5.3799067e-08 1.2170963e-20 -0.027952803
0.0028497155 -0.0066694277 0.0023305325 8.078536e-07 -1.3141851e-05 -3.7726047e-22 -6.0207304e-07 3.918439e-05
-2.498659e-06 0.00033876565 -4.3364737e-15 0.0026328887 -0.0032025161 4.4170342e-06 1.7080625e-08 1.753599e-36
7.94319e-08 4.2363633e-13 -0.0012033037 0.0037109952 6.488782e-07 -4.93948e-40 2.2316097e-08 0.014308928
0.0018394039 -3.2455624e-08 6.487202e-06 0.0010043673 4.180836e-12 0.005748425 -2.05865e-40 2.906735e-07
0.005407074 -0.0017376579 -9.731113e-13 -1.8868094e-16 -0.00014619059 -1.9045086e-34 -3.7213285e-10 3.0330188e-19
-2.314889e-22 0.0019712127 -4.0826306e-15 -8.311253e-06 -1.240228e-13 3.1899912e-08 2.4952516e-07 5.293952e-07
1.2733518e-08 -0.0009364129 0.002849893 -0.029536502 1.3316692e-06 4.0352703e-08 -8.235625e-07 -4.7227855e-10
-1.6293947e-05 3.0505977e-13 -1.2580719e-07 -0.00065778673 2.8431313e-15 -0.0008295009 -1.6562918e-06 -1.916947e-24
-5.1828977e-09 2.2263174e-09 6.2308317e-07 1.3189557e-11 -7.586822e-18 6.624283e-06 1.6524497e-06 5.245659e-06
2.9452778e-08 -8.016955e-11 1.8288703e-06 5.9350244e-31 -0.039515767 2.562306e-08 -4.210137e-06 0.003152389
-2.7017462e-12 8.190885e-10 -6.9539815e-06 -0.0012080006 0.0010050008 -4.96652e-40 -0.0052547255 4.4479047e-09
-6.309185e-16 4.392878e-12 4.829364e-05 -2.9669152e-08 -4.92734e-40 9.2730057e-10 -1.2679971e-05 1.0371766e-05
2.8653024e-10 2.0444164e-27 -6.0396452e-09 -0.0010624927 -1.1281366e-07 2.6173422e-15 7.3447186e-09 -2.0126545e-06
0.00092465064 -9.473036e-22 1.73657e-06 1.0246798e-06 0.00049400365 6.988572e-27 1.8572287e-08 6.882403e-26
-2.7341304e-10 0.006491512 -0.0003849575 -9.198507e-13 4.041973e-07 -4.91406e-40 5.976235e-15 1.1942745e-07
0.001268993 -0.0053661535 2.2274472e-17 5.1537574e-09 5.450631e-05 -0.00076122716 -2.3583205e-05 0.00017325355
0.0011979918 -0.056961756 -7.900453e-09 1.986517e-08 -0.0029063234 0.0025711292 2.5616252e-08 -1.456617e-09
0.0039521493 0.0022460236 -0.0030434642 0.0017991145 -1.8803727e-37 -6.899381e-05 1.1438394e-10 0.0022395062
-1.8833064e-10 0.00042606142 -5.5319856e-07 0.0014914263 -0.0005017934 0.0023578655 8.9502655e-06 1.8766109e-16

lstm.weight_ih_l0_reverse f4 [200, 33]
00000000: 32b1 0d3a a1b8 c4bb 33c1 8dbb e564 14bc
00000010: 5ae5 a03b d5e4 50bc 9ce5 c9bb 14f6 e6b9
00000020: 828b 39bb 7a84 86ba f6e1 773b 32ef 24bb
00000030: 63f4 84ba dd51 c0bb f5e1 d8bb 661f c7bb
00000040: c62c e235 4ac2 1b35 ce56 4fb2 1f15 0fb3
00000050: 2780 45ab 72d1 5bb2 b815 85a7 436e 87b8
00000060: fd6c b7b6 894f 45b7 d071 8c32 6e03 26b8
00000070: ecb3 55b4 5f24 cbb7 5603 96b6 75c9 b4a2
00000080: e0e6 be37 4614 923a 605f 943a a3fa 9933
00000090: e28c af3a e5b9 f8b6 e1b1 8d3a 4db5 543a
000000a0: 9a03 d32d 066c a31f 5b27 d09c dce1 2938
000000b0: a46f 8d34 1aa0 9b32 4c6a ae3a 9f1f 6e35
000000c0: 8546 053a d1ba b82f 355d 70a3 2541 d235
000000d0: e976 7d31 1b29 d5b1 cbff 21b0 5319 41a6
000000e0: 86c9 9eaf 0d74 1a8b 8ed4 5232 a87c 9bae
000000f0: 5428 579b 5043 55a2 d3dd 92af 43ec a9b6
00000100: 483f cbb3 84fd adae 78f6 d93b bcd1 d83b
00000110: 00fc b23b 484e c23b e5e1 fdbb 3495 5c3b
00000120: 5fe3 af3b 3d63 8eb9 3a6f 773b 4ea5 7d3b
00000130: db3e c53b 4f5e a13a 9fdb 1a3b 4c28 e53b
00000140: b3d1 b33b 19fd c53b ae3a aeb7 d475 9734
00000150: d463 c8b6 4614 bfb4 d92e fbba 8e39 f8ba
00000160: 33f8 6e38 0330 cf38 ea3c 0938 4ebe e139
00000170: 9b76 0c39 c0d7 653a f266 eab5 a3f2 363a
00000180: 1193 20b9 288c 2103 ed60 74ba a87d 053b
00000190: f9ee 613b b334 ee3a 8ab4 503a 1f3c 46bb
000001a0: 4f44 683b b267 6f3b f90b 113a 6cff 953a
000001b0: 467e 963a e59d 7d3b e5f4 043b 5a10 0c3a
000001c0: 59cd 263b 1c50 253b 7cc1 af3b 50a8 8eb7
000001d0: 8ba6 08b8 23d0 2aae 4e28 17b6 265d a7b8
000001e0: ca72 b5b8 a8e5 11b7 574a 1e38 1fd5 09b7
000001f0: 3adb 88b5 6a16 af35 b6f1 5338 1cef ecb6
00000200: 7f98 8636 c6d8 6eb8 bfe1 8bb4 99d9 d4b8
00000210: 2120 49bb 761e faba a99f 3ebb 594c 3fbb
00000220: 2c95 1b3b ab60 14bb ad95 99bb 8b71 35bb
00000230: b51f c93a c985 3cbb 026d 3ebb c1ad 3ebb
00000240: 2635 d1ba 8ca9 44bb 30ef 3ebb 6874 43bb
00000250: 56f9 353b b0e4 35bb 0e78 2bbb cc33 203b
00000260: 932c 3a3b 28ee 353b 1a36 2fbb 028f 1f3b
00000270: 3d45 2c3b f8bc 473b 3e92 723b 52ed 31bb
00000280: 0603 2dbb 081c 1ebb cfa1 0038 193d 0cbb
00000290: e56d 2c3b 24aa fbbc 4874 093d 3390 a6b0
000002a0: 1ea5 15bd 58dc 9338 76aa 4a3d b0ac c339
000002b0: 1b9c d7af 20f9 892b b82f 35b4 a0cd ceb8
000002c0: 26a7 87af a599 2bb4 e022 983b 690a ccad
000002d0: 64fe 8cba 1fc3 0ab4 8176 c134 99e2 fdb5
000002e0: a45c 0b34 2038 f932 ba5d 222c c3d9 7c37
000002f0: 9e24 0a33 4142 8d2c a4ce 1c36 e749 1d32
00000300: 21d0 4e2d 6a2f 932b 4239 6734 85f8 9d36
00000310: 583e 3b34 c451 302c f143 62bb 6b8a 11bb
00000320: 4edd 06bb 40f0 10bb 148d 3c3b 5c88 11bb
00000330: 31f3 01bb 119d bdba 06f1 f7ba efc7 ceba
00000340: f7c3 08bb 8dc1 09bb 95ef e4ba 862c 00bb
00000350: 5573 00bb 2e16 0bbb edd0 80ba 04cd 703a
00000360: 1faa 24b9 3959 e539 b9d0 80ba 4ee8 8dba
00000370: 9047 943a 3706 dc37 693c 0b37 00f5 96b3
00000380: 555b 05b6 a94c 0cb8 99e9 5e3a 176d b8b6
00000390: 1aa1 673a 0096 13af cd42 5d3a 1890 9b9d
000003a0: e363 b7aa f09e 252d 0a02 432d d451 992f
000003b0: 9b49 dab2 8f33 1430 2a93 f0b1 b3a3 61ac
000003c0: fee6 841e 7b3d e4b3 4fee b224 45c6 0dae
000003d0: e139 fbb1 555f 0580 2dec 0630 2f22 20a0
000003e0: a98f 3db4 095c 0500 e705 8286 282e c736
000003f0: 4b38 962c b5ed 1f19 455e 0500 c057 0580
0.00054051273 -0.006003455 -0.0043260097 -0.009057258 0.0049101533 -0.01274987 -0.006161405 -0.0004405236
-0.0028311913 -0.001026287 0.0037823892 -0.0025166986 -0.0010143634 -0.005869134 -0.006618733 -0.006076741
1.6851343e-06 5.802473e-07 -1.2068723e-08 -3.331399e-08 -7.0166307e-13 -1.27951e-08 -3.6938463e-15 -6.4578395e-05
-5.466513e-06 -1.1760633e-05 1.6349901e-08 -3.958068e-05 -1.9902626e-07 -2.4216422e-05 -4.4707367e-06 -4.90024e-18
2.2757275e-05 0.0011144958 0.0011319928 7.170208e-08 0.0013393427 -7.412617e-06 0.0010810458 0.0008114174
2.3989522e-11 6.9211895e-20 -1.3774459e-21 4.0503088e-05 2.6344526e-07 1.811718e-08 0.0013306825 8.8707924e-07
0.00050840556 3.3602146e-10 -1.30301634e-17 1.5665179e-06 3.6883938e-09 -6.203789e-09 -5.893496e-10 -6.6994647e-16
-2.8883224e-10 -2.9746628e-32 1.2271938e-08 -7.070727e-11 -1.7797414e-22 -2.8902518e-18 -2.671486e-10 -5.064097e-06
-9.464435e-08 -7.9121626e-11 0.006651696 0.006616799 0.0054621696 0.005929742 -0.007747876 0.0033658268
0.005367681 -0.0002715829 0.0037755505 0.0038703266 0.006019456 0.0012311431 0.002362944 0.006993329
0.0054876446 0.0060421345 -2.0769741e-05 2.8211673e-07 -5.972086e-06 -3.5591273e-07 -0.0019163742 -0.0018938051
5.6974775e-05 9.879472e-05 3.2720076e-05 0.00043057132 0.00013395624 0.0008767806 -1.746432e-06 0.0006978905
-0.00015313576 4.747454e-37 -0.00093223044 0.0020369086 0.0034474714 0.0018173665 0.0007961473 -0.0030248237
0.0035441106 0.0036530313 0.0005533095 0.001144392 0.0011481724 0.0038698849 0.002028757 0.0005343013
0.0025451987 0.002522475 0.0053636413 -1.7006096e-05 -3.2580032e-05 -3.8838387e-11 -2.2524214e-06 -7.980531e-05
-8.652134e-05 -8.6961445e-06 3.773937e-05 -8.2154575e-06 -1.0196593e-06 1.3045039e-06 5.053143e-05 -7.061184e-06
4.011264e-06 -5.6945508e-05 -2.605502e-07 -0.000101494785 -0.0030689316 -0.0019082564 -0.0029086864 -0.0029189794
0.0023740036 -0.0022640626 -0.004687032 -0.0027686085 0.0015344532 -0.0028766266 -0.0029056673 -0.0029095265
-0.0015961274 -0.0030008284 -0.0029134266 -0.0029824022 0.0027767024 -0.0027754717 -0.0026164087 0.0024444936
0.0028407916 0.002776036 -0.0026735128 0.0024346714 0.0026286386 0.0030477624 0.0037013437 -0.002714951
-0.0026399507 -0.0024125595 3.0668274e-05 -0.0021398722 0.002631062 -0.030720778 0.03355816 -1.2119074e-09
-0.03653442 7.0505484e-05 0.04947897 0.0003732196 -3.9219192e-10 9.803582e-13 -1.6874299e-07 -9.861146e-05
-2.4675123e-10 -1.5981512e-07 0.0046428293 -2.3196738e-11 -0.0010756967 -1.2923236e-07 3.6035274e-07 -1.8915918e-06
1.2979086e-07 2.9012938e-08 2.3073613e-12 1.5071072e-05 3.2163932e-08 4.0148167e-12 2.3366092e-06 9.155406e-09
1.1755958e-11 1.0458138e-12 2.1534382e-07 4.707896e-06 1.7438413e-07 2.5056493e-12 -0.003452536 -0.0022207748
-0.0020578685 -0.0022115856 0.0028770613 -0.002220652 -0.0019828791 -0.0014466365 -0.0018916435 -0.0015776138
-0.0020868757 -0.0021019906 -0.001746642 -0.0019557788 -0.0019599993 -0.0021222937 -0.000982789 0.0009185823
-0.00015703634 0.0004374476 -0.0009827829 -0.0010826678 0.0011312831 2.6228938e-05 8.299111e-06 -7.0294846e-08
-1.9871707e-06 -3.3449996e-05 0.00085034367 -5.496327e-06 0.00088359567 -1.3422863e-10 0.0008440435 -4.1177148e-21
-3.257664e-13 9.414455e-12 1.10849194e-11 2.788868e-10 -2.5412012e-08 5.3915356e-10 -7.00165e-09 -3.2065294e-12
1.407158e-20 -1.06282606e-07 7.7598905e-17 -3.2235787e-11 -7.3116415e-09 -4.93376e-40 4.908454e-10 -1.3563838e-19
-1.765426e-07 4.92193e-40 -4.890924e-35 5.9360354e-06 4.269506e-12 8.268112e-24 4.92995e-40 -4.90656e-40

lstm.weight_hh_l0_reverse f4 [200, 50]
00000000: 7e73 ecb2 2142 b0b2 8d9f 1437 2676 339f
00000010: 1aab 2bb1 8b4e 1731 2ecd db9c b1e5 2632
00000020: dd57 0b32 1e70 0580 a800 171a 444e 38b4
00000030: 78c5 1731 ee89 9e36 e55e 0580 187e bc33
00000040: f2b9 711f fb75 0500 0195 0100 2e71 a19d
00000050: 8e36 aa36 9f34 9230 48bf 07b7 1bdf e1a6
00000060: 4ab2 2737 0c91 5d9c e06c a60f 1441 0b20
00000070: 8ad1 7db7 95e7 a236 0199 f9b6 5e09 120a
00000080: 3e63 0580 5a9a 6a17 e0d7 2e37 d39e 3834
00000090: e3b3 6637 3378 28b1 99d8 97a3 0993 0c35
000000a0: f1ec 1f29 7899 5937 60c5 80b4 f74c 84b4
000000b0: a6b0 18b5 65d0 6d36 b119 a5b5 20d6 db34
000000c0: 1978 1934 a25a 0500 6e01 9f0b 1734 1bb7
000000d0: eec6 c036 a0be 6f81 03b8 9233 4ee2 69aa
000000e0: 1c1c b597 d002 17b7 29b5 9fab bd87 de33
000000f0: c3e1 9ab5 9947 b034 82bc f734 6171 0500
00000100: 8b57 0500 b15e 0500 9a79 8337 daf7 b219
00000110: d508 301b f5cf 6b20 6a41 1c86 b457 0500
00000120: d138 22b2 8d79 77b2 174c 800f 4f70 bbb3
00000130: af4b 74b3 6405 d08e b263 0580 9c97 bab0
00000140: 7b71 9e32 c35a 0580 cd5a 77b3 11ce 9db2
00000150: d59f e236 7c61 8632 1765 d731 b3c4 60b4
00000160: 5d54 0bac 3cd4 4328 098b a4b3 8047 1e11
00000170: 2dcd fb08 ae6b 12b1 abce b1a4 a474 f619
00000180: d874 92a3 84ee 69b2 2c54 8933 1236 cd32
00000190: c15a 0500 76f7 c2b5 34ea 0835 01ce f92c
000001a0: 535f 223a 5de8 b4b9 3915 2c26 ee44 9f27
000001b0: c13c b49b 43ce 9634 9660 0500 805a 0500
000001c0: d488 7dba 4a57 0500 b62e 04b5 5be1 21ba
000001d0: cc7b 03b8 19a7 a524 afee 1bb6 2102 1bb0
000001e0: b685 3237 573f ae2f eee3 43ba 0261 6733
000001f0: 1069 0500 c7f2 96b6 485e 0580 239e 0bb7
00000200: 3f5a 0500 2de9 f234 75c4 e5b3 e983 0e24
00000210: a059 0580 f15c 0500 d454 abb0 d296 7d09
00000220: 424b eda4 9018 eeb9 c63e 63b2 4bab 4b0a
00000230: 2279 0125 c9f9 602e 9afe fb31 82c5 eeb2
00000240: c957 0580 ca94 233a 8f74 e5b0 7a06 3d30
00000250: 175c 0500 625a 0500 5e51 a1b6 3378 3bb0
00000260: 9adb 8529 8c28 0ab8 2fd6 d434 504a 63b7
00000270: 7164 0580 ded5 7f09 28f3 52b5 142f b936
00000280: 212c b538 21d2 e538 ec44 46b8 b6cd 821b
00000290: 0ce4 15b7 335f 0500 2a5b e99d 78f7 c1b5
000002a0: 5f5d cfa7 b757 0580 aa59 83b6 53a0 0000
000002b0: 6148 05b9 222f 0bac f515 2f35 dbe0 5b2d
000002c0: a6a6 5339 d045 4e26 3fd8 25b5 807d 6836
000002d0: a3a4 4a33 8279 8fa4 2962 beb8 b4de cfb3
000002e0: c731 89b4 b29c e79b dd5c 3fa1 2bcd 1323
000002f0: dcc1 2336 b633 0738 a9cc 52b6 c51a c335
00000300: edcb 5dae 1971 5337 5b94 9bb8 e489 af38
00000310: f33d 38a9 a5fb 05b8 2ee6 af36 f8f6 2438
00000320: fa65 0fb7 a3ae 4bb1 2a32 a336 085d 0500
00000330: 206d 2ebb f1b6 2f3b 18a2 6f2c 4264 2eb3
00000340: 4395 643b fe38 37bb 5176 33bb 9235 650d
00000350: bf22 383b 9cc8 1f8c 0b97 a926 ca7a f131
00000360: 20ce 233b ecdf 738d fc11 2a27 1d94 0280
00000370: e435 4628 dce7 d21b 32df 93ba 4ce1 bd36
00000380: a2ce 72ae fcb7 2f36 105b 1bab 5d7b 750c
00000390: a93e 38af cf79 8830 05ba 5635 be53 9798
000003a0: a6ac 2f3b b627 b530 8c64 9d9d 89c4 fea8
000003b0: 7c62 0500 7d84 0680 f75f 0500 d6ce 2dbb
000003c0: bdd1 b9ad 0f5d 9ab2 5960 4fae ed8c 2dbb
000003d0: 2f1f 303b 1cb5 31bb 8205 649f 3e49 440d
000003e0: 6989 98b6 1635 1a37 ce27 e8ac 08fb 8cb4
000003f0: db57 0500 6ccd 5c8f d6f7 452e 962e 6731
-2.7526536e-08 -2.0519169e-08 8.858636e-06 -3.8002454e-20 -2.4981035e-09 2.2018039e-09 -1.4545242e-21 9.7146975e-09
8.110843e-09 -4.99398e-40 3.1226598e-23 -1.7164808e-07 2.208564e-09 4.724824e-06 -4.93219e-40 8.7773685e-08
5.1187545e-20 5.01501e-40 1.45288e-40 -4.273337e-21 5.072746e-06 1.0637854e-09 -8.091163e-06 -1.5672984e-15
9.995487e-06 -7.3310235e-22 1.6410801e-29 1.179529e-19 -1.5128762e-05 4.854936e-06 -7.4385903e-06 7.031406e-33
-4.94779e-40 7.5804297e-25 1.04214705e-05 1.7194115e-07 1.3750951e-05 -2.4515543e-09 -1.6463185e-17 5.236803e-07
3.5510606e-14 1.296994e-05 -2.3985467e-07 -2.4642915e-07 -5.688147e-07 3.5437054e-06 -1.2300935e-06 4.0947725e-07
1.4292927e-07 4.9169e-40 6.1246723e-32 -9.250848e-06 5.7452044e-06 -4.4034134e-38 6.832126e-08 -2.0773072e-13
-1.1703947e-24 -9.000956e-06 -1.1347912e-12 1.0362371e-07 -1.1539599e-06 3.283465e-07 4.6144493e-07 4.9985e-40
4.90582e-40 4.93146e-40 1.5673042e-05 1.8504875e-23 1.4561233e-22 1.9974081e-19 -2.9388398e-35 4.9064e-40
-9.44256e-09 -1.440493e-08 1.2651083e-29 -8.728295e-08 -5.687951e-08 -5.128115e-30 -4.94941e-40 -1.3576371e-09
1.8445226e-08 -4.91737e-40 -5.7591752e-08 -1.8370914e-08 6.7539318e-06 1.5643984e-08 6.268816e-09 -2.0933184e-07
-1.979992e-12 1.08706955e-14 -7.6621355e-08 1.2486035e-28 1.515475e-33 -2.1307005e-09 -7.711162e-17 2.5482915e-23
-1.5878837e-17 -1.3616617e-08 6.3948704e-08 2.388973e-08 4.91734e-40 -1.4526147e-06 5.100476e-07 7.0998767e-12
0.0006194014 -0.000345054 5.970325e-16 4.42061e-15 -2.9817763e-22 2.8089752e-07 4.93826e-40 4.91643e-40
-0.0009671573 4.90491e-40 -4.9241805e-07 -0.0006175243 -3.134813e-05 7.184042e-17 -2.3235732e-06 -5.6391697e-10
1.0640759e-05 3.169542e-10 -0.0007472624 5.3872107e-08 4.96867e-40 -4.4986114e-06 -4.92999e-40 -8.321865e-06
4.91552e-40 4.524567e-07 -1.0699379e-07 3.0903074e-17 -4.91329e-40 4.92519e-40 -1.2465997e-09 3.0524683e-33
-1.0290986e-16 -0.00045413198 -1.3227412e-08 9.806311e-33 1.1230008e-16 5.1153557e-11 7.3340063e-09 -2.7796663e-08
-4.90669e-40 0.0006240128 -1.6695071e-09 6.8767003e-10 4.92213e-40 4.91601e-40 -4.8076463e-06 -6.8201017e-10
5.944481e-14 -3.2939526e-05 3.9643916e-07 -1.3547557e-05 -4.95209e-40 3.0795068e-33 -7.8584935e-07 5.5189103e-06
8.638972e-05 0.000109587105 -4.7271067e-05 2.1639634e-22 -8.934188e-06 4.93329e-40 -6.1768848e-21 -1.4451643e-06
-5.7555275e-15 -4.90644e-40 -3.9145425e-06 5.7513e-41 -0.00012710832 -1.9779252e-12 6.522453e-07 1.2498637e-11
0.0002018461 7.156522e-16 -6.178197e-07 3.4643745e-06 4.7181526e-08 -6.2222207e-17 -9.07819e-05 -9.679698e-08
-2.5554456e-07 -3.8317006e-22 -6.483622e-19 8.012332e-18 2.4401734e-06 3.2234668e-05 -3.1411566e-06 1.4536423e-06
-5.0430705e-11 1.2602913e-05 -7.418609e-05 8.3703344e-05 -4.090994e-14 -3.1944033e-05 5.242203e-06 3.9330655e-05
-8.5472075e-06 -2.9639657e-09 4.8636184e-06 4.92551e-40 -0.0026615337 0.0026811922 3.4053923e-12 -4.0603716e-08
0.0034879006 -0.0027957554 -0.0027383754 7.0630556e-31 0.0028096882 -1.2309283e-31 1.1767671e-15 7.0279826e-09
0.0024994686 -7.5149692e-31 2.3601989e-15 -2.36804e-40 1.1002894e-14 3.4891421e-22 -0.0011281727 5.658867e-06
-5.5207956e-11 2.6184125e-06 -5.5193437e-13 1.8911237e-31 -1.6756964e-10 9.929922e-10 7.9991906e-07 -3.9117143e-24
0.0026805787 1.318077e-09 -4.1661517e-21 -2.8284898e-14 4.94507e-40 -5.98541e-40 4.93603e-40 -0.002652099
-2.1125207e-11 -1.7970278e-08 -4.7151925e-11 -0.0026481703 0.0026874056 -0.0027116006 -4.8285434e-20 6.0485325e-31
-4.5459497e-06 9.191475e-06 -6.598256e-12 -2.625968e-07 4.90694e-40 -1.08864e-29 4.5012737e-11 3.3641405e-09

lstm.bias_ih_l0_reverse f4 [200]
00000000: 8da2 3fb8 8a87 6c31 380f 573a 2f53 d738
00000010: 334b f7ba 4dc6 862b 8e06 62ba 62e9 1aa0
00000020: 755e 0500 5696 6bb5 38be f423 c1d5 a23a
00000030: 1b43 b834 b583 a1a0 41a9 8136 7d58 0580
00000040: 71a1 0f3e dea0 e534 6756 6234 b2f0 d8ba
00000050: e7b0 ac35 9943 0a35 a508 ba37 82b3 05b4
00000060: 1b52 29b0 87a0 0637 d9f6 e0b4 f703 0534
00000070: bb59 eaa5 ab3f 8332 27d0 bb33 8c64 0936
00000080: 854c bd33 86b9 2d3a 66b2 c403 e582 a52b
00000090: 650e 1312 00c6 73b7 b859 0500 5c2d ee39
000000a0: 5b57 0580 a1a9 962f 124c 17b2 a064 ee33
000000b0: 10f0 4935 bca5 5237 015f a139 bee8 3734
000000c0: cd53 882d ba7e d53a d6b3 d9b6 fd5b 0580
000000d0: 697c 1124 8b7a 2eb1 6e76 c3b5 96b3 07b4
000000e0: 73f8 0e28 3960 0580 1dcd cfa3 2bdb c8b8
000000f0: a9da a2b0 25ff 3034 e457 0ab4 4eba 25a1
00000100: d89c fcb5 6759 0580 44d8 e133 fbba d92a
00000110: dfd0 aa34 a926 a534 2bdc 47b6 eb5b 0500
00000120: 67fe bc3c 4d5e 7c26 84db 2306 0db8 83b9
00000130: 86b8 8232 dedb f3ac 8901 2699 4704 a31b
00000140: a714 ec90 47ae 8bb6 f418 f2b5 539f 032e
00000150: 1cff bba8 b9f8 3031 756c 70b3 6e75 75b4
00000160: 31aa 6916 76d5 029e 87c7 a1b1 0c32 cfb2
00000170: f80b 01b7 8c46 ef33 12ab 9d33 f544 df33
00000180: bae9 0527 b9b4 21af 4686 4733 4d49 a038
00000190: 005b 0580 977e 96b1 23d6 052e 6fa3 13b7
000001a0: 5978 80bb fcfd d23a 7db1 8530 0d62 74b7
000001b0: 6439 36b2 c217 6429 89b3 a835 e059 0500
000001c0: e508 e0b4 dfea 1180 7025 c930 3ff4 0d16
000001d0: b1ca 7989 5d54 3726 32aa 9633 ddce b326
000001e0: b4c0 1b3b 92e5 8f33 6778 34bb 7e77 7b35
000001f0: e736 c9b0 0073 0ab4 08d6 8024 36b3 6336
00000200: e25b 0500 9d57 0500 2c77 0580 6ee6 73a1
00000210: a021 69bb a0d6 08b3 6716 3c1a 0c58 3fa2
00000220: c397 1bb3 c802 2b37 8c69 37ae f85d a03b
00000230: 2c2d 3faf 4664 0580 63b6 cfa6 f5ca a233
00000240: ca5a cdb5 6844 263d 1375 3cbb 2b92 d7ba
00000250: 3d10 b72d 0356 aaba a3cc 76ae 1d0a 5834
00000260: 6303 c4bb 9d58 3abb fc95 4ab7 86e2 0a3b
00000270: 3548 c831 68f7 0abb 73f0 63ba 48d5 4d2b
00000280: 2636 1f3b 0934 bb3a 2cf3 9137 c0b1 9496
00000290: 771c 97ba 052a 36bb 993c 1a3b dae6 303b
000002a0: 06f9 0035 8827 7b36 c74b 343c 9963 5aac
000002b0: 26ad 1f34 96cf 19a5 5707 e6b2 fc9d f5bd
000002c0: 4de8 9db6 4763 50b1 a194 29af 7e22 5db8
000002d0: 6c5c 0580 36f3 c233 5dfa d03a 80e3 563a
000002e0: 9908 13ba 5da3 0db7 6ee9 0c39 a764 0b3c
000002f0: 4ad5 10b5 189d d6ba b455 d03a 9f17 3334
00000300: 80fa 72b9 d866 cf3c adfa 27b3 dd4c ef9d
00000310: b74d 20bb 3e4a a239 5e00 2732 abb2 9db2
-4.5689336e-05 3.4419565e-09 0.0008203867 0.00010267493 -0.0018867016 9.576312e-13 -0.00086221925 -1.3121527e-19
4.93062e-40 -8.776309e-07 2.6535094e-17 0.0012423323 3.4321496e-07 -2.7361617e-19 3.8642033e-06 -4.90921e-40
0.14026429 4.277162e-07 2.1079323e-07 -0.0016551225 1.2866484e-06 5.1507374e-07 2.2176953e-05 -1.2451895e-07
-6.159852e-10 8.024398e-06 -4.1902857e-07 1.2388033e-07 -4.0653333e-16 1.527936e-08 8.745729e-08 2.0473117e-06
8.814917e-08 0.00066270714 1.1560803e-36 1.1760286e-12 4.6402764e-28 -1.4530029e-05 4.91363e-40 0.00045428693
-4.90515e-40 2.740537e-10 -8.806653e-09 1.1101042e-07 7.522767e-07 1.2555563e-05 0.00030779096 1.7127874e-07
1.5498625e-11 0.0016288378 -6.4880396e-06 -4.92177e-40 3.1547243e-17 -2.538999e-09 -1.45631e-06 -1.2638188e-07
7.936457e-15 -4.93696e-40 -2.2529854e-17 -9.5775664e-05 -1.1849198e-09 1.6484098e-07 -1.2884226e-07 -5.6150747e-19
-1.8821111e-06 -4.91249e-40 1.05167175e-07 3.8676687e-13 3.181694e-07 3.0761774e-07 -2.9781465e-06 4.92151e-40
0.023070527 8.7557865e-16 3.0818167e-35 -0.00025123396 1.5217903e-08 -6.9308856e-12 -8.582309e-24 2.6968852e-22
-9.3117407e-29 -4.1628114e-06 -1.8037667e-06 2.992746e-11 -2.0871807e-14 2.5752753e-09 -5.5977996e-08 -2.2860124e-07
1.8875293e-25 -6.926285e-21 -4.7084003e-09 -2.412073e-08 -7.691786e-06 1.1142137e-07 7.342e-08 1.039679e-07
1.8584161e-15 -1.470707e-10 4.645542e-08 7.643048e-05 -4.91822e-40 -4.379966e-09 3.043089e-11 -8.799935e-06
-0.0039205966 0.0016097422 9.727469e-10 -1.4566363e-05 -1.0606843e-08 5.0646777e-14 1.2569227e-06 4.91419e-40
-4.1729723e-07 -1.64546e-39 1.4635315e-09 1.146696e-25 -3.006759e-33 6.3605213e-16 7.015878e-08 1.247669e-15
0.0023765983 6.700715e-08 -0.0027537586 9.367867e-07 -1.4640279e-09 -1.2894088e-07 5.5873734e-17 3.392995e-06
4.92139e-40 4.90607e-40 -5.01928e-40 -8.2636574e-19 -0.003557302 -3.1860168e-08 3.8895585e-23 -2.5931938e-18
-3.6226776e-08 1.0193042e-05 -4.1703127e-11 0.0048940144 -1.7387397e-10 -4.95149e-40 -1.4412946e-15 7.5806305e-08
-1.5300113e-06 0.04059258 -0.0028756305 -0.001644676 2.0811903e-11 -0.0012995604 -5.6115678e-11 2.0120247e-07
-0.005981849 -0.0028434165 -1.2075059e-05 0.0021192147 5.828975e-09 -0.0021204595 -0.00086951925 7.312662e-13
0.002429375 0.0014282475 1.7398583e-05 -2.4022866e-25 -0.0011528869 -0.0027796042 0.0023534654 0.0026993067
4.804609e-07 3.7424925e-06 0.011004395 -3.1034951e-12 1.487102e-07 -1.3340967e-16 -2.6778862e-08 -0.11993024
-4.706008e-06 -3.0324416e-09 -1.5423264e-10 -5.272263e-05 -4.92332e-40 9.078069e-08 0.0015943755 0.0008197352
-0.0005608886 -8.442291e-06 0.000134384 0.008507884 -5.3954557e-07 -0.0016373722 0.0015894682 1.6679267e-07
-0.00023172237 0.025317594 -3.9110706e-08 -6.334225e-21 -0.0024460384 0.00030954363 9.720763e-09 -1.8358454e-08

lstm.bias_hh_l0_reverse f4 [200]
00000000: 40e5 94b9 ca40 0b33 f4f7 733a a168 d038
00000010: 06d1 37bb 796e f8b2 8d7f 65ba 5f9a 352f
00000020: b35b 2e27 5c23 292d 13d8 e10b 6bbe 9c3a
00000030: 551d 1fb4 60e3 a624 9bff cb30 b5c3 9a33
00000040: c0e9 02bd 8522 1935 5ef5 4a34 6239 1fb9
00000050: fc57 ed28 4e7b d631 91d3 f536 649c 09b4
00000060: 8b66 bf08 c032 8f37 45dc 8034 ce97 01ae
00000070: 3bb2 852e 6a5e 0500 822d 78ae 565f 0580
00000080: 81eb 8e33 7263 243a 5e96 caae a84f 3e36
00000090: bbd9 ea27 00ed 3db5 0982 84b7 f25a 7e39
000000a0: a257 962a c23b 4db2 da57 28a4 7aa2 f233
000000b0: 22a3 45b3 24d3 a135 de39 a039 6ef5 c62f
000000c0: 150b 352c 9172 d53a dd41 87b6 125a 0580
000000d0: 0dc5 59b3 7074 59b4 9d78 d61b 924b 06b4
000000e0: 0899 4429 a61d b02f eecf 828d 7326 e6b8
000000f0: 5539 aeb0 28ca 6935 da90 f935 eca1 91a0
00000100: e94d d830 6e9b 938e 46ff fc34 a92d 22b6
00000110: d8da d333 e374 7932 ed68 5eb9 c457 0580
00000120: a97a 12bd 2cfd 7d1f d81d a7b1 d0bb 81b9
00000130: b9c2 5c2b 6b4e 8daf 7e58 0580 e5f1 2b9d
00000140: 620b e92c 2a1a 35b2 9642 a5b3 cfe1 5d36
00000150: d5df 922b 0da9 b633 1ee4 96b6 a5a4 0580
00000160: 85bd 83b7 669a 992f b1a1 1d2d 4a9f c2a5
00000170: 4b96 f385 2eff ee33 17ba b533 2c95 d933
00000180: b249 3f8e 43bc 6db1 784c 8731 53be 52bb
00000190: 6c1b 5b32 b984 c82f 4057 0580 0473 d8b6
000001a0: e1cd 8f3b 99fb ccbb d10e 208a 3066 abb5
000001b0: 0237 9ca8 47a0 d132 19a0 8b34 46b0 3fb2
000001c0: 2a1c 31b4 595a 9c26 cdfe 8520 7093 45b5
000001d0: f2a5 2835 3285 eb2e a335 7c33 9a3b c533
000001e0: d4a9 d53b 705d 90b2 45e5 30bb b002 a925
000001f0: fe5f 4f8c c25d 0500 745b 0580 d1fc 0133
00000200: e248 0025 271f b136 b737 5e30 8151 9db1
00000210: 7e5a 45bb 3d58 989b f8a4 0ab6 2b49 af2c
00000220: be07 0fb2 926d 0500 6a26 5fb6 381e a13b
00000230: 9b1f 9db0 fde2 b80c 1c67 2ca6 3987 9733
00000240: 5e2b 9b98 c76c 43bc ee1c 3cbb 0282 0fbb
00000250: e1d4 2135 ecb3 a4ba 1e3f 54ae 3c7e bc34
00000260: 47f0 c3bb 4c17 34bb 1434 048d 6619 a63a
00000270: 9834 ac36 a47f cdba 1a05 1ebb 5902 592c
00000280: 832c 1f3b dff1 9b3a dec0 0a39 6520 fe99
00000290: 7df6 c4ba ef4a 36bb 5a1d 603b 953a 313b
000002a0: 8120 5a35 2904 8037 b246 483c 3258 77b5
000002b0: 7761 0580 b861 3eb3 44d3 c7b0 e1f0 98bb
000002c0: c236 8c31 c467 1636 d7d5 d0b4 e615 62b8
000002d0: a5c1 d8b2 803c 2237 8c1d cb3a 364f 753a
000002e0: af05 13ba d886 2aaf 41b1 e9b7 a864 2a3c
000002f0: 17b0 85b5 840e e9ba c0c7 df3a 5605 e1b4
00000300: bfe0 71b9 5a10 6b3d 4b48 218f 4a34 a0b6
00000310: 3ff9 04bb 5cb2 edb8 7b20 6630 ec1c 322c
-0.00028399564 3.2422385e-08 0.0009306662 9.9377015e-05 -0.0028048172 -2.8921237e-08 -0.0008754663 1.6516698e-10
2.419706e-15 9.614389e-12 8.699196e-32 0.0011958604 -1.48187e-07 7.237621e-17 1.4842841e-09 7.206783e-08
-0.031961203 5.7047174e-07 1.890198e-07 -0.00015184798 2.6350443e-14 6.242238e-09 7.3261986e-06 -1.2816014e-07
1.1519502e-33 1.707056e-05 2.4002125e-07 -2.9466034e-11 6.0798e-11 4.93047e-40 -5.642909e-11 -4.93378e-40
6.655228e-08 0.0006270922 -9.212607e-11 2.8358572e-06 6.518411e-15 -7.0752867e-07 -1.5796179e-05 0.00024257207
2.670616e-13 -1.1946158e-08 -3.6503606e-17 1.12985575e-07 -4.6016005e-08 1.2056885e-06 0.00030560693 3.6190378e-10
2.5727799e-12 0.0016284754 -4.030981e-06 -4.91489e-40 -5.0703466e-08 -2.025206e-07 3.5481275e-22 -1.2507215e-07
4.3653476e-14 3.203528e-10 -8.061926e-31 -0.00010974416 -1.2676461e-09 8.709344e-07 1.8594103e-06 -2.4671106e-19
1.5738212e-09 -3.638797e-30 4.7124394e-07 -2.4166459e-06 9.8652606e-08 1.45202845e-08 -0.00021210658 -4.90662e-40
-0.03576151 5.3784253e-20 -4.8637325e-09 -0.0002474473 7.8429933e-13 -2.570347e-10 -4.90922e-40 -2.2756718e-21
6.623522e-12 -1.0541536e-08 -7.695523e-08 3.3063004e-06 1.043605e-12 8.5057856e-08 -4.4969047e-06 -5.18241e-40
-1.5704669e-05 2.7940245e-10 8.9603195e-12 -3.3761574e-16 -2.2906819e-35 1.11291556e-07 8.462319e-08 1.0131984e-07
-2.357805e-30 -3.4595053e-09 3.9377106e-09 -0.00321569 1.2753713e-08 3.6474093e-10 -4.90477e-40 -6.450691e-06
0.0043885564 -0.0062555787 -7.7065064e-33 -1.2770233e-06 -1.7343335e-14 2.4403688e-08 2.6007254e-07 -1.1157743e-08
-1.6494656e-07 1.0849163e-15 2.269969e-19 -7.360277e-07 6.282636e-07 1.0710223e-10 5.8722105e-08 9.184369e-08
0.006520489 -1.6806297e-08 -0.0026992124 2.9318648e-16 -1.5975587e-31 4.92811e-40 -4.91985e-40 3.0265088e-08
1.1126924e-16 5.2786377e-06 8.0842305e-10 -4.5785673e-09 -0.0030113752 -2.5203313e-22 -2.0659627e-06 4.9819224e-12
-8.325456e-09 4.98484e-40 -3.325195e-06 0.0049169324 -1.1432236e-09 2.8486302e-31 -5.9814227e-16 7.056082e-08
-4.011035e-24 -0.01192779 -0.0028703767 -0.002189756 6.0286953e-07 -0.0012565828 -4.825928e-11 3.5109576e-07
-0.005979571 -0.0027479706 -4.0738327e-31 0.0012672364 5.132122e-06 -0.0015678299 -0.0024111927 3.0838858e-12
0.0024288006 0.0011897645 0.00013232554 -2.6276068e-23 -0.0015027073 -0.002781566 0.0034197182 0.0027042974
8.125863e-07 1.5260726e-05 0.012223886 -9.214301e-07 -4.94141e-40 -4.4326697e-08 -1.4539201e-09 -0.004667387
4.0807615e-09 2.2412141e-06 -3.8898608e-07 -5.3902993e-05 -2.5233769e-08 9.670039e-06 0.0015496477 0.00093578117
-0.0005608452 -1.5509316e-10 -2.7858305e-05 0.010399975 -9.960521e-07 -0.0017780815 0.001707308 -4.1913398e-07
-0.00023067275 0.05738864 -7.951836e-30 -4.774459e-06 -0.0020290164 -0.00011334263 8.371967e-10 2.5311376e-12
