trained_models/lstm_trained_model_1.pt (torch, 870803 bytes, 33 tensors)

lstm.weight_ih_l0 f4 [200, 33]
0	0x3a06fe0c	0.000514955
1	0x3a3ab650	0.00071225036
2	0x3601cced	1.934178e-06
3	0xb8926950	-6.9814385e-05
4	0x352192ad	6.0190615e-07
5	0x39d3b626	0.00040380767
6	0x3a0840a9	0.00051976234
7	0xbad2d0ad	-0.0016083919
8	0x34907624	2.690805e-07
9	0x391d6527	0.00015010369
10	0x365578bb	3.1809748e-06
11	0x393e696f	0.00018159089
12	0x2d1484c4	8.442306e-12
13	0x3ad04947	0.0015890979
14	0x39aaa5ed	0.0003254855
15	0xb2ca702d	-2.3566907e-08
16	0x3646dd9c	2.9633293e-06
17	0x311d1121	2.2856244e-09
18	0xb80aa54c	-3.305571e-05
19	0xba94b885	-0.0011346495
20	0xb3f1b036	-1.12544896e-07
21	0xb4c7aca0	-3.719224e-07
22	0x3a04bb8f	0.0005063349
23	0x2511b534	1.2638139e-16
24	0x395719ee	0.00020513657
25	0xad894f3f	-1.5610289e-11
26	0xb31e059b	-3.679234e-08
27	0xb2e4e64d	-2.6647422e-08
28	0x33103b6c	3.3581657e-08
29	0xa8d6869a	-2.3817147e-14
30	0x37cd4afb	2.447282e-05
31	0x3a5b0ee6	0.0008356407
32	0x38dfadb9	0.00010665827
33	0x3a719db1	0.0009216918
34	0x38923ad8	6.972783e-05
35	0x38237a67	3.8976224e-05
36	0xb9b4a960	-0.0003445847
37	0xb54d4a33	-7.6476425e-07
38	0x37be4ef5	2.2686532e-05
39	0xb6a1ffa7	-4.8279358e-06
40	0x3511bb26	5.4289046e-07
41	0xb99a0afd	-0.00029381356
42	0x32d6a149	2.4986223e-08
43	0xb7f283d1	-2.891003e-05
44	0x38e3cc1d	0.000108622226
45	0x31ce8ea8	6.011607e-09
46	0x38b7e92e	8.769553e-05
47	0x3aed2aaa	0.001809438
48	0x36f7481f	7.3695696e-06
49	0xb90a54b7	-0.00013192264
50	0xb90f2acd	-0.00013653487
51	0xbab67e91	-0.0013923218
52	0xb19ae1fe	-4.5076822e-09
53	0x3a342ead	0.00068734103
54	0x32ad1a74	2.015188e-08
55	0xbabfd40c	-0.0014635338
56	0xb807cca1	-3.2377084e-05
57	0xb63937b7	-2.7599579e-06
58	0x3426925f	1.5513204e-07
59	0xb63ce72e	-2.8148747e-06
60	0x31235187	2.3765965e-09
61	0x30841f5b	9.613176e-10
62	0x37fb2fb1	2.994374e-05
63	0x32094854	7.990895e-09
64	0xbab15a43	-0.0013530928
65	0x2ed29b50	9.5772834e-11
66	0xbd1158d4	-0.035485104
67	0x3d5ab633	0.053396415
68	0x3d808831	0.062759764
69	0x3df40a8f	0.119160764
70	0xbd31091f	-0.04322159
71	0xbdaedbc4	-0.08538011
72	0x39ffec8e	0.00048813637
73	0xbc764fb5	-0.015033652
74	0x3e073893	0.13205175
75	0x3d8387ba	0.06422372
76	0xbe070e68	-0.1318909
77	0xbd94e715	-0.07270638
78	0xbd279456	-0.04091295
79	0x3da3bdfa	0.079952195
80	0x3cb7eea4	0.02245266
81	0xbdc65225	-0.096836366
82	0xbba00ab2	-0.0048840875
83	0x3c8ded74	0.01732514
84	0x3bdf713f	0.00681892
85	0xbc00817f	-0.007843374
86	0xbbb2578e	-0.0054425662
87	0xbccd7135	-0.025078395
88	0xbb8a23f9	-0.004215714
89	0x38f967fd	0.000118926146
90	0xbcbe8f82	-0.02326179
91	0x3c00dca9	0.0078651095
92	0x3ae8ac63	0.001775157
93	0x3cb5750b	0.022150537
94	0xbccaefbd	-0.02477252
95	0x3c02662d	0.007958931
96	0xbca03160	-0.019554794
97	0xbbe48d65	-0.0069748634
98	0x3ce45385	0.027871856
99	0x3b3073f3	0.002692458
100	0x3b45579d	0.0030112036
101	0x3b39fb22	0.0028378447
102	0x3ad65a17	0.0016353753
103	0xbb21e20e	-0.002470139
104	0x3b43d779	0.002988307
105	0x3b2317ec	0.0024886085
106	0x3a8ddd4a	0.0010823396
107	0x3a9963f7	0.0011702765
108	0x3ae33baa	0.0017336507
109	0x3b64ff11	0.003494207
110	0x3b11214e	0.0022145095
111	0x3ade431d	0.0016957257
112	0xb98f3ab5	-0.00027318826
113	0x3b242b5c	0.0025050258
114	0x3b249032	0.0025110361
115	0x3a2cd687	0.00065932464
116	0x3b278585	0.0025561762
117	0xb98fb119	-0.00027407033
118	0xba4752e2	-0.0007603598
119	0xb94bed3a	-0.00019447962
120	0xb8253b49	-3.939428e-05
121	0x3a1546f0	0.00056944694
122	0xb875a4a7	-5.8565896e-05
123	0xb9e09bfb	-0.00042840824
124	0xb9b6cbab	-0.0003486549
125	0x3a5b1a1b	0.0008358077
126	0x3a862141	0.0010233299
127	0x3a04d8c7	0.0005067703
128	0xba58134e	-0.0008242623
129	0xb92a93d6	-0.00016267537
130	0x3a8ccbcf	0.0010741892
131	0xbadbc4ec	-0.0016767061
132	0xbb17c72f	-0.0023159494
133	0xbb16e694	-0.002302562
134	0xbb15b485	-0.0022843194
135	0xbb09b2ee	-0.0021011191
136	0x3b1665cd	0.0022948862
137	0x3b1b2948	0.0023675729
138	0x3b14f16e	0.002272691
139	0x3ab2df45	0.0013646862
140	0x3b12a294	0.0022374736
141	0x3b1a9a75	0.0023590599
142	0x3b1ad839	0.0023627414
143	0xbb1a473b	-0.0023540992
144	0x3b628927	0.0034566612
145	0x3b18cc76	0.0023315228
146	0x3b1a9b4c	0.00235911
147	0xbb19267d	-0.0023368888
148	0xbb64e042	-0.0034923707
149	0xbb19193d	-0.002336099
150	0x39a476d7	0.0003136906
151	0x3b1a485b	0.0023541662
152	0xbb1976db	-0.002341679
153	0xbac0b524	-0.0014702422
154	0x3b17cf70	0.0023164414
155	0x3acaea2f	0.0015481169
156	0x3b19c7c3	0.0023465015
157	0xbb17b2b4	-0.0023147287
158	0xb9a36dae	-0.000311715
159	0x3b12f5e6	0.00224244
160	0x3b17bd2f	0.0023153534
161	0x3adc132f	0.0016790385
162	0x3b178159	0.0023117869
163	0x3b16f568	0.0023034457
164	0x358549ca	9.930748e-07
165	0x39ede4d3	0.0004537465
166	0x3aa73514	0.0012756907
167	0x36d83069	6.4429373e-06
168	0xb0458b41	-7.1866074e-10
169	0x389b73f4	7.412574e-05
170	0x3a144843	0.000565652
171	0x3aacc57f	0.0013181417
172	0x3424695a	1.5312017e-07
173	0x34a7a003	3.1222598e-07
174	0x351bb807	5.8009795e-07
175	0x372d728c	1.0338274e-05
176	0x33e0d4ee	1.04695445e-07
177	0x3a6dc6be	0.00090704474
178	0x3a160b24	0.0005723706
179	0x35d9733a	1.6201295e-06
180	0x36ebacae	7.0236483e-06
181	0xb1cc5ec2	-5.947954e-09
182	0xb9f2a5e9	-0.0004628145
183	0xb224c17c	-9.59005e-09
184	0xb405c0c9	-1.2456725e-07
185	0xac996644	-4.3598753e-12
186	0xb9e09e80	-0.000428427
187	0x387c04fa	6.0086117e-05
188	0xad4b85c2	-1.1568914e-11
189	0x2dfbebcf	2.8640116e-11
190	0x3354dfb6	4.956356e-08
191	0xaeeca5b5	-1.0761473e-10
192	0x34cbf5f1	3.7990642e-07
193	0x38d35dbc	0.000100787234
194	0xbadcc68c	-0.001684384
195	0x33809595	5.987673e-08
196	0xb98237a1	-0.0002483698
197	0xba3ffb83	-0.000732355
198	0xbdd64f24	-0.104643136
199	0xbcf99cdd	-0.030470306
200	0x3d426385	0.04745819
201	0x3dc1c840	0.09462023
202	0xbd8c5e36	-0.06853907
203	0x3dc11759	0.09428281
204	0x3da89822	0.08232142
205	0xb3743480	-5.6858426e-08
206	0x39fc722f	0.0004815026
207	0xb7e06c1f	-2.6753229e-05
208	0xbd209b0e	-0.03921037
209	0xbb7952ea	-0.0038043805
210	0x35b45b32	1.3437586e-06
211	0xbcf86f33	-0.030326461
212	0xba2efd40	-0.00066753104
213	0x3cf4ba8d	0.02987411
214	0xb8bab12d	-8.902173e-05
215	0x39af190b	0.0003339726
216	0x3cfd03a4	0.030885525
217	0xbb66ceeb	-0.0035218548
218	0x39885fc0	0.0002601128
219	0x383d11b3	4.5077595e-05
220	0xbafb819f	-0.001918841
221	0x3a581540	0.00082429126
222	0x2e152892	3.391471e-11
223	0x3a6b1e7d	0.00089690817
224	0x3a2d2d85	0.0006606209
225	0xaf111e12	-1.3198356e-10
226	0xb090a1af	-1.0523332e-09
227	0x2f145cc1	1.3493474e-10
228	0xaa739cda	-2.1637154e-13
229	0x3b08a406	0.0020849719
230	0x2e99b597	6.989891e-11
231	0x3a0b8d64	0.0005323498
232	0x3b3f256e	0.0029166597
233	0x3a6b5b0e	0.0008978107
234	0x3b3e992e	0.0029083001
235	0xbb390a3c	-0.002823486
236	0x3b67fe6c	0.003539945
237	0x3b37eb1d	0.0028063722
238	0x3b1bb3bb	0.002375825
239	0x3b4a80a1	0.0030899423
240	0x3b481b56	0.0030533872
241	0x3c0842c3	0.0083166985
242	0x3b51a0ac	0.0031986637
243	0x3b2b5537	0.0026143321
244	0x3b552e3c	0.0032528779
245	0x3b3ad0fa	0.0028505907
246	0x3c0eed09	0.008723506
247	0xbb275883	-0.0025534935
248	0x3b0ed59b	0.00217948
249	0xbab29ca3	-0.0013627004
250	0xbb4da5fb	-0.003137945
251	0xbad2dbe3	-0.001608726
252	0xbb2a2a96	-0.0025965325
253	0x3b119880	0.0022216141
254	0x3a9f4277	0.0012150545
255	0xbb258a3a	-0.0025259391

lstm.weight_hh_l0 f4 [200, 50]
0	0xb328fd9e	-3.934621e-08
1	0x310cab70	2.0470132e-09
2	0x3608318b	2.0294417e-06
3	0x334c29da	4.7535515e-08
4	0x3a16a03d	0.0005745923
5	0x359402eb	1.1027709e-06
6	0x0005637a	4.94863e-40
7	0xb11242c9	-2.128376e-09
8	0x321fd541	9.303506e-09
9	0xb8c06aad	-9.175143e-05
10	0xbad35b7d	-0.0016125288
11	0xb9c75c6e	-0.00038025103
12	0x35ce31eb	1.5362724e-06
13	0x223636d2	2.4694621e-18
14	0x37ca0d27	2.4086401e-05
15	0xa93237d1	-3.9572353e-14
16	0xab53aca6	-7.5201856e-13
17	0xb26ed452	-1.3901699e-08
18	0x1d962b09	3.9749167e-21
19	0xb69c89de	-4.665212e-06
20	0xb05f57cf	-8.125171e-10
21	0x3903ef1d	0.0001258221
22	0x3a1698e8	0.00057448307
23	0x2bba9c3f	1.3259462e-12
24	0xb32ff937	-4.0972022e-08
25	0x2468b8a4	5.0463377e-17
26	0x9b319ea6	-1.4692359e-22
27	0xb90f68c9	-0.00013676578
28	0xa8879ab8	-1.505511e-14
29	0x3322c14b	3.7894363e-08
30	0xba0490a0	-0.0005056951
31	0x370d26c2	8.413279e-06
32	0xa6ba10f0	-1.2910934e-15
33	0xb32e9f72	-4.0657547e-08
34	0xb6558922	-3.1819295e-06
35	0x38a2e129	7.766701e-05
36	0x3393d674	6.88423e-08
37	0x2ca2379b	4.6104904e-12
38	0x3a178801	0.0005780459
39	0xb1e1e3d3	-6.5742625e-09
40	0x80055c30	-4.92248e-40
41	0x370afb2a	8.28392e-06
42	0xa9e71abe	-1.02631e-13
43	0x28aaeeef	1.8977412e-14
44	0xba5b0043	-0.0008354226
45	0xaf48e276	-1.8270349e-10
46	0xa0aa4cd5	-2.8849963e-19
47	0x3a2325c9	0.0006223587
48	0x379a4907	1.8392237e-05
49	0xba4b534e	-0.0007756249
50	0xb1f88379	-7.2326967e-09
51	0x32347463	1.0503842e-08
52	0x3230ea47	1.0297817e-08
53	0x3230bfae	1.0288131e-08
54	0xb4f9a9f4	-4.650352e-07
55	0x3202cab8	7.613089e-09
56	0xad8eaac2	-1.6219363e-11
57	0x3a12868f	0.0005589509
58	0x3201a522	7.546335e-09
59	0x2a781c0f	2.203656e-13
60	0x2f8d4e03	2.570318e-10
61	0x321cade8	9.119937e-09
62	0x091edc04	1.9122009e-33
63	0xa256df54	-2.9120637e-18
64	0xb64289b7	-2.8988413e-06
65	0xba89f5d3	-0.0010525532
66	0x04f2d466	5.7088984e-36
67	0xb205dea9	-7.792246e-09
68	0xaff1e33d	-4.3999107e-10
69	0x190c8b3d	7.265949e-24
70	0xba8fadbe	-0.0010961813
71	0xb8b7fa95	-8.7727945e-05
72	0x0446aee2	2.335509e-36
73	0x32155806	8.692956e-09
74	0x34a379e3	3.04498e-07
75	0xb1badd4d	-5.4384715e-09
76	0x32001719	7.455832e-09
77	0xaca35e19	-4.6431856e-12
78	0x94c75b6f	-2.0129929e-26
79	0x320219a7	7.572829e-09
80	0x9d447039	-2.5998402e-21
81	0xb475330b	-2.2835972e-07
82	0xb1b827fe	-5.3596514e-09
83	0xb5daa221	-1.6289451e-06
84	0x95323351	-3.5987295e-26
85	0x2de22439	2.5709311e-11
86	0x323168de	1.03266e-08
87	0xb232e8ff	-1.0413941e-08
88	0xb809485b	-3.273073e-05
89	0xad120f35	-8.302516e-12
90	0x1955aa56	1.1046241e-23
91	0x36fa8421	7.4659624e-06
92	0xba50feba	-0.00079725275
93	0xbabc74ab	-0.0014378031
94	0xb5fe70a7	-1.8957261e-06
95	0xb897a4cb	-7.230936e-05
96	0xb383e08b	-6.141007e-08
97	0x3a9da4d2	0.001202727
98	0x36aad8b6	5.0916233e-06
99	0xba5c054c	-0.0008393123
100	0xbd3eca60	-0.04657972
101	0x3c2ff523	0.0107395975
102	0xbb6df7f7	-0.0036311129
103	0xb50098f5	-4.79063e-07
104	0x3d6a8912	0.057259627
105	0x3c316b92	0.010828869
106	0x37744eaf	1.4561853e-05
107	0x3a9bf5bb	0.0011898795
108	0xb591b178	-1.0854992e-06
109	0x395656bb	0.0002044094
110	0x3933e8b0	0.00017157453
111	0x3cbd7ffb	0.023132315
112	0xbd8bd9b0	-0.0682863
113	0x38d874c9	0.000103214355
114	0xba856a21	-0.0010178724
115	0xb5acb9d5	-1.2869083e-06
116	0xbcd22616	-0.025652926
117	0x3c0e208c	0.008674752
118	0xb9a64d12	-0.0003171941
119	0xb2066504	-7.822795e-09
120	0x3beab5dd	0.007162793
121	0x391e0c6d	0.00015072683
122	0x8cb69377	-2.8130292e-31
123	0xbd439ae5	-0.04775514
124	0x3d2a8025	0.041626114
125	0x35566fe1	7.988402e-07
126	0xb8b13f59	-8.451817e-05
127	0xb8d45f31	-0.000101266785
128	0xb3115e9d	-3.3846494e-08
129	0xbd080ac3	-0.03321339
130	0x36136ada	2.1966903e-06
131	0x3d33afd6	0.043868862
132	0xbd61687f	-0.055031296
133	0xbc79a92e	-0.0152380895
134	0x8002ba88	-2.50586e-40
135	0xbd1a608b	-0.037689727
136	0xbadca912	-0.0016835055
137	0x3bf21b54	0.0073885117
138	0x211260d4	4.9594875e-19
139	0x38d1db48	0.00010006741
140	0x3cfb0995	0.030644218
141	0x3d53dff1	0.05172724
142	0xb980feaa	-0.00024603802
143	0xbb9055bd	-0.004404752
144	0x3253d92a	1.2331194e-08
145	0x2e6150fd	5.123101e-11
146	0xb880e267	-6.145686e-05
147	0xb7ece8db	-2.8241824e-05
148	0xbceda4d4	-0.02900926
149	0x32586b5d	1.2597266e-08
150	0x3a65758e	0.0008753174
151	0x3a940294	0.0011292272
152	0x3aa51d2f	0.0012597198
153	0x391059d0	0.00013766368
154	0xbacc3974	-0.0015581087
155	0xba584b53	-0.000825097
156	0xba0a050d	-0.0005265035
157	0xba6aef8f	-0.00089620886
158	0x3a8b9158	0.0010648174
159	0x2cde8418	6.324285e-12
160	0xbaef1f72	-0.0018243624
161	0x3a686da8	0.0008866438
162	0x32304e88	1.0262404e-08
163	0x2013682a	1.2485849e-19
164	0x3a8fdac7	0.0010975235
165	0xba941e82	-0.0011300596
166	0xb8b89d08	-8.803053e-05
167	0xba11d68b	-0.00055632804
168	0xad4a81b9	-1.1511175e-11
169	0x3a4a1420	0.00077086873
170	0xba3d34a4	-0.0007217622
171	0x00054e56	4.87279e-40
172	0xb997810a	-0.00028897106
173	0x3a93df1f	0.0011281705
174	0xba677ace	-0.000883025
175	0xba390a5a	-0.00070587324
176	0x1d04abe8	1.7558928e-21
177	0xb83517d3	-4.317595e-05
178	0xba035df1	-0.0005011252
179	0x3a94058d	0.0011293158
180	0x32f12389	2.8072252e-08
181	0xa2e9e3f3	-6.3396127e-18
182	0xba0b8a00	-0.0005322993
183	0xba6b87ce	-0.0008984775
184	0x3ac0c0b7	0.0014705871
185	0xba2fd45e	-0.00067073654
186	0x3a93ace5	0.0011266737
187	0xba8f1fd7	-0.0010919523
188	0xb80fea42	-3.4312026e-05
189	0x95008f0d	-2.596224e-26
190	0xb1b65662	-5.3067177e-09
191	0x3a07626d	0.0005164508
192	0x3a4ed978	0.0007890682
193	0x3a5cab17	0.00084178284
194	0x9c928cc3	-9.697856e-22
195	0xba668b26	-0.00087945384
196	0xb98cfd7c	-0.0002689174
197	0x3a1ea428	0.0006051683
198	0x3a93110e	0.0011220293
199	0x3a926ad1	0.001117075
200	0xbac8a8ff	-0.0015309154
201	0x3b149a21	0.0022674876
202	0x3b18508b	0.0023241367
203	0x3b17f0a3	0.0023184202
204	0xbb9a22e3	-0.004703866
205	0x3b1334e6	0.002246195
206	0x387fb3de	6.0964252e-05
207	0xbb16d67b	-0.0023016024
208	0x3b17f3fe	0.0023186202
209	0x35c317e3	1.4535584e-06
210	0x33184cb9	3.5460037e-08
211	0x3b60754c	0.0034249602
212	0x2b1092a5	5.1362587e-13
213	0xadb3f9c4	-2.0460862e-11
214	0x3b17f25d	0.0023185231
215	0xbb2a33c0	-0.0025970787
216	0x2c0ed332	2.029665e-12
217	0xbb19b37d	-0.002345293
218	0xb892ff2c	-7.009352e-05
219	0xab32a20e	-6.34632e-13
220	0x3b34406e	0.0027504223
221	0xacfb1823	-7.1365288e-12
222	0x8f837172	-1.2961295e-29
223	0x3b17f3cd	0.0023186088
224	0xbb170aa1	-0.0023047107
225	0xb5c77349	-1.4860208e-06
226	0xb38bd769	-6.511875e-08
227	0x38a663be	7.934075e-05
228	0x2b2f7c0f	6.2344655e-13
229	0x3b17f236	0.002318514
230	0xb8e70ea9	-0.00011017669
231	0x3a62af72	0.0008647359
232	0x3ae2e381	0.0017310233
233	0xbb1709d4	-0.002304663
234	0xad671b07	-1.3136831e-11
235	0x3b15fb3e	0.0022885348
236	0x3b19ae3c	0.00234498
237	0xbb1c4cdb	-0.002384952
238	0x11a7002a	2.6348055e-28
239	0x2b578d5d	7.6579525e-13
240	0x3addf405	0.0016933685
241	0x3b18a4e0	0.0023291633
242	0xbb19bfd3	-0.0023460283
243	0xbb176aca	-0.0023104423
244	0xbac4a724	-0.0015003425
245	0x35e4987a	1.70317e-06
246	0xbb17f141	-0.002318457
247	0x1f8f34a8	6.064997e-20
248	0x3b19db30	0.0023476593
249	0x3b17f294	0.002318536
250	0xba777a3c	-0.00094405166
251	0x33840b53	6.148789e-08
252	0x338ccea5	6.5568464e-08
253	0xb9a8d5f1	-0.00032202856
254	0x354d44bf	7.646849e-07
255	0xbab34e9b	-0.0013680042

lstm.bias_ih_l0 f4 [200]
0	0x301668be	5.471853e-10
1	0xaf08ece6	-1.2453291e-10
2	0x3c446c2f	0.011988684
3	0x3a920039	0.0011138982
4	0x3b27f6a1	0.002562918
5	0x332df65c	4.0503764e-08
6	0xafe2f786	-4.1285037e-10
7	0x3b2b0cef	0.0026100238
8	0xa808c5c0	-7.592397e-15
9	0x3a506f74	0.0007951178
10	0x198d98cf	1.4640777e-23
11	0xb680b0a3	-3.8352605e-06
12	0xba95f406	-0.0011440523
13	0x39f5910d	0.00046838113
14	0x3b8f7830	0.004378341
15	0x38150ace	3.553443e-05
16	0xbb3bcdfb	-0.002865671
17	0xad81b235	-1.4744742e-11
18	0xb9a77207	-0.0003193768
19	0x3ac21a5d	0.0014808882
20	0xbcc53411	-0.024072679
21	0xb6ca87e2	-6.035888e-06
22	0xba066840	-0.0005127229
23	0x2a9fc383	2.8379737e-13
24	0xb9dd77fc	-0.000422418
25	0x2dc5e332	2.2497202e-11
26	0xb62f21e9	-2.609677e-06
27	0xb115aa7c	-2.1779263e-09
28	0x372a4213	1.0148174e-05
29	0xad8bb41c	-1.5882455e-11
30	0xb500b622	-4.7948754e-07
31	0xb6030e80	-1.9528961e-06
32	0x3a48021e	0.000762971
33	0x33fcc456	1.1770378e-07
34	0xb9cdd849	-0.00039261792
35	0xbd28de05	-0.04122736
36	0xba839505	-0.0010038918
37	0x3483c64f	2.454494e-07
38	0x315efbc4	3.2448364e-09
39	0xb976ba5e	-0.00023529815
40	0x3d903c4b	0.0704275
41	0x3ba5c4e5	0.005058872
42	0x3bceff3b	0.006317047
43	0xbdbea0fb	-0.09308048
44	0xb265128c	-1.3333771e-08
45	0x3b0f0198	0.0021821018
46	0x3b1273ac	0.0022346778
47	0x372d9751	1.0346835e-05
48	0x3b0ee20a	0.002180221
49	0xbabc5a87	-0.0014370241
50	0x2aad396f	3.0770826e-13
51	0x37e93de0	2.7804577e-05
52	0x3a1a6e99	0.0005891114
53	0x385aec0e	5.2195093e-05
54	0x3b1a8ee4	0.0023583705
55	0xbb626457	-0.003454467
56	0x35cef579	1.5419638e-06
57	0xb3e932b3	-1.085913e-07
58	0x3b28b4ef	0.002574261
59	0x3a4f02ff	0.000789687
60	0xb5c20cb4	-1.4457823e-06
61	0x27c47ee5	5.4538508e-15
62	0x3aa5a970	0.0012638997
63	0xae790468	-5.661996e-11
64	0x3499e19d	2.8662626e-07
65	0x3a1795de	0.0005782525
66	0x1affe0c0	1.0582863e-22
67	0x3b2baa01	0.002619386
68	0x398a91c8	0.00026430027
69	0x2bebc284	1.6751743e-12
70	0x3cc3de02	0.023909573
71	0x358d175d	1.0512118e-06
72	0xb901703b	-0.00012344208
73	0x2987fcbc	6.039047e-14
74	0x31308ee4	2.5692595e-09
75	0xb7ce670f	-2.4605104e-05
76	0xb064a4d5	-8.3180157e-10
77	0xb308882d	-3.178882e-08
78	0x3360b171	5.2315446e-08
79	0x39dba904	0.00041896862
80	0xb0a6d4be	-1.2138555e-09
81	0xbb600717	-0.0034183913
82	0xb2db2a2b	-2.5514131e-08
83	0xbb0d0d5f	-0.0021522862
84	0x3a5e969d	0.0008491071
85	0xb404e0f7	-1.23753e-07
86	0xb9250400	-0.00015737116
87	0x342cc3cd	1.608998e-07
88	0xb76469cd	-1.3614493e-05
89	0xbadab09a	-0.0016684711
90	0xae291921	-3.844847e-11
91	0x3b0e240a	0.0021688961
92	0xb40b74a9	-1.2987825e-07
93	0xb442719f	-1.8108993e-07
94	0xb37e7c29	-5.9251906e-08
95	0xb8cfe764	-9.913629e-05
96	0x3b15ea35	0.0022875194
97	0xa68ca1c5	-9.758299e-16
98	0x2aa02224	2.84454e-13
99	0xb8f61ee7	-0.0001173595
100	0xbbdf900b	-0.006822591
101	0x33f1ac79	1.12538096e-07
102	0x33c408e5	9.128579e-08
103	0x366ef76a	3.5608778e-06
104	0xbadd43ac	-0.001688113
105	0x33615b1a	5.246975e-08
106	0xa7b78ff8	-5.0948795e-15
107	0x39355e6b	0.00017296679
108	0x3b0701bf	0.0020600406
109	0x343447b8	1.6789897e-07
110	0xa35b7c19	-1.18982925e-17
111	0x37312289	1.0558063e-05
112	0xb9683d39	-0.00022148051
113	0xb36e2fca	-5.5457157e-08
114	0x3a79f50e	0.0009535112
115	0x3986778a	0.00025647535
116	0x3ae5ff38	0.0017547375
117	0xb25b3829	-1.2760247e-08
118	0xae2ea45e	-3.9709007e-11
119	0xb9dbf3c4	-0.00041952555
120	0xacff91fd	-7.263744e-12
121	0x3ab7b94f	0.0014017018
122	0xb134a1ca	-2.6285414e-09
123	0x319a0b3d	4.4832675e-09
124	0x39c27a29	0.0003709358
125	0xabc91260	-1.4287009e-12
126	0xb548d9a5	-7.482252e-07
127	0x00056b56	4.97682e-40
128	0xba919e36	-0.0011109773
129	0xbb06041e	-0.0020449231
130	0xae16323a	-3.415066e-11
131	0xb39abcaa	-7.2055016e-08
132	0x293bc19b	4.1690267e-14
133	0x39151a11	0.00014219458
134	0x069a6ca7	5.808801e-35
135	0x39a7f500	0.0003203526
136	0x3a5dfe3c	0.0008468365
137	0xb28c0560	-1.630059e-08
138	0x389cef30	7.483212e-05
139	0xb9bacb16	-0.00035627995
140	0xbd336fb7	-0.04380771
141	0xb52b370d	-6.3782574e-07
142	0xbc71776a	-0.014737943
143	0x3b8a47e8	0.0042199977
144	0xaa095f9f	-1.220122e-13
145	0xb885c287	-6.378168e-05
146	0xa8917343	-1.614822e-14
147	0x800558eb	-4.91075e-40
148	0x3a1c89de	0.00059714715
149	0xb5269dc4	-6.20694e-07
150	0xb4aa9fb5	-3.178117e-07
151	0x3b136e16	0.0022496036
152	0xbb0d566b	-0.0021566402
153	0x389867dc	7.26727e-05
154	0x36f6127a	7.3335223e-06
155	0x2af774cc	4.3957058e-13
156	0xb46eaf50	-2.2229256e-07
157	0x3a8f0f22	0.0010914544
158	0x3b8bb844	0.0042639095
159	0x3a11639f	0.0005546156
160	0x3ac0a630	0.0014697965
161	0xbd12cec0	-0.035841703
162	0x3968df71	0.00022208483
163	0x3812eda4	3.5030433e-05
164	0xb9c6fb2d	-0.00037952643
165	0x3a963388	0.0011459449
166	0x313493b9	2.6277418e-09
167	0x3caef58a	0.021357317
168	0xb7e7f32e	-2.7650585e-05
169	0xbb038227	-0.002006659
170	0x38f69e4a	0.00011759678
171	0xba75f1ea	-0.00093820563
172	0x1f1a2dc2	3.264862e-20
173	0x3c000dd4	0.007815797
174	0x337b5d60	5.8525416e-08
175	0x3b200337	0.0024415979
176	0x357185c3	8.9974145e-07
177	0xb98b8701	-0.00026612732
178	0xbaf66031	-0.0018796978
179	0x3339320d	4.311919e-08
180	0xba9f3957	-0.0012147826
181	0x3dcb3134	0.09921494
182	0x3bbe55d4	0.0058085714
183	0xb70038dd	-7.642634e-06
184	0xb83bb9a7	-4.4757177e-05
185	0x3b1238be	0.0022311653
186	0x3b213e75	0.0024603878
187	0x3856c565	5.1205414e-05
188	0x33e65d56	1.0727187e-07
189	0xb903cc47	-0.00012569233
190	0x296524df	5.0880195e-14
191	0x33a114b6	7.500914e-08
192	0x39c0ecbd	0.00036797478
193	0x33dd1426	1.02947794e-07
194	0xb281c783	-1.5108304e-08
195	0xbb228aa5	-0.0024801877
196	0x3a8bc129	0.0010662425
197	0xb75d1f0f	-1.3179858e-05
198	0x3c90e116	0.017685454
199	0x3b17d75a	0.002316913

lstm.bias_hh_l0 f4 [200]
0	0x389b3006	7.399921e-05
1	0x322784d9	9.750885e-09
2	0x3d6e78e9	0.058220778
3	0x3a91aaee	0.0011113563
4	0x3b2ac734	0.0026058676
5	0xada53e22	-1.878592e-11
6	0x39f1c65e	0.00046114897
7	0x3b5ac114	0.0033379244
8	0x33280846	3.9123073e-08
9	0x3a990898	0.0011675535
10	0x15ca2fd8	8.1662634e-26
11	0xbaae28db	-0.0013287322
12	0xbadd48ae	-0.0016882622
13	0x349b5b8a	2.8937603e-07
14	0x3bad0c30	0.005280994
15	0x3a1be2dc	0.00059465854
16	0xbb226a7d	-0.002478271
17	0x3248aad9	1.1680378e-08
18	0x3dc85556	0.097819015
19	0x2f15b23a	1.361479e-10
20	0xbb81b3a7	-0.003958184
21	0xb703db1f	-7.859227e-06
22	0x3d01e178	0.031709164
23	0x2acd89cd	3.6510934e-13
24	0x1642f4c1	1.5748426e-25
25	0xb924b0bf	-0.00015706102
26	0xb58d2f05	-1.0519003e-06
27	0xb82baef7	-4.0932526e-05
28	0x34ac7667	3.2123646e-07
29	0xad9e54d2	-1.8000188e-11
30	0xb8b10f58	-8.442876e-05
31	0xb8c3d475	-9.337898e-05
32	0x3237354e	1.0664122e-08
33	0x37149cd6	8.858004e-06
34	0xb9ce45d6	-0.00039343414
35	0xbdbabb41	-0.09117747
36	0x39e1b5db	0.00043050837
37	0xba1fafe8	-0.0006091581
38	0x1e1e044c	8.365339e-21
39	0x38260aca	3.9587532e-05
40	0x3d9ec1c9	0.07751805
41	0x3d9b98dd	0.07597516
42	0x3d6a4c3f	0.05720162
43	0x3d99bcf9	0.07506747
44	0xb246994b	-1.1559972e-08
45	0x3b0eca75	0.0021788154
46	0x3b172305	0.0023061645
47	0xaca0d030	-4.570587e-12
48	0x399858f0	0.00029057963
49	0xbabd5e3d	-0.0014447641
50	0x34b8a89c	3.439535e-07
51	0x381ac592	3.6900463e-05
52	0x3662b3d9	3.378131e-06
53	0xba6c261e	-0.00090083655
54	0x3b19d3d4	0.0023472207
55	0x3c3451b5	0.011005809
56	0x2ec18b11	8.801327e-11
57	0xba9a86e7	-0.0011789472
58	0x3b2ce0a2	0.0026379009
59	0x39a55664	0.00031535618
60	0x27be322f	5.2790003e-15
61	0x398d1ea2	0.0002691644
62	0x15022f7e	2.6290756e-26
63	0x2f46288d	1.8022402e-10
64	0x347fcf93	2.3824241e-07
65	0x37847598	1.5790385e-05
66	0xac3f22b9	-2.7162007e-12
67	0x3b030163	0.001998984
68	0xb6adeb87	-5.1832208e-06
69	0x35677f01	8.623902e-07
70	0x3ba40b9b	0.0050062663
71	0x3867ede6	5.5296252e-05
72	0x1fe512ba	9.701625e-20
73	0xb895a997	-7.136462e-05
74	0x339ed983	7.3970135e-08
75	0xba481e20	-0.00076338835
76	0xbacb69d3	-0.0015519209
77	0xbabe82e9	-0.0014534864
78	0x35f096ea	1.7925315e-06
79	0x39db1ff5	0.00041794745
80	0xb9b24fa2	-0.00034010137
81	0x3c2ae0f4	0.01042961
82	0xb2dc70c9	-2.566266e-08
83	0xbb0936ed	-0.002093728
84	0x9e4d598f	-1.087113e-20
85	0x3a7566a6	0.0009361304
86	0xb92cfcb0	-0.00016497332
87	0x39ef32c7	0.00045623464
88	0xacfbe097	-7.1587835e-12
89	0x353c82a3	7.022556e-07
90	0x3a83aa92	0.0010045341
91	0xbd200b5b	-0.03907333
92	0xb415a9a7	-1.3938426e-07
93	0xb4f0581e	-4.4767597e-07
94	0xafeabeec	-4.270001e-10
95	0xa43c0556	-4.077052e-17
96	0x3b15e68d	0.0022873015
97	0x3af0fce2	0.0018385912
98	0x32f99086	2.9053137e-08
99	0xb89bc42a	-7.427514e-05
100	0x3cc797a7	0.024364306
101	0x33927502	6.8199384e-08
102	0x33a034b6	7.460169e-08
103	0xb62b24a7	-2.550232e-06
104	0xbaddad5c	-0.0016912627
105	0xba019b6e	-0.00049441203
106	0x2b224721	5.7652673e-13
107	0xb5f661c5	-1.8356883e-06
108	0x3b4e1dd8	0.0031450894
109	0x33715f86	5.6199063e-08
110	0xbaa4487b	-0.0012533808
111	0x32683c4b	1.3517886e-08
112	0x14a7c1e7	1.6939172e-26
113	0x315909a8	3.1583145e-09
114	0x3a43b70e	0.0007465937
115	0xb0edebc0	-1.7311024e-09
116	0xb447fe79	-1.8625896e-07
117	0xb105b4bc	-1.9456783e-09
118	0xad2bcf0b	-9.766197e-12
119	0x967ab01e	-2.0250412e-25
120	0x39bc449b	0.0003590927
121	0x37a878da	2.0083437e-05
122	0x299791fa	6.73107e-14
123	0xba2fda70	-0.000670827
124	0xb34973cc	-4.6904276e-08
125	0xb26c3969	-1.37500615e-08
126	0xbad84256	-0.0016499262
127	0xb113651e	-2.1448794e-09
128	0x8884f232	-8.001401e-34
129	0x3c1ac9a9	0.009447494
130	0x3623733e	2.4355973e-06
131	0xb72f76d9	-1.0458484e-05
132	0x37d3f607	2.5267726e-05
133	0xb35e58c7	-5.1769145e-08
134	0xb9a7447c	-0.00031903747
135	0x1b184bcd	1.2597638e-22
136	0x970331c0	-4.2391176e-25
137	0xb28cfbdd	-1.641268e-08
138	0x9c20befe	-5.318641e-22
139	0x2a78dc1b	2.2103189e-13
140	0xbb52e996	-0.0032182685
141	0x39f62aeb	0.00046952753
142	0x3dac0003	0.0839844
143	0x3b1c1a55	0.0023819406
144	0xb5995020	-1.1422708e-06
145	0x298292e6	5.7986425e-14
146	0xb92aaa6e	-0.00016275953
147	0x000560d7	4.93917e-40
148	0x3a1c1950	0.00059546996
149	0x3182d4d0	3.807692e-09
150	0xba17f33c	-0.00057964376
151	0x3a829919	0.000996384
152	0x3988336e	0.0002597826
153	0x391ee59e	0.00015153593
154	0x35585e97	8.0603917e-07
155	0x93d4754e	-5.3631995e-27
156	0x38dda8de	0.00010569555
157	0x3b64a5d3	0.0034888878
158	0xbad745b4	-0.0016423971
159	0x3a6e5aa8	0.00090924883
160	0x348d8afe	2.6364427e-07
161	0x3d7af1d9	0.0612658
162	0x0c19c2a3	1.1845263e-31
163	0x3902e3d0	0.00012482633
164	0x339e2e29	7.365845e-08
165	0x3ac4d7e9	0.001501796
166	0x265c7464	7.648557e-16
167	0x3bbdf9a1	0.0057975804
168	0xba9f146e	-0.0012136826
169	0xbb05562a	-0.0020345547
170	0x38b57135	8.651839e-05
171	0xb6588bff	-3.2267997e-06
172	0xb69d6310	-4.690497e-06
173	0xbcb375e7	-0.021906806
174	0xbae6ee22	-0.0017618577
175	0x3b1d9086	0.0024042442
176	0xba6ec1ac	-0.0009107839
177	0xb9af2a7e	-0.0003341026
178	0xbafedd8e	-0.001944469
179	0x3301bbe0	3.0206024e-08
180	0xbaf3bec0	-0.0018596277
181	0xbd4f3075	-0.05058332
182	0x3b0eaa43	0.0021768964
183	0x34900735	2.6827334e-07
184	0xaeb33c88	-8.15073e-11
185	0x3b0e87df	0.0021748466
186	0x3ad1e568	0.0016013803
187	0x381574cc	3.5633144e-05
188	0x1d805cb6	3.397718e-21
189	0x324a4d80	1.1775569e-08
190	0x356140d9	8.39134e-07
191	0x390b6b55	0.00013296057
192	0x3b148663	0.0022663109
193	0x31d838ef	6.2929e-09
194	0xb282d92b	-1.5232748e-08
195	0xbb99df35	-0.004695798
196	0x3aaf6474	0.0013381378
197	0x80056392	-4.94897e-40
198	0xbcb6df51	-0.022323282
199	0x3b112c63	0.00221517

lstm.weight_ih_l0_reverse f4 [200, 33]
0	0xbaf2b0c7	-0.0018515819
1	0xba353c04	-0.0006913545
2	0xbb26f403	-0.0025475032
3	0x3cbc45f0	0.022982568
4	0xbb7a8724	-0.0038227523
5	0xbba372fe	-0.0049880734
6	0x3b733d59	0.0037115423
7	0xbb900a2e	-0.0043957448
8	0xbbd8d3f4	-0.0066170637
9	0xbb511f20	-0.003190942
10	0xbc9f025a	-0.019410301
11	0xbb80db2d	-0.003932378
12	0xbb935294	-0.004495928
13	0xbc892085	-0.01673914
14	0xbb4caa8a	-0.003122958
15	0xbbcdb155	-0.006277243
16	0x3c02b6bd	0.0079781385
17	0xbc3b0cff	-0.011416673
18	0x3c4b8848	0.012422629
19	0xbb4db5f1	-0.0031388963
20	0x3b7454e2	0.003728204
21	0x3c1b84fd	0.009492156
22	0xbba7d2ec	-0.0051215794
23	0x3ac92ed9	0.0015349045
24	0xbc2b0ec2	-0.01044053
25	0x3c1425ff	0.009042262
26	0xbb012a11	-0.0019708911
27	0xbcbd5c76	-0.023115378
28	0x3c1408fa	0.009035343
29	0xbb88c645	-0.004174026
30	0x3bb2e6bb	0.005459634
31	0x3aeefc8c	0.0018233224
32	0x3be9d80f	0.007136352
33	0xbb0d9a36	-0.002160681
34	0xbb00a2e9	-0.0019628352
35	0xbb0b175e	-0.0021223645
36	0xbb0f89ce	-0.0021902206
37	0xbb12c305	-0.0022394073
38	0xbb0e6268	-0.0021726135
39	0xbb06aa66	-0.0020548343
40	0xba9d9b76	-0.001202448
41	0xbafe110a	-0.001938374
42	0xba450320	-0.0007515419
43	0xbb1367af	-0.002249222
44	0xbb29cba0	-0.0025908723
45	0xbabc2149	-0.0014353181
46	0xbb5bcd27	-0.0033539028
47	0xbaf576a8	-0.0018727379
48	0xbb0461ee	-0.0020199972
49	0xbaa948cf	-0.0012915375
50	0x3a107949	0.0005511237
51	0x37db9ee1	2.6180818e-05
52	0xba72742c	-0.00092488783
53	0xba966604	-0.0011474495
54	0xba7e6ca3	-0.0009705519
55	0x3a854402	0.0010167363
56	0x3906cfc7	0.00012856639
57	0x3a935bf1	0.0011242611
58	0xb9fd53cb	-0.0004831835
59	0xb74110cc	-1.1507607e-05
60	0xba01ce8a	-0.0004951736
61	0x3a3afa05	0.0007132593
62	0xb9bb3dc4	-0.00035713438
63	0x3a4d6529	0.00078352034
64	0x3a84906e	0.0010113844
65	0x3a6baaa1	0.0008989964
66	0xb7c10ba0	-2.3012806e-05
67	0xb7e32dff	-2.7081927e-05
68	0xba1298ef	-0.0005592247
69	0xb99a3133	-0.00029409825
70	0xb35cdd0f	-5.1423793e-08
71	0xb7c115d0	-2.301755e-05
72	0xb640fb0f	-2.8756365e-06
73	0xb23cbcdb	-1.0985981e-08
74	0xb3023eeb	-3.0325207e-08
75	0xb24de922	-1.1985579e-08
76	0x3a0cdb6f	0.00053732743
77	0xb4181cf3	-1.4166635e-07
78	0xb613460e	-2.1945484e-06
79	0xb7d9b588	-2.5952948e-05
80	0xba6c261b	-0.00090083637
81	0xb5e37eac	-1.6949684e-06
82	0xb7698929	-1.3919817e-05
83	0xb5b0e21c	-1.3178828e-06
84	0xbab1407a	-0.0013523244
85	0xb8746a99	-5.827341e-05
86	0xb984dbd6	-0.00025340792
87	0x31a0886b	4.672122e-09
88	0x3ad089a4	0.0015910161
89	0x3054389b	7.720559e-10
90	0x3086df4a	9.813246e-10
91	0xb4b50844	-3.371989e-07
92	0xb4c831d1	-3.728915e-07
93	0x304d0e0e	7.459854e-10
94	0xb127b211	-2.4402917e-09
95	0x38bcf968	9.010994e-05
96	0x3940a7ba	0.0001837303
97	0xaf026d21	-1.1862201e-10
98	0xb129e80c	-2.472464e-09
99	0x3af84c6b	0.0018943673
100	0x3a99710c	0.0011706664
101	0x35b485b9	1.3449963e-06
102	0x3523b07d	6.0979056e-07
103	0xb7e8479a	-2.7689897e-05
104	0x3af47664	0.0018651006
105	0x3a60cefa	0.0008575764
106	0x3623c70c	2.4404753e-06
107	0xba67b1e0	-0.0008838456
108	0x361fee5f	2.3831597e-06
109	0x3926c231	0.00015903336
110	0x368596b6	3.981254e-06
111	0x33ac504d	8.023981e-08
112	0x3af107b6	0.0018389139
113	0x3737e2a4	1.0960419e-05
114	0x392f1496	0.0001669697
115	0x3048cb57	7.304854e-10
116	0x38b9107c	8.824558e-05
117	0xb461ffe4	-2.104785e-07
118	0xb71ac833	-9.225728e-06
119	0xb548face	-7.4870775e-07
120	0x382c345c	4.105676e-05
121	0x33b07487	8.216835e-08
122	0xbac9913f	-0.001537837
123	0x38e38bd2	0.00010850247
124	0x3930b9ae	0.00016853839
125	0x3432b249	1.6642402e-07
126	0xb63bada9	-2.7966255e-06
127	0x362c2dc0	2.5656627e-06
128	0xb582c17d	-9.742067e-07
129	0xafefbc8c	-4.3607817e-10
130	0xb31f103e	-3.7034845e-08
131	0xb66c708f	-3.5232258e-06
132	0x3b02ba26	0.001994738
133	0x3b0fa617	0.0021919066
134	0x3ad2934c	0.0016065626
135	0x3afe61f7	0.0019407858
136	0x3b01dca5	0.0019815352
137	0x3b78de27	0.003797421
138	0x3b05ce5f	0.0020417196
139	0x37d23c94	2.506216e-05
140	0x38eaf692	0.00011203917
141	0x39dc9f4e	0.0004208036
142	0x3ad72780	0.001641497
143	0x3aa41d4d	0.0012520939
144	0x38b557a8	8.64708e-05
145	0x3b3b124c	0.0028544841
146	0x3acd30d6	0.0015654813
147	0x3b16a57a	0.0022986815
148	0x388d9c6e	6.752541e-05
149	0x37b75249	2.1853617e-05
150	0xb6539bf5	-3.153223e-06
151	0x381e3c0f	3.772607e-05
152	0xba61cf81	-0.00086139893
153	0x38002c2f	3.0558727e-05
154	0x3759d40d	1.298358e-05
155	0xb9af4e57	-0.0003343697
156	0xb83fdcc0	-4.5743538e-05
157	0x37f55b6b	2.9248846e-05
158	0xb809e815	-3.287949e-05
159	0x36035d67	1.9574888e-06
160	0x38a0b65b	7.663361e-05
161	0xba83e4e1	-0.0010062718
162	0xba374f7f	-0.0006992742
163	0x3a477b92	0.0007609661
164	0x3a79af7f	0.0009524747
165	0x3b26f82f	0.0025477519
166	0x3b0728c4	0.0020623663
167	0x3b35aa24	0.002771982
168	0x3b32a461	0.0027258622
169	0xbb20040b	-0.0024416472
170	0x3b1d8d0f	0.0024040376
171	0x3b30d047	0.0026979612
172	0x3b1ea28c	0.0024205772
173	0x3a802463	0.0009776469
174	0x3b1eb912	0.0024219197
175	0x3b2a8fa6	0.0026025563
176	0x3b27ea28	0.0025621746
177	0x3b0b0325	0.002121159
178	0x3b25a746	0.0025276705
179	0x3b2ba0c9	0.0026188365
180	0x3afbff0c	0.001922579
181	0xbb0cbcb4	-0.002147478
182	0xbaeca695	-0.0018055016
183	0xba442768	-0.00074826786
184	0xbab214b9	-0.0013586498
185	0xbaff882d	-0.001949554
186	0xbac507d2	-0.0015032238
187	0x3ac86e0f	0.0015291589
188	0xbad11271	-0.001595093
189	0x3afa515d	0.0019097734
190	0x3a9841c1	0.0011616276
191	0xb5263d36	-6.192889e-07
192	0xbaae42f2	-0.0013295098
193	0x3bb27d99	0.0054471013
194	0x375b85e7	1.3084594e-05
195	0x3b998074	0.0046845023
196	0xb89c4f17	-7.453391e-05
197	0x3a3cee35	0.00072071265
198	0x38f72bfa	0.00011786069
199	0x3aacb110	0.0013175327
200	0x3a80a03a	0.0009813376
201	0xb902e058	-0.0001248134
202	0xbaa53763	-0.0012605008
203	0x3ab7bf1b	0.0014018746
204	0x3ac1f588	0.0014797905
205	0x3ad23fec	0.0016040779
206	0x3a74ca5c	0.0009338015
207	0x3a49eec0	0.0007703118
208	0x3b11fca2	0.0022275825
209	0x3a950c68	0.0011371495
210	0xb9a16b2d	-0.00030788165
211	0x3ac0de2e	0.0014714652
212	0x3a8c3b43	0.0010698814
213	0x3af2f0ea	0.0018534933
214	0xba852f51	-0.0010161196
215	0x3ac73c52	0.0015200472
216	0xb8bfcb48	-9.145454e-05
217	0xba197f64	-0.00058554695
218	0xba264814	-0.0006343138
219	0xb9ac6b15	-0.0003288618
220	0x3adfa37b	0.0017062271
221	0xb784442f	-1.5767377e-05
222	0xba8df8e7	-0.0010831625
223	0xb923665b	-0.00015583022
224	0x391236cb	0.00013944057
225	0xb8d6e5a0	-0.00010247086
226	0x398c6eed	0.00026785527
227	0x396338bf	0.00021669547
228	0x39c4a104	0.00037504
229	0x38dfd20f	0.00010672595
230	0x39b62f7c	0.00034749124
231	0xbbce449e	-0.006294801
232	0xbbd01193	-0.0063497513
233	0xbba96129	-0.005169053
234	0xbc6c1890	-0.014410153
235	0x3cc11f50	0.023574501
236	0xbbc8b164	-0.0061246622
237	0xbbc280b1	-0.0059357514
238	0xbbb20f0e	-0.0054339236
239	0xbbba23aa	-0.005680521
240	0xbba6b7f5	-0.0050878474
241	0xbbeca231	-0.007221483
242	0x3aac9138	0.0013165837
243	0xbb9b9dd7	-0.0047490406
244	0x3942325b	0.0001852004
245	0xbccd4d2f	-0.025061218
246	0x3bbe9260	0.005815789
247	0xbbab2dcb	-0.005223965
248	0xbba4d7dc	-0.0050306153
249	0xbb6c9b0b	-0.0036103155
250	0x3bc71175	0.006075079
251	0xbb97f813	-0.004637727
252	0xbb370c87	-0.002793105
253	0xbba0f6b9	-0.004912224
254	0x3b8da2ab	0.00432237
255	0x3b9c2964	0.0047656763

lstm.weight_hh_l0_reverse f4 [200, 50]
0	0x3b9e1727	0.0048245373
1	0xb987bea7	-0.00025891254
2	0x1fdda4dd	9.3869884e-20
3	0x391633dc	0.00014324434
4	0x3ba7c64b	0.005120074
5	0x372893c0	1.0047981e-05
6	0xb9895523	-0.00026194108
7	0xbad0b35e	-0.0015922596
8	0x3b908252	0.0044100666
9	0x38861db2	6.395149e-05
10	0x33537d35	4.924114e-08
11	0x37c51d0d	2.3497758e-05
12	0x3997f106	0.0002898054
13	0x371094b9	8.617696e-06
14	0xa71cb093	-2.174507e-15
15	0x3723e9a8	9.769959e-06
16	0xb854ce78	-5.0737028e-05
17	0x329f02ef	1.851137e-08
18	0xb17af425	-3.6518568e-09
19	0x3c91f5fe	0.017817494
20	0x38970b07	7.202295e-05
21	0xb955da62	-0.00020394617
22	0x3589abd5	1.0257305e-06
23	0x312c2b55	2.5053926e-09
24	0x37904999	1.720041e-05
25	0x37ace668	2.0611289e-05
26	0x8b9c74c5	-6.026471e-32
27	0x000567ba	4.96388e-40
28	0x39791017	0.00023752484
29	0x344eed9b	1.9271685e-07
30	0xb70721d2	-8.054501e-06
31	0xbadafe1b	-0.0016707809
32	0xbb7a3838	-0.0038180482
33	0x38ec78b3	0.00011275839
34	0x3c0e4fe6	0.008686041
35	0xb9211aaf	-0.00015364097
36	0x158de9d6	5.7318375e-26
37	0xbcbb7e94	-0.022887506
38	0xbba25bf8	-0.004954811
39	0x9bed1dc2	-3.9227592e-22
40	0xb5b66c9b	-1.3591665e-06
41	0x394b7caa	0.0001940603
42	0x3ba5f636	0.005064751
43	0xb6973dec	-4.5073593e-06
44	0x372b29d8	1.0202137e-05
45	0xacb76c9b	-5.2132305e-12
46	0xbc3d1e82	-0.011542918
47	0xbc33a2ec	-0.010964137
48	0xbbf0d546	-0.007349643
49	0x3ba11e8b	0.004916971
50	0x3133be5c	2.6156135e-09
51	0x2672d423	8.4248115e-16
52	0xb2af904b	-2.0438298e-08
53	0x0d14df53	4.587484e-31
54	0x3a10c3ba	0.00055223296
55	0xba0f8c54	-0.00054759276
56	0xb31fdb7e	-3.72197e-08
57	0x355e7811	8.2876164e-07
58	0xad9c517f	-1.7771338e-11
59	0xa8887918	-1.515155e-14
60	0x8849eb1a	-6.07626e-34
61	0xba4207fd	-0.0007401703
62	0x1155321b	1.6818177e-28
63	0xb3b3952c	-8.362471e-08
64	0x1ec45d39	2.0790863e-20
65	0xb01afc86	-5.638373e-10
66	0x00056318	4.94726e-40
67	0x35aeed38	1.303305e-06
68	0x092434c2	1.9765589e-33
69	0x3a10d597	0.00055249914
70	0xba4212fb	-0.0007403341
71	0x19447a39	1.0157645e-23
72	0x2381b3a9	1.4062297e-17
73	0x07cee349	3.1129021e-34
74	0x3a075e19	0.0005163863
75	0xa2fe9d3a	-6.901331e-18
76	0x2d40b904	1.0955018e-11
77	0x80055886	-4.90934e-40
78	0x2e63aeae	5.176897e-11
79	0xafc57859	-3.5919603e-10
80	0x369414cf	4.413166e-06
81	0x1aa7b0f4	6.9355464e-23
82	0xba10d709	-0.0005525207
83	0x3a017d3b	0.000493962
84	0xba42109b	-0.0007402987
85	0xa4e9e68a	-1.0143819e-16
86	0xb73ff5f9	-1.1441757e-05
87	0xba114f7c	-0.0005543155
88	0xba420ba9	-0.000740225
89	0xbab094bb	-0.001347206
90	0x3ad4c3ea	0.0016232703
91	0x34e53a9d	4.269722e-07
92	0xb89d4b69	-7.5003896e-05
93	0xb93904e8	-0.00017644803
94	0x3974edfd	0.00023358311
95	0xb413e4b4	-1.3773644e-07
96	0xb36a22f3	-5.4514157e-08
97	0xba3c08b4	-0.0007172928
98	0xba114a0d	-0.00055423455
99	0x3a17a23d	0.0005784368
100	0xa8bca057	-2.094173e-14
101	0x936a70a8	-2.9590496e-27
102	0x37b0daa9	2.1082657e-05
103	0xb0ca1c3e	-1.4705461e-09
104	0xba1bc8e8	-0.0005942718
105	0xb1114b4f	-2.1143085e-09
106	0xb4ee6dd8	-4.4410876e-07
107	0x3a30fa8a	0.00067512004
108	0xba74b2f3	-0.0009334527
109	0xa3af36be	-1.8996722e-17
110	0x2c1054ec	2.0510772e-12
111	0xb0f455ad	-1.7777687e-09
112	0x36096a9a	2.047664e-06
113	0x9f53fcc7	-4.489008e-20
114	0xb804bb9a	-3.164597e-05
115	0xb0bc9bfe	-1.3723136e-09
116	0xa9fa066d	-1.1103345e-13
117	0x2ce3961e	6.4683944e-12
118	0xb63b5fb9	-2.792089e-06
119	0x383f40e8	4.5598397e-05
120	0x34cb01ab	3.781291e-07
121	0x8bd6be25	-8.27159e-32
122	0x08d310ec	1.2703079e-33
123	0x35cf42b9	1.5442121e-06
124	0xb1063f9d	-1.9535726e-09
125	0x31bbe932	5.4689275e-09
126	0x3ab10ac5	0.0013507238
127	0x34e38b72	4.2383505e-07
128	0x88d7b98a	-1.2983462e-33
129	0x18a3d6d5	4.2351437e-24
130	0x38c90aa7	9.586411e-05
131	0x342afca3	1.5924392e-07
132	0xb0dc808a	-1.604364e-09
133	0xb686415b	-4.0011196e-06
134	0xb7496340	-1.2003642e-05
135	0x3614307b	2.2081938e-06
136	0x32c168bc	2.2515785e-08
137	0x376142da	1.342661e-05
138	0x38e66e70	0.00010987825
139	0x2520fce4	1.396347e-16
140	0xbade17fd	-0.0016944405
141	0x3537fc32	6.8539805e-07
142	0x3114d2fc	2.1656765e-09
143	0xb94c1cac	-0.00019465637
144	0x3a4c3f06	0.00077913736
145	0xa98e7ef3	-6.328089e-14
146	0xb25a981f	-1.2723858e-08
147	0xb0df588a	-1.625055e-09
148	0x325d7715	1.2890969e-08
149	0x30e0da66	1.6360218e-09
150	0x2ead6881	7.885693e-11
151	0xbac24812	-0.0014822504
152	0x263784f7	6.367108e-16
153	0x3a465b20	0.0007566679
154	0x3ab9ee8a	0.001418547
155	0x38a303a9	7.7731274e-05
156	0xb8f7e265	-0.00011820047
157	0x0b6b6a38	4.5339264e-32
158	0x30f02141	1.747175e-09
159	0x39c78415	0.00038054647
160	0x80056012	-4.93641e-40
161	0x339f6011	7.421489e-08
162	0xba1f0472	-0.0006066031
163	0x3a541e24	0.00080916495
164	0x2dd7188c	2.4453571e-11
165	0x3a779efe	0.0009445994
166	0x263b4581	6.4972853e-16
167	0x0eb83972	4.541482e-30
168	0xa1a26535	-1.1004336e-18
169	0xb48feab9	-2.680661e-07
170	0xb222924e	-9.462907e-09
171	0xb7e3a153	-2.7135631e-05
172	0x3903f060	0.0001258268
173	0x36e726c9	6.8888517e-06
174	0x34c8d006	3.740426e-07
175	0x3ab42e74	0.0013746754
176	0x800610b5	-5.57006e-40
177	0x2a328c01	1.585815e-13
178	0xb031e865	-6.472248e-10
179	0xb5fa8d37	-1.866755e-06
180	0xb4bbdfe2	-3.499436e-07
181	0xa89f8abb	-1.771271e-14
182	0xba9851d5	-0.0011621068
183	0xb9b102d2	-0.00033762172
184	0xaf2f8616	-1.5963794e-10
185	0x86e0dce6	-8.4584016e-35
186	0x9bfd26b1	-4.1880343e-22
187	0x3497bc7b	2.826308e-07
188	0x341677a5	1.4013365e-07
189	0x3ade8edd	0.0016979832
190	0x385d7e6d	5.280825e-05
191	0xb903a9de	-0.00012556414
192	0xb4ab461f	-3.1902252e-07
193	0xb43e698e	-1.773353e-07
194	0xb87ef1da	-6.078356e-05
195	0xb111625e	-2.1156192e-09
196	0xaf89191e	-2.4938002e-10
197	0xb966e5b6	-0.00022020083
198	0x8d13949c	-4.5476754e-31
199	0xb48c0174	-2.607809e-07
200	0x8005665e	-4.959e-40
201	0x37e91c42	2.7788923e-05
202	0xb8c8e949	-9.580196e-05
203	0xa7a18652	-4.4832107e-15
204	0x3aa3fc88	0.0012511173
205	0xb8d7f064	-0.00010296775
206	0xb09672cb	-1.0946563e-09
207	0xb10555f7	-1.9402913e-09
208	0xb80893c0	-3.256253e-05
209	0xabaad40b	-1.213808e-12
210	0x2babc4d2	1.2204909e-12
211	0x38a4952e	7.847916e-05
212	0xaf176b08	-1.3771395e-10
213	0xb918546a	-0.00014527296
214	0x391496cb	0.00014170555
215	0x3aec1970	0.0018012952
216	0x3499a6b3	2.861976e-07
217	0x800560f2	-4.93955e-40
218	0x9906366a	-6.9386265e-24
219	0xb82ba99b	-4.0927534e-05
220	0x305f7b04	8.1301743e-10
221	0x3a0c022c	0.00053409
222	0xba8ea591	-0.0010883083
223	0xa2a597e8	-4.4884177e-18
224	0x37cce60a	2.4425815e-05
225	0x00046183	4.02323e-40
226	0x9160ae4d	-1.7724195e-28
227	0xa3978210	-1.6426536e-17
228	0x32ac124a	2.0031752e-08
229	0xa85c61cc	-1.223366e-14
230	0xb8975e61	-7.2178205e-05
231	0xb75005a1	-1.2399077e-05
232	0x37eaf528	2.8009134e-05
233	0xba98740b	-0.0011631263
234	0x395fc19f	0.00021339067
235	0xb20f67de	-8.347312e-09
236	0x36c3c351	5.8341907e-06
237	0xb88f0fca	-6.821712e-05
238	0x386b9bac	5.6173347e-05
239	0x24fbaa33	1.0914223e-16
240	0x324b082d	1.1818014e-08
241	0x3794e1c1	1.77481e-05
242	0xb9ca3546	-0.00038568134
243	0xb864ca97	-5.4548113e-05
244	0x80055e0d	-4.92917e-40
245	0x38398c6d	4.423822e-05
246	0xb9dbb56b	-0.00041906102
247	0x378425d8	1.5753249e-05
248	0x383d1eb2	4.50897e-05
249	0xb950a443	-0.00019897618
250	0x3974f81c	0.00023362081
251	0xb81aeeb6	-3.6938778e-05
252	0x37a38548	1.9493178e-05
253	0x36900199	4.2917204e-06
254	0xbac4ff07	-0.0015029617
255	0x3ab4b38a	0.0013786417

lstm.bias_ih_l0_reverse f4 [200]
0	0xbcbdf403	-0.023187643
1	0x3a57274c	0.0008207455
2	0xb1687b98	-3.3830698e-09
3	0x3a21a930	0.00061668735
4	0x3a2cec49	0.00065964885
5	0x3b0f40a3	0.0021858595
6	0x39da522c	0.00041641423
7	0xbb982392	-0.004642912
8	0xbc278040	-0.010223448
9	0xb361d5e6	-5.2581434e-08
10	0xbb010fb6	-0.0019693202
11	0x37f65545	2.9365192e-05
12	0x37d1727b	2.496805e-05
13	0xb9018bc4	-0.00012354465
14	0xb8263a38	-3.9631705e-05
15	0x3b080c06	0.002075912
16	0x3c94f922	0.018185202
17	0x37528f6a	1.2550367e-05
18	0xb9907b40	-0.0002755765
19	0x1e5fa2db	1.18391994e-20
20	0x3aeba9cd	0.0017979682
21	0xa29cd244	-4.2506512e-18
22	0xbb0e8524	-0.0021746838
23	0x28f19a49	2.6823285e-14
24	0xac3035b3	-2.5040913e-12
25	0x3be2e7a9	0.0069245887
26	0xb15c1ed3	-3.2031735e-09
27	0xb68e6f4a	-4.2448855e-06
28	0xb5be217b	-1.4165847e-06
29	0xba5a9906	-0.00083388423
30	0x3a93f34f	0.0011287722
31	0x2e90b9b7	6.5813514e-11
32	0xbab15a05	-0.0013530856
33	0xba624888	-0.0008632024
34	0x3b0caf31	0.0021466727
35	0xbad9087b	-0.0016558314
36	0x35990a61	1.1402409e-06
37	0x3aa6d488	0.0012728134
38	0x3d6eef70	0.058333814
39	0xb4a1ec93	-3.0160717e-07
40	0xb7299bde	-1.0109476e-05
41	0xb87fbc90	-6.097235e-05
42	0x322e5dad	1.0149432e-08
43	0xba721f0b	-0.0009236193
44	0x2b4d24a8	7.28815e-13
45	0xbaa48e7f	-0.0012554674
46	0x3c6be6ae	0.01439826
47	0xbe07ca80	-0.13260841
48	0x97b38b7e	-1.1602817e-24
49	0x3431150a	1.6492064e-07
50	0xb4c6d192	-3.7032856e-07
51	0x970cb278	-4.54617e-25
52	0xbaea125a	-0.0017858252
53	0x38a1cd6b	7.71534e-05
54	0xbba0be9c	-0.004905535
55	0x3ad10e9f	0.0015949792
56	0x39489e27	0.00019132403
57	0x800564d1	-4.95344e-40
58	0xbabb650e	-0.0014297084
59	0xb9ea120d	-0.00044645407
60	0xb4cfb120	-3.868563e-07
61	0x37a48d1c	1.9616033e-05
62	0xba281d04	-0.0006413015
63	0xb2dc9c47	-2.5682438e-08
64	0xafe142d0	-4.0974735e-10
65	0x39f0c356	0.00045921904
66	0x3a24aa1e	0.0006281453
67	0xb8bfb79e	-9.141791e-05
68	0x3a3b4685	0.0007143992
69	0x39cecc28	0.0003944349
70	0xb8596f15	-5.1840285e-05
71	0xb78bb6f1	-1.665528e-05
72	0x3475fa97	2.2908567e-07
73	0xad04d98d	-7.551637e-12
74	0x33966c14	7.0045786e-08
75	0x3923b172	0.00015610995
76	0x2da2edb9	1.8522838e-11
77	0x33719e1b	5.625598e-08
78	0xbaa7813f	-0.0012779607
79	0xb8899006	-6.5594955e-05
80	0xba6479b7	-0.00087156467
81	0x3224ba94	9.588479e-09
82	0x8004e5df	-4.49804e-40
83	0x3209763d	8.001334e-09
84	0x3c4b21bc	0.01239818
85	0x29414811	4.2917116e-14
86	0xa0642c47	-1.9327001e-19
87	0xb96156ff	-0.0002149008
88	0x36863213	3.9993406e-06
89	0x30bd318b	1.3765641e-09
90	0x35ada644	1.2937894e-06
91	0xb4095bf2	-1.2792569e-07
92	0x3a74f56f	0.0009344434
93	0x353b7a35	6.9840763e-07
94	0xb5b2040f	-1.3263215e-06
95	0xb6471f79	-2.967163e-06
96	0xbb05e9df	-0.0020433587
97	0x142cc8c5	8.723376e-27
98	0x3c069f5e	0.008216707
99	0xad847a65	-1.5061017e-11
100	0xad63a36c	-1.2939743e-11
101	0xb652d96c	-3.1418995e-06
102	0x0c0c8bf8	1.0827328e-31
103	0xade305e3	-2.5809526e-11
104	0x3c1316e6	0.008977627
105	0x3aaeabc4	0.0013326337
106	0xb50368fb	-4.895407e-07
107	0x800560fd	-4.9397e-40
108	0xbbe34350	-0.0069355145
109	0xb20cc371	-8.193511e-09
110	0x3a91c90b	0.0011122538
111	0x3b09456a	0.0020945915
112	0x39d73075	0.000410441
113	0x36517b07	3.1215038e-06
114	0x2fded065	4.0529638e-10
115	0x3b1a2541	0.002352074
116	0xbd90fa9e	-0.070790514
117	0xb699a244	-4.5786455e-06
118	0x3165d57b	3.3445235e-09
119	0xb1874ca4	-3.93773e-09
120	0x86d3c668	-7.966091e-35
121	0xb822e8e1	-3.8840695e-05
122	0x3aad6ff8	0.0013232222
123	0xae588200	-4.9228177e-11
124	0x357791a3	9.22266e-07
125	0x2a9a4150	2.7401215e-13
126	0xb94f95de	-0.00019796888
127	0x8a848824	-1.2762348e-32
128	0xb8c75d16	-9.506398e-05
129	0xa8589666	-1.2023021e-14
130	0x39de2956	0.00042373937
131	0xba03ab86	-0.00050228124
132	0x3b19c37a	0.002346246
133	0xa130a6b9	-5.9851775e-19
134	0x3c44b7f0	0.012006745
135	0x3a7cedb4	0.00096484576
136	0x3992271d	0.00027876432
137	0xb3472c64	-4.637367e-08
138	0xba852538	-0.0010158187
139	0xb61be83d	-2.323198e-06
140	0x38b23d40	8.49911e-05
141	0x39c3b0f3	0.00037325136
142	0xb4071656	-1.258098e-07
143	0xb0bcad70	-1.3728094e-09
144	0x3994c295	0.00028373735
145	0xb7b5574d	-2.1617534e-05
146	0xb90eaafa	-0.00013605869
147	0xbc425245	-0.011860435
148	0x3aa9a4ec	0.0012942827
149	0x16deb9af	3.5983217e-25
150	0x3972b70a	0.00023147106
151	0xb92721dc	-0.00015938975
152	0xb3b87a1f	-8.5903814e-08
153	0x3ad2cb83	0.001608238
154	0x3b52c166	0.0032158731
155	0x31a2bc6a	4.7362407e-09
156	0x3a8ea80c	0.0010883822
157	0xbbb55d7f	-0.0055348272
158	0xb4aa7ab2	-3.175424e-07
159	0x38b1f2a1	8.485211e-05
160	0xbb04b85d	-0.002025149
161	0x37ee84a0	2.843357e-05
162	0xba1e421c	-0.0006037073
163	0xba1faab2	-0.0006090804
164	0xaf5dc359	-2.0169234e-10
165	0xb7980592	-1.8122406e-05
166	0xbb046420	-0.002020128
167	0xb798226c	-1.8135841e-05
168	0xb9a5c8cc	-0.00031620858
169	0x3b130782	0.0022434895
170	0xbb348055	-0.0027542312
171	0x39cf7abb	0.00039573558
172	0xb9fde9b0	-0.0004843003
173	0xba7dd361	-0.0009682682
174	0x3ace7666	0.0015751838
175	0xbaa01c84	-0.001221553
176	0xae6f745a	-5.444565e-11
177	0x9e246c3e	-8.704472e-21
178	0x3a0d098d	0.00053801463
179	0x2d598ad8	1.2365851e-11
180	0x3b1d6151	0.0024014304
181	0x33c8b352	9.345844e-08
182	0x384672e9	4.7313897e-05
183	0x3aeebd5c	0.0018214392
184	0x3b481749	0.0030531457
185	0x31fd280e	7.367823e-09
186	0xbad4c5ba	-0.0016233244
187	0x3a1d9514	0.0006011289
188	0x3ae1eda2	0.0017236958
189	0x3185c5c8	3.8932946e-09
190	0xb8a49f40	-7.849792e-05
191	0x1c28be73	5.5832687e-22
192	0xba8727af	-0.0010311509
193	0x3af15f07	0.0018415161
194	0xac290412	-2.4018604e-12
195	0x389df083	7.531142e-05
196	0x34701fe0	2.2363338e-07
197	0xb9802886	-0.00024444255
198	0x3b0e2c70	0.0021693967
199	0x3b435998	0.002980804
