trained_models/model_checkpoint.pt (torch, 870803 bytes, 33 tensors)

lstm.weight_ih_l0 f4 [200, 33]
000000 50 af 99 3d c1 33 ac 3d 6a 1f ed bb d7 5e c5 3d
       0.07504141 0.08408309 -0.007236411 0.0963723
000010 8a 15 c0 bb 56 1a 91 3b f0 45 19 bd 30 32 50 3d
       -0.0058619427 0.0044281883 -0.037420213 0.050829113
000020 06 d4 ba 3d d0 f8 90 bd 19 52 b7 3d e7 61 5b 3b
       0.091224715 -0.07078707 0.08951206 0.0033475102
000030 3d 6e 92 3d 1b 57 3e 3a ea c1 16 3d 5f 22 70 ba
       0.071499325 0.00072609045 0.036806025 -0.0009160395
000040 fb 79 9b 3d 0a ea 98 3a 67 83 0e bd 20 99 17 3c
       0.07591625 0.0011666429 -0.034793284 0.009252816
000050 8c 3f 0b bd 0d 68 99 b9 b8 e8 dc bc 80 84 7a 3d
       -0.03399615 -0.00029259958 -0.026966438 0.061161518
000060 eb b2 a0 bd f9 64 0b bd aa 13 47 bc f0 f0 57 bd
       -0.07846626 -0.034031842 -0.012150684 -0.05272001
000070 9d e7 4a 38 11 0e d9 bd a1 f5 c0 3d 6f b8 b1 bd
       4.837626e-05 -0.10598386 0.0942185 -0.08677756
000080 7a cc 9b 3d ec b6 06 3b 48 f6 8a bc 6f 32 61 3d
       0.0760736 0.0020555807 -0.01696314 0.054979738
000090 c7 f0 c6 3a 5c f5 a5 3d 23 61 37 39 ce 07 82 bc
       0.0015177958 0.08103439 0.00017488426 -0.015872862
0000a0 46 fb 2e 3c 17 50 33 bc 37 42 ec 3c c2 08 be 3d
       0.010680025 -0.010944388 0.028840167 0.09279014
0000b0 bf 19 4b 3d 20 71 fd bc 71 a9 4a 3d 6b 6e 37 3b
       0.0495851 -0.030937731 0.049478 0.0027989398
0000c0 26 a1 24 3d cd 81 5c bd ec b0 d9 bd e8 75 c8 bc
       0.040192746 -0.053834725 -0.10629448 -0.024470285
0000d0 c9 62 9a bd f1 84 a9 3d fb 41 51 3c e0 4d e5 3c
       -0.07538373 0.0827731 0.012772079 0.027991235
0000e0 05 e0 82 3c ec ef 28 2f a4 c9 9e 3d a1 78 8a bd
       0.015975961 1.5364748e-10 0.07753304 -0.067612894
0000f0 e1 89 01 b5 90 9f 82 bd c7 c8 76 3c 8b 29 9e bc
       -4.8256885e-07 -0.063780904 0.0150625175 -0.019306919
000100 89 26 73 3c 62 46 a2 bb 13 07 ac 3d af 31 53 bd
       0.0148407305 -0.004952238 0.08399787 -0.051561054
000110 8f 3d 55 bd a9 42 55 bd af ea bf 3d 66 3e 93 3c
       -0.05206066 -0.052065525 0.09370934 0.01797409
000120 5b cd d1 3d 81 dc aa bd a4 40 da bd f8 b7 9e bd
       0.102442466 -0.08342839 -0.106568605 -0.07749933
000130 e5 ba 7f bd 32 bf db 3c 83 c7 ab 3c 46 76 ac 3d
       -0.062434096 0.026824567 0.020969158 0.08420996
000140 cd 4c 29 bd 22 64 82 bd cb 04 31 3d fa e0 da bc
       -0.04133301 -0.06366755 0.04321746 -0.026718605
000150 2d 13 5b 3d 13 7f f6 bb 74 c8 47 3d b9 31 9d bd
       0.053485084 -0.0075224726 0.04877515 -0.076754995
000160 91 e6 22 bd b8 44 70 3c 56 92 aa 3b d7 b2 17 bc
       -0.039770667 0.014664821 0.005205433 -0.009258947
000170 ff 0e 55 3d c2 db 81 3d ae 97 8e bd 18 d1 32 bd
       0.052016255 0.063407436 -0.06962524 -0.04365644
000180 f4 87 c4 3d 10 54 97 bc a3 38 a8 bc 6d 53 d3 bd
       0.095962435 -0.018472701 -0.020534819 -0.103186466
000190 9e 20 48 bd b2 34 0f 3c 99 dd 23 ba 06 cb 8e bd
       -0.04885923 0.008740591 -0.0006250977 -0.069723174
0001a0 18 6a a7 2f 5a c6 82 bd a7 6a b1 bd 9d 04 3c bd
       3.0452507e-10 -0.06385489 -0.086629204 -0.045902837
0001b0 83 07 b9 bd f0 a6 6b bd b4 75 dc 3d a1 3d 63 3b
       -0.09034636 -0.05753225 0.107646376 0.0034674185
0001c0 39 6c 76 3c 96 60 c9 bd a1 d4 76 bd d5 db 92 bc
       0.015040451 -0.098328754 -0.060261372 -0.01792709
0001d0 cd 25 ca 3a 11 5e ba bd 2b ca f6 bc 8b 7f 56 bd
       0.0015422642 -0.09099973 -0.030125698 -0.05236773
0001e0 cb 22 09 29 d4 ea b9 bc 47 6b 3f 34 81 3f 81 bd
       3.045029e-14 -0.022694983 1.7827288e-07 -0.063109405
0001f0 19 b4 83 bd 0b 0d 4e bd 35 1b 9c bc 76 ac a0 bd
       -0.06430835 -0.050305407 -0.019055942 -0.07845394
000200 e1 99 ae 3d ed ae 88 bb 71 d2 b4 3d ce df 7c 3c
       0.08525444 -0.0041712434 0.08829201 0.015434219
000210 73 f6 b0 bd dc 48 85 3d 71 40 3a bc 00 5a c5 bc
       -0.086407565 0.065080374 -0.011367903 -0.024090767
000220 53 38 ac bd 99 e7 da bd 70 c9 4d 3c f5 33 be bb
       -0.084091805 -0.10688705 0.0125602335 -0.0058045336
000230 a9 80 cb 3c fa 8d a9 bd 54 73 93 3d 78 17 91 bd
       0.024841623 -0.08279033 0.071997315 -0.070845544
000240 04 28 1e bb 69 b1 a3 3b 95 34 29 3d 08 c6 a5 3d
       -0.0024132738 0.004995514 0.04130991 0.08094412
000250 65 31 c3 3d 00 b4 a1 bd 59 42 12 3c 8d 00 f6 bc
       0.09530906 -0.078956604 0.008926951 -0.03002956
000260 b7 d5 3a b9 93 28 95 bd 18 2a c3 3d 06 10 91 bd
       -0.00017817957 -0.072831295 0.09529513 -0.07083134
000270 b4 22 33 3d e8 27 a5 3c 5e 34 8b 3c a7 86 36 bd
       0.043734267 0.02016063 0.016992744 -0.04456201
000280 2d 9f c2 3d 66 ef c1 3b 67 55 0c 3a 0a bf ba bd
       0.095030166 0.005918431 0.0005353302 -0.09118469
000290 4c 23 eb 3c 05 e8 a4 ba 5f da 09 bd 13 69 b4 3d
       0.028703354 -0.0012581354 -0.03365552 0.08809104
0002a0 dc 2e cb 3b 16 74 3d bd 6a b5 23 bd 0b 17 2f 31
       0.0062006544 -0.046253286 -0.03996793 2.547895e-09
0002b0 7a 3f 40 3d a7 a7 18 bc d0 f8 46 bd e2 3f 9c bc
       0.046935536 -0.009317315 -0.04857713 -0.01907343
0002c0 77 c2 94 bd c0 55 aa 3c 00 5e 9c 3d 0b df cb bd
       -0.07263654 0.020792842 0.076351166 -0.099546514
0002d0 90 ee e6 3b 01 64 29 3d 2f 9e 41 3b c5 d3 a9 bc
       0.007047482 0.041355137 0.0029543748 -0.020730862
0002e0 1f 4e 2c 3d bf 40 2e 3d c4 c4 bb 3c 98 40 2a bb
       0.04206669 0.042542215 0.022920974 -0.0025978442
0002f0 1d 4d 28 bc c9 bc 1a 39 04 0a 2e bb 1f 7e 63 bc
       -0.0102722915 0.00014756912 -0.0026556263 -0.01388505
000300 25 07 6d 3d fc 89 b4 3d 32 d1 9f b8 31 f4 cd bb
       0.05786814 0.08815381 -7.6206765e-05 -0.0062852134
000310 78 a5 08 ae a1 a9 c0 34 df 1f 00 3c 8f 41 43 3c
       -3.1069786e-11 3.5886208e-07 0.007820099 0.011917486
000320 81 6c c2 bd f7 cf b6 bc 8c a3 af 3d ae bd cb 3c
       -0.09493352 -0.022315962 0.08576116 0.02487072
000330 d9 ab b5 32 b6 d8 58 bd a4 c8 5d bd 12 df be bd
       2.114932e-08 -0.052941047 -0.054146424 -0.09319891
000340 d5 2c 8c bc 2d 98 97 3c e9 24 6c 3d f8 c2 0b 3d
       -0.017111221 0.01850518 0.057652388 0.034121484
000350 ab 82 bb bd 9f fd 57 bd 9a 33 d3 ba 93 41 d3 3d
       -0.09155782 -0.052732106 -0.0016113401 0.10315242
000360 76 b4 88 3a 22 68 1e bc b1 c8 e4 3c 30 da c2 bc
       0.0010429758 -0.009668382 0.027927728 -0.02378568
000370 3f 84 71 bd 41 eb 8f 3d 0a 07 08 bd 27 ba 8d bb
       -0.05896401 0.07027293 -0.033209838 -0.0043251696
000380 9c 16 db bd 27 d1 7d 3d ac bc 97 3d e8 2d b2 3c
       -0.10697672 0.06196704 0.07409033 0.021750405
000390 13 c1 86 bd 15 d8 d8 bd dc 26 a7 bd 48 5f 94 3d
       -0.06579795 -0.105880894 -0.08161709 0.07244736
0003a0 e2 a2 15 3d 32 76 af 3d 3c 5b 2d 3d 4c 9b 14 3c
       0.03653229 0.08567466 0.042323336 0.009070229
0003b0 ff 67 e2 ad 09 8c 98 bd 17 cb b3 bd d3 22 ca bd
       -2.5739409e-11 -0.074485846 -0.08778971 -0.098699234
0003c0 38 3e e0 3c 54 7e 1b bd 17 ba 8f bb e4 b0 49 bd
       0.027373418 -0.037962273 -0.0043861973 -0.04924096
0003d0 45 79 45 bb 76 98 88 bd 74 f4 74 bd a1 be 91 3c
       -0.0030132097 -0.066697046 -0.05980344 0.017791094
0003e0 eb 01 62 bc 1b dc 60 3d f8 37 87 bc 71 f4 90 bd
       -0.013794403 0.05489741 -0.01650618 -0.070778735
0003f0 76 29 2d bb f7 22 18 bd dd 42 72 bc fd e0 ce bd
       -0.0026422418 -0.03714272 -0.014786449 -0.10101507

lstm.weight_hh_l0 f4 [200, 50]
000000 6c d4 ca 3d 79 09 04 bd e6 9c 01 bd e1 ab e7 bc
       0.099037975 -0.032235596 -0.03164377 -0.0282802
000010 1e de 98 bd 19 6b c9 3d 3d e3 43 bd 4a 7a 05 bd
       -0.074642405 0.098348804 -0.047824133 -0.032587327
000020 c2 c3 6c bc 62 8b af 3d 93 56 0e 3d 39 f4 b5 3c
       -0.014450969 0.08571507 0.034750532 0.022211181
000030 ac 29 25 bc 68 4b 23 3d 91 ef 41 3b b9 c8 a2 3d
       -0.010080736 0.039866835 0.0029592256 0.07948441
000040 86 66 c8 3b f3 10 91 3d a3 bf 84 3d 5f 5a 26 3b
       0.0061157374 0.07083311 0.06481864 0.0025383455
000050 c0 aa d0 bd 1a 6e 95 3b 80 da 96 bd 05 cf 1a 3b
       -0.10188818 0.0045602443 -0.07365894 0.0023621928
000060 30 26 5c b9 a1 7a a2 3d 62 84 8c bd 5b e7 ad bd
       -0.00020995061 0.07933546 -0.068611875 -0.08491393
000070 1c 3e 03 3d c4 c7 78 3d 67 ee bb bb d6 68 32 3c
       0.032041654 0.060737386 -0.005735207 0.010889253
000080 b3 6d a4 3d d0 e9 a6 38 6c f3 41 bc 5c 2e 4b 3d
       0.08028736 7.959048e-05 -0.011837821 0.04960476
000090 fc 6e c0 3d e8 ef 12 bb 33 7e 81 3d 2d a8 43 37
       0.093961686 -0.0022420827 0.06322899 1.1662062e-05
0000a0 17 16 a5 bb 32 42 ad b7 b2 3b d4 bd 70 6e 15 3d
       -0.0050380337 -2.0654032e-05 -0.103629485 0.036482275
0000b0 8c 86 38 bd b7 57 b2 bd f5 41 59 ba 2f 3c de bc
       -0.04505019 -0.087081365 -0.00082877214 -0.027128307
0000c0 09 84 6b bd 94 2c a8 bb fd af 0a b9 f6 80 6e 3c
       -0.057498965 -0.0051322673 -0.00013226266 0.014557114
0000d0 29 b9 4b 3a d6 04 30 ba 68 06 c3 3b b1 64 71 bd
       0.00077714265 -0.0006714588 0.0059516914 -0.058933917
0000e0 d2 c7 b0 3d 5f ca 1a 3d 82 5c 69 3d bd c8 bd bd
       0.08631863 0.037790652 0.056972988 -0.092668034
0000f0 59 a2 82 3d cf 7b 2e 3b c3 f9 d2 bd 27 2d ce 3d
       0.063786216 0.0026624089 -0.103015445 0.10067206
000100 7c a6 47 2e 2f d7 70 3b 74 6f ab 3d 2c 31 70 3d
       4.539523e-11 0.0036749353 0.08370867 0.058640644
000110 a4 23 bd 3d 27 92 c9 bd eb 53 d9 3d 85 28 05 3c
       0.092353135 -0.098423295 0.10611709 0.008127336
000120 3d 22 b1 2d ab aa 9f bd 72 f1 34 bd f3 3e d4 3d
       2.0137775e-11 -0.07796224 -0.044175573 0.10363569
000130 b0 c1 93 3d bd e9 9d 3d 58 8e 57 b7 a1 83 3f bd
       0.07214677 0.07710598 -1.2848141e-05 -0.04675639
000140 99 bb ea 3b f9 b2 13 bd 16 93 73 bd 14 4a 89 3c
       0.0071634767 -0.036059354 -0.059466444 0.016758956
000150 31 48 9f 3d 91 6b 9a bd 0c 81 bb bd 81 c5 3b 3a
       0.07777441 -0.07540048 -0.09155473 0.0007162914
000160 3e 0c a6 bc b7 4a 33 bd f3 94 98 bb c3 87 91 34
       -0.02026951 -0.043772426 -0.004656428 2.7107134e-07
000170 36 1e 3e bc 35 eb 92 3d 59 ed 3d 3d dc 39 81 3c
       -0.011603883 0.071737684 0.04636893 0.01577466
000180 5e 16 87 bc 9f 49 dd b7 4a 1c 72 3d 06 8f 33 37
       -0.016490158 -2.6379535e-05 0.05910901 1.0702532e-05
000190 41 82 d2 bd b3 cc 58 38 fb 39 2d 3d df 45 1a bc
       -0.1027875 5.1689054e-05 0.042291623 -0.009416073
0001a0 3b 38 59 bb 51 3b 40 ba 25 4d 5f 3d 76 fd aa 3d
       -0.0033145088 -0.00073330576 0.05451693 0.08349125
0001b0 b9 65 9f bd 25 fe 77 3d 87 61 e0 3c 7d c9 a3 3c
       -0.07783074 0.060545105 0.027390255 0.019993538
0001c0 3f 95 45 bd f7 26 47 bd 5c 90 da 3d 40 45 19 3c
       -0.048238035 -0.048621144 0.106720656 0.009354889
0001d0 80 08 ca bb d4 08 93 bb bd f3 7d 3d 1a 12 0e bc
       -0.006165564 -0.0044871364 0.062000025 -0.008671308
0001e0 c4 af 80 3d 47 23 49 bc 49 9d f3 3b bb f7 25 3c
       0.06283525 -0.012276477 0.0074345213 0.010129864
0001f0 e8 04 27 bd 10 77 01 30 5c e0 8b 3b 73 4b d6 bd
       -0.040776163 4.7099125e-10 0.004268689 -0.104636095
000200 04 e6 84 bb b3 1c 5d 38 71 65 aa 3d 26 cf c6 3b
       -0.0040557403 5.2717234e-05 0.0832013 0.0060671745
000210 33 dc b1 bd 7f 79 5a bc db bc d9 3d ee 84 16 ba
       -0.08684578 -0.013334631 0.106317244 -0.0005741854
000220 0f d4 96 3d 81 68 83 39 a6 7e 76 3d 5f 97 f5 bc
       0.07364666 0.0002506413 0.060179375 -0.029979406
000230 e9 8b d7 3d c4 96 a9 3b de b6 98 bb f0 ea 9a 3d
       0.105247326 0.0051754434 -0.0046604713 0.07564342
000240 54 aa 1c 3d ba 70 7f bd dd de e7 b4 a0 37 8c 3d
       0.038248375 -0.062363364 -4.3189257e-07 0.06846547
000250 65 1f 0e 3c a7 df 82 bc 28 a6 73 bd 94 97 87 bd
       0.008674477 -0.015975786 -0.05948463 -0.06620708
000260 4e e2 3e 3d 84 da 06 3d cb 21 bc bd 2b 47 9a bb
       0.04660254 0.032923236 -0.09186133 -0.004708191
000270 4c 9b 14 3c 85 be bb bd 49 38 b5 3d 6c ef 16 b9
       0.009070229 -0.09167198 0.08848626 -0.00014394306
000280 aa fa dc bc a5 eb 52 39 9a fb ae 3c d3 0b c9 3b
       -0.026974995 0.00020114945 0.021360207 0.0061354428
000290 db d5 cd 3d 3d c5 42 3d 58 6f 82 b8 17 c6 14 3b
       0.10050555 0.047551382 -6.2196224e-05 0.0022701079
0002a0 95 24 03 3c 88 06 d3 bc 46 d3 b3 bd 2c d2 13 b9
       0.008004327 -0.02575995 -0.087805316 -0.00014097308
0002b0 43 df c2 bc d5 c7 cc bd d3 54 aa 3c 28 eb ea bc
       -0.0237881 -0.099990524 0.0207924 -0.028676584
0002c0 34 6c d0 3d 03 58 ab 3c e7 83 f1 3c c9 7e 57 3c
       0.10176888 0.02091599 0.029481841 0.0131527865
0002d0 da 32 cc 3c e8 a0 6d 3d b1 40 91 3d 00 b6 14 34
       0.024926592 0.05801478 0.07092417 1.3849785e-07
0002e0 2a 11 49 bc ac e2 32 3c 5e 2a 06 bd eb af 20 33
       -0.012272159 0.010918301 -0.03275525 3.74129e-08
0002f0 fe 6f 58 3c 0b d7 03 3d f2 3b d3 bd 9c 56 c9 3c
       0.013210295 0.032187503 -0.10314168 0.024577431
000300 16 4d c9 bc 1d be 88 bd 70 86 f1 bc 4f 0f 03 ae
       -0.02457289 -0.06676886 -0.02948305 -2.9799548e-11
000310 3f 4e 1c 3d 1a 69 bd bd 2a 18 34 3c 03 5b c0 3d
       0.03816056 -0.09248562 0.010992089 0.09392359
000320 a9 e2 43 bd a4 ac fb 3b 1a 9c d8 bc 63 cc 08 3c
       -0.04782358 0.0076804925 -0.026441623 0.008349511
000330 f7 0c f9 3c ae 1e 60 bd e1 ba fc 3b 5d 42 d9 3d
       0.03040169 -0.05471676 0.0077127074 0.10608361
000340 7f 2f ab b2 5a 47 8a bd c3 19 f9 2d b0 2a c4 3b
       -1.9928619e-08 -0.067518905 2.8319463e-11 0.005986534
000350 e3 f6 75 3c 67 45 04 b5 c3 93 b2 bb c0 de 1e bd
       0.015012476 -4.9274826e-07 -0.0054497435 -0.03878665
000360 30 ed 70 3d 6e d8 43 bd 57 37 9a bc eb 96 7a 3d
       0.05881995 -0.047813825 -0.018825216 0.061179083
000370 d6 2c 10 bd 33 44 19 ba 1c 2c d5 bc dd 33 bc bd
       -0.03519901 -0.00058466493 -0.02602201 -0.0918958
000380 76 af 16 3d 49 5b 02 bd 1a a3 0b bd 10 a8 c3 bb
       0.036788426 -0.031825338 -0.034091093 -0.0059709623
000390 30 37 38 3c 66 d5 b9 3d 3b ac bb 3d 72 ae 50 2c
       0.0112436265 0.09073906 0.0916371 2.9655414e-12
0003a0 0b 0c b4 bd 4c 45 9d 35 c6 49 8a 2f b3 52 b0 3d
       -0.087913595 1.171758e-06 2.5154473e-10 0.086095236
0003b0 ac e0 9d bb c0 5a cb bd 38 06 b1 3c 4e ad c0 bb
       -0.0048180427 -0.099294186 0.02160941 -0.0058800345
0003c0 2d aa a2 3c e3 d7 68 3c 57 29 aa 3c 95 62 3d 3d
       0.019856537 0.014211628 0.020771665 0.046236593
0003d0 99 d0 87 bd 80 d1 a7 bd e0 65 ca 3d 8f 10 c4 3d
       -0.06631584 -0.08194256 0.09882712 0.09573471
0003e0 c5 17 d1 bc cf 71 d0 3d c5 12 86 3b 85 d3 24 bc
       -0.02552403 0.10177957 0.004091593 -0.010060196
0003f0 1f 0a 37 bd c2 e2 31 bd cd 61 a4 3d bb 5e 5f bd
       -0.044687387 -0.043429144 0.080264665 -0.0545337

lstm.bias_ih_l0 f4 [200]
000000 83 85 55 3d 60 54 0b 3d 90 d9 bb bc e8 d1 fa ae
       0.05212928 0.034016013 -0.02293089 -1.14059706e-10
000010 02 4e d1 ba 7a de db ad 0a fc da bd bf 7a b0 3d
       -0.0015968683 -2.4996217e-11 -0.10692604 0.08617162
000020 67 ad a4 bc 77 aa e7 bd ab 61 39 2f 57 34 74 3c
       -0.020102216 -0.113118105 1.686035e-10 0.014905057
000030 ea c6 09 3d e7 dd 31 bd 0a b3 60 b5 aa 29 bd bd
       0.033636965 -0.043424513 -8.370704e-07 -0.092364624
000040 e6 ab 96 bd 3e bf 78 bd f7 d5 66 bd c7 e4 6a 3d
       -0.07357006 -0.060729258 -0.056356397 0.057347085
000050 37 a6 c0 bd ac 48 a0 bb d6 b5 e5 bc 21 55 77 3d
       -0.09406703 -0.0048914757 -0.028040808 0.06038392
000060 95 e9 06 35 11 d4 3b bd 06 1c a7 3d ff e9 97 bd
       5.0258797e-07 -0.04585654 0.08159642 -0.07417678
000070 8a 92 c0 bc a6 9d c3 bd 7a 18 cd b6 83 29 4b 3c
       -0.023507375 -0.095515534 -6.1123255e-06 0.012400034
000080 05 a2 b8 3d 22 8d 8e bd c2 c8 7c bd b9 61 dc 3d
       0.09015278 -0.06960513 -0.061714895 0.107608266
000090 82 39 2b 3b 19 42 81 bd bb 20 f7 3c 03 15 d2 3d
       0.0026126807 -0.06311435 0.030166974 0.10257914
0000a0 92 ce 75 b1 30 16 0a bd a9 3a 33 bd 3a 6a ad bc
       -3.5769614e-09 -0.033712566 -0.043757115 -0.021168817
0000b0 cc ae 25 3d e8 fb c4 bd 93 cd c2 3d f0 6d 9a bd
       0.040449902 -0.0961836 0.095118664 -0.075405
0000c0 66 90 43 3c f6 15 db 3d 1a 54 01 bd b4 66 7d bd
       0.011936283 0.10697548 -0.031574346 -0.061865523
0000d0 69 61 2a bd ec ae ea bc 9d 0b 5f bd fa 64 d8 bd
       -0.041596804 -0.028647862 -0.054454435 -0.10566135
0000e0 2c 83 7f bd 37 65 a1 bc fc 84 b6 3d 6c b0 c7 bb
       -0.062380955 -0.019701583 0.089120835 -0.006094029
0000f0 92 ae 92 39 7b 8c 80 bc 86 19 c7 3a 96 1e 20 3d
       0.00027977355 -0.015691986 0.0015190102 0.03909167
000100 2a 45 26 3b 6a e7 8a bb 24 80 5d 37 48 7e cc 3d
       0.0025370815 -0.0042390125 1.3202462e-05 0.09985024
000110 c9 04 7c bd 2c 29 d7 3d fb bb c8 bb a3 2e 8b 3d
       -0.061528 0.105059 -0.0061259246 0.067960046
000120 0d 7e 9c 3d 2a dd 6c b1 34 9d 31 2f e5 9a 85 3d
       0.0764123 -3.4468237e-09 1.6153906e-10 0.065236844
000130 1f aa 3e bb 82 53 3a 3c 12 3f d0 3d d2 74 87 bb
       -0.00290931 0.011372449 0.1016828 -0.004133799
000140 08 ef a5 bc b0 c6 9c 3d bf a0 bf 3d 01 dc d0 3d
       -0.02025558 0.07655084 0.09356832 0.101982124
000150 79 76 cc bd dd cb 77 3d 20 2b 1c 3d b2 68 6c bd
       -0.09983534 0.060497154 0.038127065 -0.057717033
000160 3f ca 74 3d ff 8f 34 bd d0 1e 30 3d ed 91 86 37
       0.05976319 -0.044082638 0.042998135 1.6041997e-05
000170 52 ea 81 3c 2b 71 5f bd 2e 4b 78 bb 60 29 38 bd
       0.015858803 -0.054551285 -0.0037886607 -0.044961333
000180 6c 63 38 3d ce 1d a2 bd 68 8b f8 35 66 6d c8 3c
       0.04501669 -0.07915841 1.8518012e-06 0.024466228
000190 f2 c1 97 af 67 ce 68 bc 59 6c da 3b cb 82 ab 36
       -2.7604546e-10 -0.014209366 0.006665748 5.1114234e-06
0001a0 09 5d 3c bd 5e ef 33 bc 58 7a b4 bc ba 1f 43 bd
       -0.045987163 -0.010982363 -0.022030994 -0.04763768
0001b0 fb 65 02 30 ef 1e 7b bc 10 15 44 bd f8 96 a6 bd
       4.743865e-10 -0.015327199 -0.04787165 -0.08134264
0001c0 72 34 74 bd 7e 1c bc bb e0 a7 a3 3d 50 ee 9c b9
       -0.05962033 -0.005740701 0.07991004 -0.00029932195
0001d0 4a 7e 34 bd 3a 25 99 bd 15 d8 15 3b 9e f5 b1 3d
       -0.04406575 -0.074778035 0.002286439 0.08689426
0001e0 ca 67 c0 bd fd 8a 9b 3d 87 27 be 3d e0 de d4 3b
       -0.09394796 0.07594869 0.09284883 0.0064962953
0001f0 a0 c7 1f 3d 8f 8b 61 3c bd a0 ff bd f3 5a d5 bc
       0.039008737 0.0137661835 -0.1248183 -0.026044345
000200 01 9c ec bb a4 33 55 bd d9 f8 c2 30 ee 66 a9 3b
       -0.0072207456 -0.0520512 1.4186085e-09 0.005169741
000210 a2 61 17 3c a9 32 39 3d de 51 51 bd 85 5d af 3d
       0.009239586 0.04521433 -0.051103465 0.08562759
000220 88 76 dd bc dd 38 a4 3d 06 16 c2 3d cb 81 a8 bd
       -0.02703406 0.08018658 0.09476857 -0.08227881
000230 6c ad d0 bd 08 5b 93 3d f8 c2 98 3d 39 a6 1b b9
       -0.101893276 0.07195097 0.07459062 -0.00014843875
000240 6c ae 9f 3b 28 de 96 3a cf 1f 71 bc a1 9d 2e 3d
       0.0048730876 0.00115103 -0.014717056 0.042630795
000250 6d 4f 97 3c 94 7f d2 bd db 82 3b bc 88 de 53 bd
       0.01847049 -0.1027824 -0.011444773 -0.051725894
000260 79 18 f5 3c 97 21 dc bd 31 8a b4 bd 9d cf ba bd
       0.029918896 -0.10748594 -0.088154204 -0.0912163
000270 8a 44 66 bd f8 8f 9b bd db d0 2b bd 85 23 46 bd
       -0.056217708 -0.07595819 -0.041947227 -0.048373718
000280 30 14 6f 3d e0 a5 b9 3d 65 f5 c8 3c 10 26 ca bc
       0.05836886 0.09064841 0.024531076 -0.024676353
000290 0b d4 de 3c 74 54 b4 bd 5b 78 20 bd 50 c1 a5 bb
       0.02720072 -0.08805171 -0.03917728 -0.005058445
0002a0 50 07 ca bd a7 d0 ca 3d ac ff 75 3d cb 98 0c 3d
       -0.09864676 0.099030785 0.06005828 0.034325402
0002b0 bc 33 10 3d 4b 07 d8 3d d8 2e c2 bc 60 b5 04 3c
       0.035205588 0.10548266 -0.023703977 0.008099884
0002c0 e9 30 96 bc 84 fd 12 bb 50 35 e4 bd 9b 16 56 3d
       -0.018333869 -0.002242894 -0.11142981 0.052267652
0002d0 57 3a 8d bd ab e2 03 bd f2 a5 bd 3d 5a f9 4f bd
       -0.06895893 -0.03219859 0.09260167 -0.05077491
0002e0 0c ae 0b 3a f8 21 c5 bd 2c 92 4c bd 17 84 d0 3d
       0.0005328364 -0.0962562 -0.049944088 0.10181444
0002f0 6a f9 34 3d a8 98 66 31 75 9a 1f bd 21 27 99 3d
       0.044183172 3.355618e-09 -0.03896566 0.07478166
000300 52 d2 cb 3d c1 8d 8d 3b a8 10 70 bd ec 76 63 b1
       0.09952225 0.004319877 -0.058609635 -3.3100447e-09
000310 81 71 19 3d 6c 86 58 3c 66 09 c0 3d c8 4a 00 3e
       0.03746176 0.013215642 0.093767926 0.12528527

lstm.bias_hh_l0 f4 [200]
000000 a9 ea 23 3d f7 41 86 bd 94 6b fe 33 e5 bd 79 3b
       0.04001871 -0.065555505 1.1847365e-07 0.003810757
000010 6a 89 93 bc 80 8e 65 3c e8 8e 74 3d 82 53 36 bd
       -0.01800986 0.014011025 0.0597066 -0.044513233
000020 c5 34 70 bc 6b 7d cc bd 96 c6 c3 3a b6 05 58 3d
       -0.014661019 -0.09984859 0.0014936503 0.05273982
000030 72 58 c1 3d 45 4a 2b 3a 6e b6 73 3d 6a 9e f9 bd
       0.09440698 0.00065341993 0.05950015 -0.12188418
000040 42 a0 5d ae 51 42 62 bb ef 1f 0b bd 83 68 c8 3d
       -5.039192e-11 -0.003452439 -0.033966 0.09785559
000050 7d cd 64 3d 4f 26 ad bd 22 62 c2 bd fd 62 0f bd
       0.05586003 -0.084545724 -0.094913736 -0.035006512
000060 1e 4f 99 3c a9 95 12 3d 88 f9 29 3d 70 15 9c 3d
       0.018714484 0.03578726 0.041497737 0.076212764
000070 b8 7d 6d bd 03 9d 60 37 5a 35 03 bd b0 54 18 bd
       -0.057981223 1.3387998e-05 -0.032033302 -0.03719014
000080 c4 d3 d7 2d 27 50 bf b7 3c 98 a6 bd 94 a7 ff 2d
       2.4536713e-11 -2.2806298e-05 -0.08134505 2.9064563e-11
000090 c1 0a 16 3d 35 2d bf 3d 75 b1 31 bc 8c db 80 3d
       0.03663135 0.093347944 -0.010845532 0.06291875
0000a0 82 4a cd bb 0e 87 91 bd 19 1d b6 3d d8 91 f3 bb
       -0.0062649855 -0.07105838 0.08892269 -0.0074331574
0000b0 b2 3b e7 bb 34 cc c9 bc 50 73 c0 3d 7c 7d 54 bd
       -0.007056677 -0.024633504 0.09396994 -0.051877484
0000c0 42 95 29 bc b3 04 9c b4 10 b0 75 bd d4 2b cc 3c
       -0.010350527 -2.9060683e-07 -0.05998236 0.024923243
0000d0 cb e9 b1 3d 37 45 af 3c d0 3a 00 bc 3c ba 6e bb
       0.086871706 0.021395309 -0.007826522 -0.0036426922
0000e0 69 87 fb bd d7 65 a0 bd 5e 7c 38 bc de bd 46 3d
       -0.12281687 -0.078319244 -0.01126012 0.048520915
0000f0 70 a7 c8 3d 26 f8 20 33 ff 5d 6e b8 f8 8d 89 3d
       0.09797561 3.7478593e-08 -5.6831163e-05 0.067165315
000100 85 f9 a5 bb 5f 04 85 bd 18 9a 44 3d 45 5e f8 bc
       -0.0050651454 -0.06494974 0.047998518 -0.030318389
000110 4a ef 8a bd f6 08 6d 2d 73 9b 7b bd 6a 06 9e bd
       -0.06783922 1.347388e-11 -0.061427545 -0.07716067
000120 79 53 3c bd f2 7d a1 b7 dc d7 92 3c 0c 6f e5 bc
       -0.045978043 -1.9251343e-05 0.017925195 -0.028007053
000130 0d ee d0 bd 34 35 9a bc 4c a7 c8 3d dd ec e2 bb
       -0.102016546 -0.018824197 0.09797534 -0.006925209
000140 0a f8 8f bd 6b 24 bc bc 26 3f c0 3d dc f2 dd 3a
       -0.070297316 -0.022966584 0.093870446 0.001693334
000150 6a f2 66 ba f4 61 d6 3d ab bb e4 38 f9 cc b0 3a
       -0.0008809926 0.10467902 0.00010906843 0.0013488821
000160 10 73 d8 3d 63 16 dc b8 72 fc 2b bb 62 be a3 3d
       0.105688214 -0.00010494587 -0.0026242998 0.07995297
000170 d8 95 83 3c 33 f2 87 bd 62 85 6d 3d 05 7d ea bc
       0.016062662 -0.06637993 0.057988532 -0.028624067
000180 00 89 b2 bd 4b 7b bb 3d cc 77 92 bd 46 6b f1 bc
       -0.08717537 0.09154376 -0.07151756 -0.029470097
000190 cf 69 dd ba ba 37 04 2c a4 af 80 b9 7c e7 93 3d
       -0.0016892495 1.8789263e-12 -0.00024544925 0.072218865
0001a0 ae 14 95 3d 87 28 bd bd 82 f6 d3 bd 85 78 d6 bd
       0.07279335 -0.092362456 -0.10349752 -0.10472206
0001b0 6d d3 ac 3d df d0 c0 b9 bb aa 1d bd 24 7b 78 bd
       0.08438764 -0.00036776715 -0.0384929 -0.06066431
0001c0 fa 82 1a 3a c6 c8 4d 3c 53 bd 48 3d ab b9 a5 3d
       0.0005894151 0.012560075 0.04900868 0.08092054
0001d0 9e fa bc 3d b5 5c 7c bd 24 60 b1 33 38 22 6b bd
       0.09227489 -0.06161185 8.259693e-08 -0.05740568
0001e0 67 86 ae bc 28 78 53 2e c5 90 41 3d b0 f1 04 bd
       -0.021304322 4.8082566e-11 0.047257204 -0.032457054
0001f0 29 3b 43 bd 79 86 28 bc 13 d1 62 3d eb d1 bc 2f
       -0.04766384 -0.010285967 0.05537517 3.4346156e-10
000200 ab 66 95 3d c9 1b c0 bd 40 2f b1 3c e6 a8 97 3d
       0.07294973 -0.093802996 0.021628976 0.07405262
000210 74 ad 97 3d 99 9a b7 bd 34 ce 7c bd 9e 37 2e ae
       0.074061304 -0.08965034 -0.061720088 -3.9612418e-11
000220 d9 f9 05 ac fc dc 54 3d bc 1e a8 3d 80 79 01 35
       -1.903913e-12 0.05196856 0.08208987 4.823305e-07
000230 94 d0 5b bc af 05 39 3d 57 1b 72 bd 4c d4 08 bd
       -0.013416428 0.045171436 -0.059108105 -0.033405587
000240 22 fe d3 39 ac 84 0d bb 52 b6 59 3d 85 39 88 bb
       0.000404344 -0.0021593971 0.05315239 -0.0041572475
000250 37 36 12 39 aa 13 4a 3c 0c b2 86 b7 d7 ea 87 bc
       0.00013943842 0.01233379 -1.6056954e-05 -0.016591473
000260 97 ce 63 3d d7 a7 3f 3d 3e ed b3 ba 5d 9d 6d bd
       0.05561694 0.046790924 -0.001372732 -0.0580114
000270 5b 89 5d bd c2 35 85 3d f5 24 81 3d b2 50 8c bc
       -0.05408607 0.06504394 0.06305877 -0.017128322
000280 2d d6 39 3d f2 77 9e b9 25 74 a4 34 4c 63 10 bd
       0.04537027 -0.00030225475 3.0631887e-07 -0.035250947
000290 9a da 1f af 70 fe a3 bb b1 bc 13 3c 10 9f ce bd
       -1.4538629e-10 -0.0050046965 0.0090171555 -0.100889325
0002a0 ba be c1 34 62 99 9e bd 04 61 c8 bd 40 23 da bd
       3.6087823e-07 -0.07744099 -0.09784129 -0.10651255
0002b0 1d 14 e6 ba 2a fd 59 3b 44 36 fe 38 da a0 fb 3b
       -0.0017553602 0.003326247 0.000121217716 0.007679087
0002c0 9c 5a f5 bc 79 ec 79 bd b3 00 f8 bc 2e c0 95 bd
       -0.029950432 -0.061016534 -0.03027377 -0.07312046
0002d0 c7 29 e7 b9 cb 7d a6 3b b1 03 61 3a e6 71 c2 bd
       -0.0004409088 0.0050809137 0.0008583619 -0.09494381
0002e0 c5 34 ce 3d a9 1c b5 3d f2 6d 04 bd 8f 1d be bd
       0.10068659 0.08843357 -0.032331415 -0.092829816
0002f0 d1 8e 8f 3a 7b 03 d3 3b dd b4 2c bc b8 87 0a bd
       0.0010952597 0.006439624 -0.010541168 -0.033820838
000300 6b f1 0b 36 81 01 5c bd 7f 6f 2d bd 45 5a 86 3c
       2.0853138e-06 -0.05371237 -0.04234266 0.016400466
000310 0c 97 6c 39 a7 24 da 3c da a6 b0 3d 2e 5d 0c 3c
       0.00022562983 0.026628805 0.086255744 0.008567138

lstm.weight_ih_l0_reverse f4 [200, 33]
000000 a4 2b 9a 3c 7e 6c 8b 3d 00 ac 65 bd 22 12 7c 3d
       0.018819638 0.068078026 -0.056072235 0.06154073
000010 d0 6d 83 3d 55 e5 c3 bc 64 81 9e 3d 39 09 0a bd
       0.064174294 -0.023913065 0.07739523 -0.0337002
000020 bb 13 14 bd e9 4a 8c 3d 14 ef 0c 3d b1 db 00 b5
       -0.03615163 0.068502255 0.03440769 -4.800341e-07
000030 56 db a0 bd 0a e1 46 3d 6d 46 08 3c c5 8f 55 bd
       -0.07854335 0.048554458 0.008317572 -0.052139062
000040 50 38 6c 31 61 d4 8d 3d bd b9 ed 3c 47 bf 0a bd
       3.437453e-09 0.06925274 0.029019231 -0.033873823
000050 1c 47 12 ae 0f 28 a7 bc 01 aa 78 3d 07 d7 0f 3d
       -3.3259714e-11 -0.020404844 0.060709003 0.035117175
000060 61 5b 9a ba de d4 98 b9 2f 7e 8f bd 06 6c c6 bb
       -0.0011776501 -0.00029150298 -0.070064895 -0.006055358
000070 fd 19 1b 3d da e5 d0 bd c6 ae 05 3a 09 ba ce 3d
       0.03786658 -0.10200091 0.00050995906 0.10094077
000080 c1 51 f6 3c 6b f2 8c 3d 6e 1a 21 bd be 22 5b bb
       0.03006828 0.06882175 -0.039331846 -0.0033437456
000090 2e 11 b8 bd c7 58 78 bd 4c 01 0c 3d a5 e4 3c 3d
       -0.08987652 -0.06063154 0.034180924 0.04611649
0000a0 aa b6 51 3d e2 ce 42 bd 80 77 55 3c df 23 43 bd
       0.051199593 -0.04756058 0.013028979 -0.04764163
0000b0 0d 5e 93 bd cc fe c4 bc 7d 94 c6 bd e8 e8 0b 3c
       -0.07195673 -0.024047278 -0.09696291 0.008539416
0000c0 2f e3 a5 3c a7 01 6f 3d ce f3 2c 3d 6e 8b 7f 3b
       0.020249931 0.058351185 0.042224698 0.0038993019
0000d0 cf f0 c6 3c 08 b1 75 3c e8 f1 cc bd ee ab 0b bd
       0.024284748 0.014995821 -0.100070775 -0.03409951
0000e0 29 6f a8 bd 07 1b 4c bd 24 c6 8e 3b 98 41 cc 3d
       -0.08224327 -0.049830463 0.0043571163 0.099734485
0000f0 f3 69 85 3d 5d 78 dd bc 3a e6 e8 3b 5d 4c 84 3d
       0.06514349 -0.027034933 0.0071075233 0.06459878
000100 9d a3 a5 3b b1 be a8 bd 93 1b cf 39 73 0e de 3c
       0.0050549046 -0.082394965 0.0003950266 0.0271065
000110 ee 5a fa 3a de e2 c3 3d 72 7b ad 3d 6c 78 40 bd
       0.0019100585 0.09564756 0.08470811 -0.046989843
000120 83 7c 98 3d 35 a5 be bd c6 64 45 bd a0 2f dc 3c
       0.07445624 -0.093088545 -0.04819181 0.026878178
000130 38 7a 46 b0 8e ba b5 3d 8d 74 54 3d f1 07 af bb
       -7.2205664e-10 0.08873473 0.051868964 -0.005341523
000140 11 1a d0 3d 1e 7b 8c bd bc c7 57 3b 7a a1 85 3c
       0.10161222 -0.0685942 0.0032925447 0.01631235
000150 c4 88 9e 3d a2 68 d6 3d 13 b2 19 3d 99 36 03 bd
       0.0774093 0.10469176 0.03752334 -0.03203449
000160 dc db a4 3d 87 47 84 3d f1 bc 19 2f 57 8b 8c 3d
       0.08049747 0.06458955 1.3982394e-10 0.068625145
000170 9b c3 dc 3a 7e e2 a5 b7 e3 e8 77 3c 67 3e 8b 28
       0.0016842963 -1.9775001e-05 0.015131208 1.5459163e-14
000180 b1 12 46 bc 7c 42 8b 3a cd f5 d5 29 ac e2 83 bd
       -0.012089417 0.0010624672 9.50174e-14 -0.064397186
000190 05 bb 90 bd 2c b8 8e 3c a4 96 cb bc 97 e1 f2 2f
       -0.07066921 0.017421804 -0.024852104 4.4179835e-10
0001a0 6a 45 bb 3d 01 21 92 3d 56 b7 3e 3d f7 11 32 3d
       0.09144099 0.07135201 0.04656156 0.043474164
0001b0 59 1b 81 3d 3d 92 7e bd 2e c4 c8 3d a7 06 92 bd
       0.06304044 -0.062151182 0.09803043 -0.07130175
0001c0 c0 ef 71 bd 6e 88 e0 bc a2 1c d6 3d b4 06 41 3d
       -0.059066534 -0.027408805 0.1045468 0.047125533
0001d0 16 55 43 3c 30 0b 4c 3d 19 c1 cf bd 80 63 cf bd
       0.011922142 0.049815357 -0.10144252 -0.101264
0001e0 2f d5 7c 3c d0 3e 37 bc 11 cd 14 3d d3 3f 8a bd
       0.015431686 -0.011184409 0.03632838 -0.06750455
0001f0 e0 65 cd 3d bc 38 b8 bd a2 9e 25 3d d6 f8 2e 3d
       0.10029197 -0.08995196 0.040434487 0.042717777
000200 c1 21 34 bd e2 6e bb 3d e4 d4 2b 3d ab 04 09 bd
       -0.043977503 0.091520086 0.041951075 -0.033451717
000210 99 cd 06 bd 90 e5 99 3d e8 8a 09 bc 46 83 02 b5
       -0.032910917 0.07514489 -0.008394934 -4.86198e-07
000220 ab fb 09 3d 22 60 0e 3d 36 c7 20 bd a1 5d 96 3d
       0.033687275 0.03475965 -0.039252482 0.07342077
000230 68 41 6d 3c ed 53 88 3c e1 58 0d bd 54 f3 05 3d
       0.014480926 0.016641581 -0.03450859 0.03270276
000240 af b1 e0 b9 a3 15 8a 3d d4 4d 27 3d 03 17 8e 3d
       -0.00042856994 0.06742408 0.040845707 0.06937983
000250 b9 2a 41 ba 72 02 73 3d b2 07 9b 3d fc 17 c8 3b
       -0.0007368732 0.059328504 0.07569827 0.006106375
000260 ee 3d 02 35 db fc 74 bd 33 24 29 bd f8 f6 49 3d
       4.8518893e-07 -0.059811454 -0.041294288 0.049307793
000270 21 70 5e bd e4 ed 1b bd 0e d3 25 3d df d6 24 bd
       -0.054306153 -0.038068667 0.04048448 -0.04024398
000280 a1 36 9c bd db 1d c9 3b 83 8b f7 3c 01 eb c1 bd
       -0.07627607 0.0061375923 0.030217892 -0.094686516
000290 a0 17 07 3a fd 60 e2 bd f3 13 6e 3d d5 e0 88 3d
       0.00051533617 -0.11053655 0.058124494 0.06683508
0002a0 7d 30 32 3d 47 fb 0a 3e 2a 53 ed bc ac 45 6c bd
       0.043503273 0.13572417 -0.02897032 -0.05768363
0002b0 da 60 69 3c 45 89 90 3c 95 23 0a bd e0 39 ae bd
       0.014244283 0.01764358 -0.03372534 -0.085071325
0002c0 84 6f 24 bd 25 24 fa 3c af 74 6e 3d 4c 19 6a bd
       -0.040145412 0.030534813 0.058216747 -0.05715303
0002d0 75 82 f1 3d 8b dc 93 bd f1 30 af b9 55 b2 07 3c
       0.11792461 -0.072197996 -0.00033415065 0.008282264
0002e0 48 d7 93 bd 32 ed c4 3d 59 9d 1a bd 5a 93 57 3d
       -0.07218796 0.09615554 -0.037747715 0.05263076
0002f0 54 b5 2b 37 e2 ae 45 bd 1d 12 ca 3d 4b 79 fc ba
       1.0234613e-05 -0.048262484 0.09866736 -0.0019262222
000300 56 8a 75 3b f8 79 cd 3d 73 64 cb bd ca f9 a6 3d
       0.0037466488 0.10033029 -0.099312685 0.08153112
000310 8b 76 21 bd a0 ff a6 bd 06 0f 3f 3d 2b 51 72 bc
       -0.039419692 -0.08154225 0.046645187 -0.01478986
000320 96 2c a3 bd 58 1e 1b bd ac 0b 71 3d 8f 88 fe 3c
       -0.079674885 -0.037870735 0.05884902 0.031070976
000330 60 f8 6a 32 be bc 27 3d 9e 1f 89 3b 9c 3a 95 bd
       1.3677067e-08 0.040951483 0.0041846773 -0.072865695
000340 80 39 72 3b 01 e8 8a 3d f8 df 3c b8 f7 46 7f b9
       0.0036960542 0.067825325 -4.503128e-05 -0.00024345132
000350 db 6d d7 3d 53 6a 4d bc fe 38 c9 3d a7 21 b9 3d
       0.10519 -0.012537557 0.098253235 0.09039622
000360 24 1a a6 3d b2 c7 29 3c 19 1b 39 3c e4 8f 1b 3c
       0.08110455 0.0103625525 0.0112979645 0.009494755
000370 cb cd c4 bd 74 0d d2 bc a6 20 41 bd 65 d6 95 ba
       -0.096095644 -0.02564118 -0.047150277 -0.0011431692
000380 8b 78 20 bd 3b 69 88 bc d3 27 82 bd 7b 26 8f bd
       -0.03917746 -0.01665174 -0.06355252 -0.069897614
000390 07 8c 89 3c 7c c2 d5 3d 3e 4c dc bc 00 19 79 bd
       0.016790403 0.104374856 -0.026891824 -0.060814857
0003a0 d9 25 96 bc cc 8a bf bc d4 1d d5 bd 09 e8 b9 3d
       -0.018328594 -0.023381613 -0.1040608 0.0907746
0003b0 4e b2 81 3d fb 32 93 3d 12 7f 29 bd 70 51 79 bd
       0.06332837 0.07187458 -0.04138095 -0.06086868
0003c0 a6 be d0 3d 37 fe 59 bd 40 17 af bd 8d 0b ad bd
       0.10192613 -0.053220954 -0.085493565 -0.08449469
0003d0 3a 54 6f 3c 3e d1 2e ba bd d9 5c bd 65 4d b2 3d
       0.0146074835 -0.0006668753 -0.05391859 0.08706168
0003e0 c0 0e 3e bd e6 e2 05 b5 51 7d 1f 3d 71 c9 14 3d
       -0.046400785 -4.987654e-07 0.03893787 0.036324922
0003f0 7f 31 ae 3d aa 92 dd b9 03 c9 28 3d 51 43 b9 b6
       0.085055344 -0.00042261678 0.041207325 -5.5212663e-06

lstm.weight_hh_l0_reverse f4 [200, 50]
000000 e3 94 73 bc 37 96 e4 bb b3 19 aa bd e1 64 97 bd
       -0.01486704 -0.006975915 -0.08305683 -0.07392288
000010 11 d2 b0 3b 93 12 60 3d f4 83 1e bd 1b f5 88 bc
       0.0053961356 0.054705214 -0.03870006 -0.016718438
000020 e8 0c 9e 3c fc fe c2 3d 5d 5e de bb 13 05 d4 bd
       0.019293264 0.09521291 -0.0067861513 -0.1035253
000030 bd 66 86 3d 53 55 bb bd c5 cd 23 bd 4e 9a 83 bd
       0.065625645 -0.09147134 -0.03999116 -0.06425916
000040 b6 f3 09 3d f7 74 4a 3d 57 e2 c8 3d fe d4 af 36
       0.033679686 0.049427953 0.09808796 5.240202e-06
000050 db f9 7e bd c1 11 87 3d e5 bc 8d 3d f9 58 67 3c
       -0.06225 0.06595183 0.069207944 0.014120334
000060 ba bb 56 3c 50 01 98 bd ff 90 cd bb 4e e9 ca 3d
       0.013106281 -0.07422125 -0.0062733884 0.099077806
000070 1c 88 bb 3a c1 9d d5 bd 82 2d d1 3d 42 73 79 3d
       0.0014307532 -0.1043048 0.10213758 0.060900934
000080 96 5e 84 3d 84 fe 3a 3d d5 a1 08 3d 69 c3 c9 3d
       0.06463353 0.04565288 0.03335746 0.09851725
000090 5b 17 cd 3c 55 58 c7 bd 2f 24 25 bd 69 f4 86 3c
       0.02503555 -0.09733645 -0.04031771 0.016473966
0000a0 6b 32 b7 bd f7 20 94 bd 4c d5 97 bd 89 8e 6f bd
       -0.08945163 -0.0723285 -0.0741373 -0.05848554
0000b0 15 cb e2 3c 0c d4 7f 3d 18 ee 43 bd 5d 32 1d bd
       0.027684728 0.062458083 -0.047834486 -0.03837811
0000c0 00 3d d9 bb 05 cb a5 bc 1c 2d 36 bc 56 15 b8 b9
       -0.006629586 -0.020238409 -0.011119153 -0.0003511111
0000d0 78 b5 c9 3d 37 89 d5 bd a4 25 a4 3b b2 c0 de bc
       0.098490655 -0.10426562 0.00500937 -0.027191494
0000e0 63 b7 74 bd e2 22 30 3c 4d bb 4c 3d a0 2a bf 3d
       -0.059745204 0.010750504 0.04998331 0.09334302
0000f0 fb 3f 2d bd f4 c0 29 b6 5f 33 9e bd e6 3d 3e bd
       -0.042297345 -2.5295276e-06 -0.07724642 -0.04644575
000100 4e 39 44 38 87 25 33 3d b2 5a 8d bb d3 45 5f 3d
       4.678341e-05 0.04373696 -0.0043137902 0.05450995
000110 66 1b 1a af 9b ba 34 bc 97 8f e9 3b 55 10 a7 3d
       -1.4015952e-10 -0.011030818 0.007127713 0.08157412
000120 e3 9b df 3c 2e 53 be bc fb a0 0b bd 3a 4c ce 3d
       0.027296012 -0.023233023 -0.03408907 0.10073133
000130 ad 2b 9f 3d 8f a9 86 3d 6c e8 56 bd c7 b5 d5 bd
       0.07772002 0.065753095 -0.05246775 -0.10435062
000140 62 a3 89 bd 6e a4 ab 3c 5e 58 ce 3d 13 de fe bc
       -0.06720616 0.02095243 0.100754485 -0.031111753
000150 24 49 da bd 18 25 7a bd da 8f c1 3c 7f 16 86 3d
       -0.10658482 -0.06107053 0.023628164 0.065472595
000160 42 4c 81 bb 08 e6 af 2f cf 0a 8f bd ff 87 09 bd
       -0.003945858 3.1995762e-10 -0.069844835 -0.03357696
000170 b3 8e 7a bd 88 9b 73 3d f2 24 85 bb e2 c9 e6 bc
       -0.061171245 0.059474498 -0.004063242 -0.028172437
000180 68 00 2b b9 b6 4f 06 3d 7e db 3d bd d0 0d 82 ba
       -0.00016307982 0.032790862 -0.046351902 -0.0009922329
000190 5b b1 ef 3c 6d 17 a2 b9 29 4d 8a 3c fd 3f 7f bd
       0.029259374 -0.000309165 0.016882496 -0.062316883
0001a0 59 cc 6d 34 25 58 18 bd fd f6 c5 3d fc 3b dc bd
       2.2146686e-07 -0.037193436 0.0966625 -0.107536286
0001b0 02 12 22 bd c1 2b d1 bc 68 f6 00 3d 9a 84 03 bd
       -0.039567955 -0.025533559 0.03148499 -0.03210888
0001c0 a0 29 68 bd b3 b9 9d 34 65 bf 86 bc 7d 59 d4 3d
       -0.05668032 2.9378643e-07 -0.016448686 0.10368631
0001d0 fa 9f 5f 3d f0 a7 9e 3d 93 6c ae bd 0d a6 1c bc
       0.054595925 0.07746875 -0.08516803 -0.009561074
0001e0 87 35 9a bd 24 c0 c0 3d 18 62 53 3d c7 f0 9e bd
       -0.07529741 0.09411648 0.05160722 -0.077607684
0001f0 f6 86 92 bd 6f 2d 1d 3d ca 68 24 bd 9d f1 85 3c
       -0.07154648 0.038373407 -0.040138997 0.016350562
000200 aa de b9 bd 54 2c a3 bd 6d 46 9a bc 76 af 9e bd
       -0.09075673 -0.07967439 -0.01883241 -0.0774831
000210 80 80 5f 3d 47 73 99 bd 22 68 8d bc 64 65 d6 bd
       0.054565907 -0.074926905 -0.017261568 -0.104685575
000220 b8 11 c5 3d 60 be f6 3a 5c 73 5b bd 66 ea bf bb
       0.0962252 0.0018825047 -0.053576812 -0.0058568
000230 74 dc 66 3c 71 04 9c bc 2b 2b a3 3d 2a 13 e0 bb
       0.014090646 -0.019045087 0.07967218 -0.006838222
000240 7a 53 ca 3d c2 4e 39 3d b3 14 89 3d bb 79 13 30
       0.09879203 0.045241125 0.06693401 5.365128e-10
000250 55 d9 51 bc 32 14 f1 3c ac ee 66 3d 37 52 49 3a
       -0.012808164 0.029428575 0.05637996 0.00076797925
000260 6a 75 8b 3b 4b aa b4 3d c3 c5 37 bd 93 67 b6 bb
       0.00425594 0.08821543 -0.044866335 -0.005566546
000270 2b eb 28 36 e0 54 9a b9 50 45 49 bd d0 15 87 3c
       2.5170837e-06 -0.00029436406 -0.049138367 0.016489893
000280 8e a1 72 3b fc 1e 5a bd b8 4b 60 34 e5 c3 82 39
       0.0037022564 -0.053252205 2.0889172e-07 0.00024941485
000290 7d 4e c9 b8 44 d9 75 3c 42 8c c5 bd c7 a9 53 ba
       -9.5990465e-05 0.015005413 -0.09645893 -0.000807431
0002a0 5c 29 92 3d 02 98 cf 2f 1a 48 a2 b9 eb 38 37 bc
       0.07136795 3.776109e-10 -0.00030952768 -0.011183004
0002b0 62 0d be ba b4 ba 9c b9 1b 86 19 bd a8 8e 8b bd
       -0.0014499838 -0.00029893743 -0.03748141 -0.06814319
0002c0 95 f0 86 b7 be 2b da 3d 33 bf 96 3d a7 d1 0b b2
       -1.6086075e-05 0.106528744 0.07360687 -8.138534e-09
0002d0 82 1f f9 3c ff 6b c2 3b 9b 70 27 bd 1c bb ae 3c
       0.030410532 0.0059332843 -0.040878873 0.021329455
0002e0 28 2f 09 3d 5f 5f fb 34 14 2e 55 3d b6 59 d4 3c
       0.033492237 4.6821785e-07 0.052045897 0.025921684
0002f0 48 5e 12 bd be 60 57 3c c8 f4 08 3d 17 e0 a0 3d
       -0.035734445 0.013145624 0.033436567 0.07855242
000300 eb 5d 82 bd 6e 63 c6 bd e9 08 ce bc f7 72 64 37
       -0.0636557 -0.096869335 -0.025150733 1.3616626e-05
000310 b1 8f a0 bd 0d e9 0a bc ad 5f 90 bd d9 87 97 bd
       -0.07839907 -0.008478415 -0.07049499 -0.07398958
000320 3b c1 6d 3c 9d 0a 1a 3d 64 cc 38 3a d0 bf 85 3d
       0.014511402 0.037607778 0.00070494995 0.06530726
000330 53 dc fd bb 03 1e 11 3a 81 10 92 3d 78 ba ab 3d
       -0.007747212 0.0005535783 0.07132054 0.083851755
000340 4a 1c 4e 3c 2c f1 b2 bd c6 6f 02 3c 67 4f 8d 3d
       0.012579987 -0.08737406 0.007961219 0.068999104
000350 50 7b 9a 3c 98 46 d8 bd 58 00 8d bc a9 13 27 bd
       0.018857628 -0.1056034 -0.017212078 -0.040790234
000360 49 15 c0 bd 55 c3 ac bd 56 07 71 3d 26 d5 6d bd
       -0.0937906 -0.08435694 0.058844887 -0.058064602
000370 d8 c3 58 bd 30 57 fb bc 0b c0 13 b9 48 2f 54 3d
       -0.052921146 -0.030681223 -0.00014090554 0.051802903
000380 cb 57 d8 bd 0d 06 04 bd c1 be f5 ba b9 5b 3e 3c
       -0.1056362 -0.032232333 -0.0018748866 0.011618548
000390 54 53 3e bd 43 88 34 bc b2 ea 34 bd f4 9e cf bb
       -0.046466187 -0.011018815 -0.044169135 -0.0063360874
0003a0 cb 97 29 3d 71 52 ee bc 35 1a 36 ba 78 de 75 bd
       0.041404527 -0.029092046 -0.0006946654 -0.060026616
0003b0 a8 a5 41 3c 0e b9 6e bd 5d 83 e5 3b fb 4e db bd
       0.011819281 -0.05828195 0.007004185 -0.10708424
0003c0 1f b5 cc 3c b5 ac ad 3c a5 fd 97 bd d7 89 03 ba
       0.024988709 0.021200517 -0.07421426 -0.0005017793
0003d0 8b 38 57 bd 82 42 14 bd be 9e 0c 3d 7e 37 47 bd
       -0.052544158 -0.03619624 0.034331076 -0.048636906
0003e0 23 aa 43 3d 56 51 23 3d af f8 c0 3d 72 0d bc bc
       0.047769677 0.03987249 0.09422433 -0.02295563
0003f0 7d 59 bc bd 0e 8d 71 3d 8e 49 f0 bb 10 53 ce bc
       -0.09196756 0.05897241 -0.007332987 -0.025186092

lstm.bias_ih_l0_reverse f4 [200]
000000 14 07 ff b9 e5 6f a0 3c 1f c5 62 bd ee c3 b6 bd
       -0.00048642664 0.019584605 -0.05536377 -0.08924089
000010 49 29 da 3d 72 b6 41 3d 95 84 2f 3c b5 49 86 bd
       0.10652406 0.047293134 0.010712762 -0.06557027
000020 69 a5 c1 3d de 5f e4 b8 52 68 ed 3b 74 ba 5b bd
       0.094553776 -0.00010889744 0.007245102 -0.053644612
000030 df 42 b0 bb b2 7a df 3c fe 0e f3 bc f1 99 7d 39
       -0.0053790654 0.027280185 -0.029670235 0.00024185308
000040 2a aa 80 bd 18 eb 11 bd c3 c4 a8 bd 44 3c b2 3d
       -0.06282456 -0.035624593 -0.08240654 0.08702901
000050 30 70 59 35 2f a4 a0 3a e1 95 8f 3d 74 2f cb 3d
       8.1002054e-07 0.0012255962 0.07011009 0.0992116
000060 14 e5 e5 3d 16 77 57 3d 01 46 19 3b d0 6f c7 3c
       0.11225334 0.052603804 0.0023387673 0.024345309
000070 e1 b8 12 3d 39 95 3a 3d 90 65 98 bd 7f fa 9d bd
       0.035820846 0.045552466 -0.074412465 -0.07713794
000080 dd 24 d6 bd 04 71 82 3d 56 34 b7 3d 6e 09 90 3d
       -0.1045625 0.06369212 0.08945529 0.070330486
000090 7c 93 ac 3b c5 f1 06 b5 53 7e 0e bd 4f 0b c3 3d
       0.005266605 -5.027071e-07 -0.03478844 0.09523641
0000a0 a3 24 87 3d d5 18 f5 36 f4 5c ce bd 62 29 a9 3d
       0.06598785 7.30446e-06 -0.10076323 0.08259846
0000b0 38 53 3a bd b5 f6 a8 bc 1c 95 a1 3d 91 c7 9e bd
       -0.04548952 -0.020625452 0.078897685 -0.07752908
0000c0 0a 19 68 3d 7e d5 21 3d 55 60 13 bd 80 ca d0 bd
       0.056664504 0.039510243 -0.03598054 -0.10194874
0000d0 4b fe 38 bc e3 40 90 bd 5c cc cf bd 54 59 cb 3d
       -0.011291097 -0.07043626 -0.101464 0.09929147
0000e0 ea a5 af bc 2c a2 76 bc 4f 85 56 3d 8f c5 73 bb
       -0.021441419 -0.015053313 0.052373227 -0.0037196612
0000f0 5e 09 8b bb aa 54 a2 bd 7a ce d8 ba c7 64 b2 bd
       -0.00424306 -0.07926305 -0.0016541027 -0.08710628
000100 cf 0e 46 3d 26 71 d2 bd 70 0e 80 3c 83 bd e6 bd
       0.048353966 -0.102754876 0.015631884 -0.11266615
000110 87 08 ab 3d 74 c5 50 3d 85 fc 07 3b bb de 0f 2c
       0.08351236 0.050969556 0.0020749879 2.0445162e-12
000120 89 c5 a0 3c cd 17 c5 3d 4b 9b a5 bd 04 6b 45 3d
       0.019625442 0.0962368 -0.080862604 0.04819776
000130 3b 23 8d ba 8d 24 90 bc 6c e4 ca 3d 6a e2 5f 3c
       -0.0010767946 -0.017595554 0.09906849 0.013664821
000140 39 07 da bd 60 5d a1 bc 21 84 f7 3c 45 6d 59 bd
       -0.10645909 -0.019697845 0.030214371 -0.053082723
000150 8b 81 a0 bd b9 30 95 bd 44 a6 ed 3c f8 9f f5 bb
       -0.07837208 -0.07284684 0.029009946 -0.0074958764
000160 1f b2 82 bd bd 18 2a 3d 5e 44 09 3d 04 c2 8a 3d
       -0.0638163 0.0415275 0.033512466 0.06775287
000170 33 f0 f1 b9 86 39 71 bd 6f 8c 8a 3b be 8e e7 2b
       -0.00046146064 -0.05889275 0.004228167 1.6453156e-12
000180 8e a1 a2 3d 71 2b 12 3d 67 ac 24 bd 37 45 61 3d
       0.0794097 0.03568596 -0.04020348 0.05499765
000190 22 13 5b 3c 4a 28 95 bc bc b9 ea bb 06 55 cc bc
       0.013371261 -0.018207688 -0.0071632545 -0.024942886
0001a0 cd 9c a2 3d b7 e3 07 3d 4f 21 bb ba 05 5a cb 3d
       0.079400636 0.03317615 -0.0014276895 0.09929279
0001b0 19 0c 51 3d 46 4f 91 3d fa 82 97 b9 72 5b d0 b5
       0.051036928 0.07095198 -0.0002889855 -1.5523822e-06
0001c0 4f b6 da bd 84 00 52 bd f6 d6 53 3d 15 5b b8 ba
       -0.10679304 -0.051270023 0.051718675 -0.001406523
0001d0 5d e1 f4 3c c1 bb 8d bd 82 18 90 3d ca 75 bb 3d
       0.029892618 -0.06920577 0.070359245 0.09153326
0001e0 56 9d 61 bd a3 a7 d4 3d 1a 2d a1 3d 03 b2 8f bc
       -0.055081688 0.10383537 0.078699306 -0.017540937
0001f0 f6 37 20 3d d9 0e d3 bd 43 67 b6 b9 bd 77 73 39
       0.03911587 -0.10305566 -0.0003479068 0.00023218892
000200 08 fa c5 3d e8 81 b0 3d ee 21 90 bd 24 bd 77 34
       0.0966683 0.08618528 -0.070377216 2.3072477e-07
000210 80 50 7c bd 70 fe 57 39 7e 67 bd bd 3c 9e e0 3b
       -0.06160021 0.00020598783 -0.09248255 0.0068548005
000220 2d d9 f0 3c 9e 84 9d 3c f7 b9 05 3d 0d 98 c6 3d
       0.029400432 0.019228276 0.032648053 0.0969697
000230 d2 7b 96 3b 71 02 32 3d 36 21 c1 3c 85 2d a1 bd
       0.0045923973 0.04345936 0.023575407 -0.0787001
000240 cf d8 ad bd 33 89 2d 3c bd 84 04 bc 55 b0 31 3b
       -0.084886186 0.010591793 -0.008088288 0.0027113159
000250 1f 79 0a bc 41 26 90 3c ad 2d be bd 8e 0d 3d b9
       -0.008451729 0.017596366 -0.09286056 -0.00018029494
000260 91 6d bc bb a9 21 db 3d 67 c1 1f 3d 45 54 93 3a
       -0.005750366 0.106997795 0.039002802 0.0011240324
000270 66 fc 62 bd 00 7d 91 bd aa 32 ab bd 03 0b 34 bd
       -0.055416487 -0.0710392 -0.08359273 -0.043955814
000280 cc 03 c1 bd 44 79 8a 3d 93 18 ef 3d d6 27 0d bc
       -0.09424552 0.06761411 0.11674609 -0.008615455
000290 e8 b8 49 bb b3 31 9b 3d 32 d9 de bc cf 34 c6 3c
       -0.0030780379 0.07577839 -0.027203176 0.024195103
0002a0 9c c4 a8 bd 4a 3c bf 3d f3 a9 c0 bb 79 c3 98 3b
       -0.08240625 0.09337671 -0.0058796345 0.004661974
0002b0 42 b9 d4 bd c8 85 09 30 28 f9 41 bb 15 70 62 bd
       -0.103868976 5.0030424e-10 -0.0029597972 -0.05528267
0002c0 fe c8 d3 bd cb 8a 09 bd 78 8a a5 3d 4e 95 f4 bb
       -0.103410706 -0.03357963 0.080830514 -0.0074640876
0002d0 6e 8b d8 2d 08 bf ad 3d 2d 11 84 3d f3 f0 d7 3d
       2.4618276e-11 0.08483702 0.064485885 0.10544004
0002e0 eb d2 cb 3d e5 d8 06 b5 e7 f6 18 2b 1d 2b d3 3d
       0.09952339 -5.0234513e-07 5.4343894e-13 0.103109576
0002f0 4c 9f 1a bd bd b7 0e b0 48 8c 82 ba 76 2d f8 3b
       -0.037749574 -5.1920407e-10 -0.000996002 0.0075737787
000300 ed 70 b6 3b 2a 4a 0a bd 7e 6a ba 3c f8 43 e4 b4
       0.005567661 -0.033762135 0.022755858 -4.2517763e-07
000310 70 16 60 b7 a8 92 a8 3d 36 a5 70 3d a4 74 12 37
       -1.3356665e-05 0.082310975 0.058751307 8.729436e-06
