src/model_checkpoint.pt (torch, 870803 bytes, 33 tensors)

lstm.weight_ih_l0 f4 [200, 33]
000000 aa ac a8 3d 8e 5d bb 3d 13 08 3d bc 95 b9 d4 3d
       0.08236058 0.091487035 -0.01153757 0.103869595
000010 a4 20 21 bc 47 a4 02 3c 75 8a 34 bd d6 c8 6c 3d
       -0.009834442 0.007973737 -0.044077355 0.05780872
000020 97 1b ca 3d 19 de 9f bd de 92 c6 3d 5b 89 d4 3b
       0.098685436 -0.07806034 0.096959814 0.0064861006
000030 ba 57 a1 3d 86 b9 0c 3b b7 f2 31 3d 8c 58 26 bb
       0.07878061 0.0021472885 0.04344436 -0.0025382368
000040 09 7c aa 3d 0b f8 45 3b 19 70 29 bd ff 67 64 3c
       0.08324439 0.003020766 -0.04136667 0.01394081
000050 b2 0f 26 bd 36 e9 91 ba 2e 18 08 bd 3c e7 8b 3d
       -0.040542312 -0.0011132124 -0.033226185 0.06831214
000060 16 c2 af bd 6d 36 26 bd e0 6d 8d bc 72 ac 74 bd
       -0.08581941 -0.04057925 -0.017264307 -0.05973477
000070 eb 28 9a 39 48 88 e8 bd 8f 48 d0 3d f5 ed c0 bd
       0.00029403655 -0.113541186 0.101700895 -0.09420387
000080 5d cf aa 3d 37 f8 94 3b 65 fb b8 bc 72 17 7e 3d
       0.08340333 0.004546191 -0.022580812 0.062034078
000090 4c 4b 6f 3b 13 11 b5 3d 8c 70 48 3a 0a 3f af bc
       0.0036513386 0.08841147 0.00076461653 -0.021392364
0000a0 0f 7a 7f 3c 7c 37 82 bc c1 1e 10 3d 59 56 cd 3d
       0.015593066 -0.015895598 0.03518558 0.10026235
0000b0 ef 96 67 3d b7 11 19 bd 60 24 67 3d b6 71 ba 3b
       0.056540426 -0.03737041 0.056431174 0.005689825
0000c0 29 39 40 3d 2a 52 79 bd 12 2c e9 bd 3a b2 fa bc
       0.046929512 -0.060869373 -0.11385359 -0.030602563
0000d0 fc 61 a9 bd c6 a8 b8 3d 3f 26 93 3c e5 7c 0c 3d
       -0.08270642 0.09016566 0.017962573 0.034298796
0000e0 73 2b b0 3c 6b 4f 36 b4 19 d4 ad 3d 5d 4a 99 bd
       0.021505093 -1.6978963e-07 0.0848772 -0.07484887
0000f0 22 86 2e b7 9c 57 91 bd 75 f7 a7 3c 78 b7 cd bc
       -1.0402438e-05 -0.07096788 0.020503739 -0.025111899
000100 91 f7 a5 3c 7c fc 0d bc 77 30 bb 3d dd d6 6f bd
       0.02025965 -0.008666154 0.09140103 -0.05855452
000110 76 ec 71 bd a8 f1 71 bd bd 3b cf 3d a4 f4 c1 3c
       -0.059063397 -0.059068352 0.10118816 0.023676224
000120 8e 3c e1 3d 58 03 ba bd a1 bc e9 bd 42 c2 ad bd
       0.10997878 -0.09082669 -0.11412931 -0.08484317
000130 d9 8b 8e bd 46 7c 07 3d c1 49 dc 3c 9b a0 bb 3d
       -0.069602676 0.0330775 0.026890637 0.091614924
000140 b8 04 45 bd 5f 1b 91 bd b2 ee 4c 3d cc 07 07 bd
       -0.048100203 -0.07085299 0.050032325 -0.03296642
000150 07 dd 77 3d 6b b7 42 bc 84 34 64 3d 27 38 ac bd
       0.060513522 -0.011884551 0.055714145 -0.08409148
000160 6a 72 3e bd fa 60 a4 3c e0 60 13 3c 1c 86 64 bc
       -0.046495833 0.020065773 0.008995265 -0.01394799
000170 04 bd 71 3d 22 91 90 3d fa 75 9d bd 2b c6 4e bd
       0.05901815 0.07058932 -0.07688518 -0.050481956
000180 3c e1 d3 3d 39 5d c6 bc 7b 7d d8 bc 02 c5 e2 bd
       0.103456944 -0.024214374 -0.026427021 -0.110727325
000190 81 8e 64 bd 94 8b 5a 3c b7 aa fc ba e4 a9 9d bd
       -0.055799965 0.013338942 -0.0019276951 -0.0769842
0001a0 76 b3 05 34 ed 7e 91 bd 85 9f c0 bd 6d 30 58 bd
       1.2451878e-07 -0.07104287 -0.09405426 -0.052780557
0001b0 a7 4b c8 bd d9 5b 84 bd db f4 eb 3d 27 1a da 3b
       -0.097800545 -0.06462831 0.11521312 0.0066559496
0001c0 8e c4 a7 3c 24 c2 d8 bd 7e 08 8a bd 19 8a c1 bc
       0.020479467 -0.105839044 -0.06739901 -0.02362542
0001d0 ff 11 72 3b bd a4 c9 bd eb 9b 15 bd 55 34 73 bd
       0.0036936996 -0.098458745 -0.036525648 -0.05937608
0001e0 3b 48 40 32 13 52 eb bc 1c 0b 2e 36 c4 f2 8f bd
       1.1192294e-08 -0.02872566 2.5934487e-06 -0.07028726
0001f0 c9 6f 92 bd 18 99 6a bd f1 81 cb bc 98 bb af bd
       -0.071502276 -0.057274908 -0.024842234 -0.085807025
000200 d1 c8 bd 3d a2 f4 f9 bb 47 0e c4 3d 85 4f ab 3c
       0.09266818 -0.0076280395 0.09573036 0.020911941
000210 63 2a c0 bd e1 09 94 3d b4 2b 86 bc 80 6a f7 bc
       -0.093830846 0.07228447 -0.016378261 -0.03020215
000220 27 62 bb bd 83 64 ea bd 05 34 91 3c fc ef 1f bc
       -0.091495804 -0.11444952 0.017725 -0.009761807
000230 02 e7 fd 3c e3 b1 b8 bd b4 5f a2 3d 1a fd 9f bd
       0.030993942 -0.09018304 0.0792841 -0.07811947
000240 77 5c a7 bb 63 e9 0e 3c e0 eb 44 3d 53 e1 b4 3d
       -0.005107458 0.008722636 0.04807651 0.0883204
000250 4c 88 d2 3d a3 c5 b0 bd 96 24 5e 3c f0 32 15 bd
       0.10279903 -0.08631446 0.013558527 -0.03642553
000260 94 33 4b ba b2 19 a4 bd f1 80 d2 3d 96 f5 9f bd
       -0.0007751521 -0.080127135 0.102785 -0.07810514
000270 c0 19 4f 3d 81 36 d5 3c d0 3e b9 3c 4b 92 52 bd
       0.050561666 0.026026966 0.02261296 -0.051409047
000280 15 f5 d1 3d d2 4b 22 3c ca f1 e1 3a 76 06 ca bd
       0.10251824 0.009905772 0.0017238196 -0.098645136
000290 06 89 0f 3d 72 07 51 bb 07 9e 24 bd 13 a4 c3 3d
       0.035042785 -0.0031895307 -0.04018977 0.09552779
0002a0 d4 1a 28 3c 08 a8 59 bd fe 46 3f bd 62 0c 09 35
       0.010260303 -0.053138763 -0.046698563 5.1054496e-07
0002b0 13 83 5c 3d 60 a4 65 bc aa 60 63 bd 63 a9 cb bc
       0.05383594 -0.014016241 -0.055512108 -0.024861043
0002c0 81 b2 a3 bd 4e bf da 3c 56 62 ab 3d c1 44 db bd
       -0.07993031 0.02670255 0.083683655 -0.10706473
0002d0 84 41 39 3c 8b 1c 45 3d 89 f3 c1 3b 94 34 da bc
       0.011307124 0.048122924 0.005918924 -0.0266364
0002e0 f3 19 48 3d 25 19 4a 3d 48 48 ed 3c 97 94 b0 bb
       0.048852872 0.049340386 0.02896513 -0.005388807
0002f0 61 cc 77 bc eb ef 30 3a e4 6e b3 bb 37 50 9d bc
       -0.015124411 0.0006749618 -0.0054758657 -0.019203288
000300 bd 0e 85 3d 41 c5 c3 3d a2 de d8 b9 e9 d5 29 bc
       0.06496952 0.095591076 -0.00041364605 -0.010365942
000310 fa 61 b2 31 f6 26 23 37 bf 97 48 3c ee 45 8b 3c
       5.1916205e-09 9.724628e-06 0.01224321 0.017001119
000320 11 c2 d1 bd dd 06 e8 bc ad d4 be 3d 4a 27 fe 3c
       -0.10242093 -0.028323585 0.093179084 0.031024594
000330 3c d9 e9 35 6d 98 75 bd b1 9e 7a bd 34 2e ce bd
       1.7423076e-06 -0.059959818 -0.061186496 -0.10067406
000340 ad 4c ba bc a4 a6 c6 3c d9 9b 84 3d b0 97 26 3d
       -0.02274164 0.024249382 0.06475038 0.040672004
000350 8a cb ca bd 64 b9 74 bd 98 d8 79 bb 04 b3 e2 3d
       -0.09902103 -0.059747115 -0.0038123485 0.11069301
000360 0d a1 36 3b b4 58 6c bc 41 37 0c 3d ca c6 f4 bc
       0.002786699 -0.014425445 0.03423238 -0.029879946
000370 1d 56 87 bd 7a cd 9e 3d 1d ba 22 bd 29 61 00 bc
       -0.06608222 0.07754035 -0.039728273 -0.007835665
000380 cd 93 ea bd 93 93 8d 3d d7 b4 a6 3d c2 1a e3 3c
       -0.11453972 0.06912913 0.08139961 0.02772272
000390 f0 86 95 bd fa 51 e8 bd 57 45 b6 bd 3d 4e a3 3d
       -0.07301128 -0.11343761 -0.08899944 0.07973907
0003a0 c3 ca 30 3d f7 a6 be 3d e0 2d 49 3d ad e6 60 3c
       0.04316212 0.0930919 0.049116015 0.013726872
0003b0 23 e3 ad 33 61 86 a7 bd d8 04 c3 bd a4 85 d9 bd
       8.097256e-08 -0.081799276 -0.09522408 -0.10621193
0003c0 28 d7 09 3d e2 d3 36 bd 91 b8 01 bc e0 26 66 bd
       0.033652455 -0.04463566 -0.007917539 -0.056189418
0003d0 99 c4 c4 bb 43 64 97 bd df 14 89 bd ae 55 c0 3c
       -0.0060048816 -0.0739217 -0.06693434 0.023478355
0003e0 39 7d 9c bc af bf 7d 3d c6 e8 b4 bc a8 d9 9f bd
       -0.01910268 0.06195038 -0.022083651 -0.078051865
0003f0 14 c6 b2 bb a5 5e 33 bd 29 7a a5 bc 92 4b de bd
       -0.0054557417 -0.043791432 -0.020199852 -0.10854258

lstm.weight_hh_l0 f4 [200, 50]
000000 67 38 da 3d 14 97 1e bd f6 12 1c bd 95 b9 0d bd
       0.10655289 -0.038718298 -0.03810402 -0.034600813
000010 54 d9 a7 bd b5 cc d8 3d b1 3a 60 bd 9b 15 20 bd
       -0.08195749 0.1058592 -0.054743472 -0.039083105
000020 02 72 a2 bc 5a bc be 3d d1 41 29 3d 97 1d e7 3c
       -0.019829754 0.09313269 0.041322533 0.028212352
000030 2e 2d 74 bc 0d da 3e 3d 1e 2f c2 3b f3 dc b1 3d
       -0.01490335 0.04659467 0.005926027 0.08684721
000040 c9 5c 26 3c 87 f6 9f 3d e4 7e 93 3d 70 a0 ad 3b
       0.010153958 0.07810693 0.07201937 0.0052986667
000050 29 18 e0 bd 85 86 05 3c 49 d0 a5 bd 77 c7 a4 3b
       -0.10942108 0.008149748 -0.08096368 0.005028661
000060 40 20 65 ba 22 8e b1 3d 67 5c 9b bd d0 14 bd bd
       -0.00087404624 0.08669688 -0.07585984 -0.09232485
000070 13 c4 1d 3d ad 05 8b 3d 59 7f 1e bc 58 b3 81 3c
       0.03851707 0.06788192 -0.009673917 0.015832588
000080 d5 85 b3 3d 00 04 e0 39 13 89 8a bc f6 ab 67 3d
       0.08765761 0.0004272759 -0.016911065 0.05656048
000090 f8 c0 cf 3d e7 a6 9e bb 53 32 90 3d 99 5b cd 38
       0.10144228 -0.0048416737 0.070408486 9.792223e-05
0000a0 c5 d1 0f bc 9c ba 20 b9 a8 ae e3 bd aa 94 30 3d
       -0.00877804 -0.00015328306 -0.111172974 0.043110527
0000b0 0e 9e 54 bd 83 8e c1 bd 59 c8 1a bb 04 ca 08 bd
       -0.051908545 -0.0945101 -0.0023617952 -0.033395782
0000c0 26 4a 84 bd 63 d3 11 bc 72 3a 23 ba c7 67 a3 3c
       -0.06459455 -0.008900496 -0.00062266656 0.019946946
0000d0 ad c7 13 3b 26 04 05 bb bb fb 22 3c 24 46 87 bd
       0.0022549436 -0.0020296662 0.0099477125 -0.06605175
0000e0 64 fb bf 3d 94 1a 36 3d ff 31 83 3d df 15 cd bd
       0.09374121 0.04445894 0.064060204 -0.10013937
0000f0 6b 5a 91 3d 57 c4 b3 3b c5 6a e2 bd 9d 96 dd 3d
       0.07097324 0.005486052 -0.11055521 0.10819743
000100 46 c9 81 b4 d4 a1 e3 3b 8d 97 ba 3d 00 aa 86 3d
       -2.4174568e-07 0.0069467817 0.09110937 0.06575394
000110 9a 6f cc 3d 0f f4 d8 bd 88 ce e8 3d e2 9e 4e 3c
       0.09982224 -0.105934255 0.11367518 0.012611123
000120 1b 2c 8e b3 4d b7 ae bd 8f f3 50 bd ee b1 e3 3d
       -6.620413e-08 -0.085310556 -0.051013526 0.11117922
000130 e5 ae a2 3d 02 f2 ac 3d 9e b5 dd b8 21 c3 5b bd
       0.07943515 0.08444597 -0.0001057193 -0.053652886
000140 74 93 3b 3c 24 cb 2e bd 87 61 88 bd da 29 b7 3c
       0.01144873 -0.0426742 -0.06659227 0.022358824
000150 e3 53 ae 3d d4 6a a9 bd e7 c9 ca bd c2 5a 0b 3b
       0.08512094 -0.08272329 -0.09901791 0.0021263813
000160 c1 2a d6 bc b9 42 4f bd 69 9d 07 bc 8a 08 0f 37
       -0.026143434 -0.05060074 -0.008277276 8.525452e-06
000170 8c 5d 88 bc 0d d6 a1 3d fd 23 5a 3d bf 5d ae 3c
       -0.01664617 0.07902155 0.053256977 0.021284936
000180 32 c4 b4 bc 3f 2e 42 b9 4e a3 87 3d b1 d3 bf 38
       -0.02206621 -0.0001851851 0.06622945 9.14702e-05
000190 91 f2 e1 bd 83 10 a2 39 c9 0b 49 3d 23 88 67 bc
       -0.11032594 0.0003091135 0.049083505 -0.014131579
0001a0 33 ff d2 bb e8 ba 0d bb e5 29 7c 3d 91 24 ba 3d
       -0.0064391135 -0.0021626297 0.06156339 0.09089006
0001b0 ab 71 ae bd 64 9f 8a 3d a6 e9 09 3d 72 bf d3 3c
       -0.08517774 0.067686826 0.03367009 0.025848124
0001c0 b9 f5 61 bd c0 8f 63 bd c9 0c ea 3d 88 5c 66 3c
       -0.05516598 -0.055557013 0.1142822 0.014060147
0001d0 a9 62 27 bc 68 ee 03 bc 1d a5 8d 3d 76 34 59 bc
       -0.0102163935 -0.008052446 0.069162585 -0.013257137
0001e0 11 61 8f 3d 07 97 8e bc fd f8 40 3c 40 1b 75 3c
       0.07000936 -0.017406 0.011778113 0.01496011
0001f0 68 ad 42 bd 5b a7 01 33 cd 44 fe 3b 8e c1 e5 bd
       -0.047528654 3.0187362e-08 0.0077596665 -0.11218558
000200 9a d0 f4 bb 56 7d a4 39 40 8b b9 3d 24 5d 25 3c
       -0.0074711563 0.000313739 0.09059763 0.010093007
000210 ff 11 c1 bd 98 4c 98 bc 15 38 e9 3d 4f a8 ed ba
       -0.094272606 -0.01859121 0.1138765 -0.0018131825
000220 c9 c9 a5 3d a6 5e 82 3a e0 dc 89 3d 20 fc 14 bd
       0.08095128 0.000994642 0.06731582 -0.036373258
000230 e1 03 e7 3d 11 be 12 3c de b3 07 bc 87 eb a9 3d
       0.11280037 0.008956448 -0.00828263 0.082968764
000240 b5 08 38 3d 41 66 8e bd c5 74 c3 b6 bd 0e 9b 3d
       0.04493018 -0.06953097 -5.8250466e-06 0.075711705
000250 20 44 59 3c 0a 2b b0 bc 38 6b 88 bd 26 60 96 bd
       0.013260871 -0.021504898 -0.06661075 -0.073425576
000260 52 1e 5b 3d ba 82 21 3d d8 6b cb bd 54 bc 08 bc
       0.053495713 0.03943131 -0.09932679 -0.008345682
000270 ad e6 60 3c d6 07 cb bd e5 74 c4 3d 46 ba 2d ba
       0.013726872 -0.09913604 0.09592608 -0.0006627183
000280 92 21 08 bd 78 10 5e 3a d1 b3 df 3c 63 c4 26 3c
       -0.03323514 0.0008471082 0.027307423 0.010178658
000290 c0 3e dd 3d a5 16 5f 3d 30 46 ba b9 bb 16 a0 3b
       0.10802984 0.054464955 -0.00035528978 0.004885522
0002a0 32 36 4c 3c a1 e8 02 bd 16 0d c3 bd e7 14 2b ba
       0.012464093 -0.031960133 -0.0952398 -0.0006526247
0002b0 27 cc f4 bc 06 2f dc bd 51 be da 3c b5 6b 0f bd
       -0.029882504 -0.107511565 0.026702078 -0.035014827
0002c0 32 d9 df 3d da d2 db 3c 93 dc 12 3d 2b a3 96 3c
       0.109300986 0.02683394 0.035854887 0.018388351
0002d0 b9 a2 fe 3c d0 5c 85 3d ca 26 a0 3d 8d e2 c3 36
       0.031083452 0.06511843 0.078198984 5.837827e-06
0002e0 de 8c 8e bc fb f8 81 3c 26 cc 20 bd 8a 63 2a 36
       -0.017401155 0.015865793 -0.03925719 2.5389913e-06
0002f0 cb 29 97 3c c0 62 1e 3d 60 ad e2 bd 24 9f fb 3c
       0.018452546 0.038668394 -0.11068225 0.030715533
000300 1d 95 fb bc 64 8a 97 bd e0 dd 12 bd ae e7 70 b4
       -0.030710751 -0.07399443 -0.035856128 -2.2436026e-07
000310 f6 a9 37 3d 89 b5 cc bd bd a9 82 3c da ac cf 3d
       0.04483982 -0.099955626 0.015950078 0.10140391
000320 1a 3a 60 bd 52 d7 45 3c 2f d7 05 bd e0 f4 52 3c
       -0.05474291 0.012075262 -0.03267592 0.012875766
000330 1d c9 16 3d 01 ff 7c bd 0e 7a 46 3c e2 bc e8 3d
       0.03681289 -0.06176663 0.012114061 0.113641515
000340 b9 c9 4e b4 74 18 99 bd 5f fb aa b3 d5 b3 23 3c
       -1.9258631e-07 -0.07475367 -7.961966e-08 0.009991606
000350 04 84 a7 3c a6 a0 dc b6 3f 88 18 bc 8b 4d 3a bd
       0.020448692 -6.575213e-06 -0.009309827 -0.045484107
000360 7b 09 87 3d ae 2f 60 bd 7f 79 c9 bc 9e f0 8b 3d
       0.06593605 -0.05473297 -0.024594067 0.068330035
000370 b2 27 2b bd eb c6 f0 ba 56 09 04 bd 0d 7e cb bd
       -0.041785903 -0.0018369829 -0.032235466 -0.09936152
000380 b0 df 31 3d a9 d8 1c bd bb 76 26 bd 9d 61 23 bc
       0.043426216 -0.03829256 -0.040640574 -0.009972003
000390 33 03 85 3c 12 1b c9 3d 65 f5 ca 3d a0 1f 2f b3
       0.016236877 0.098196164 0.099100865 -4.0774125e-08
0003a0 4f 46 c3 bd 29 dd 70 37 33 97 1e 34 4a 85 bf 3d
       -0.09534895 1.4356608e-05 1.4769903e-07 0.09351595
0003b0 1a 1b 0b bc 98 bf da bd 2f e0 e1 3c 83 80 21 bc
       -0.008490348 -0.10681075 0.02757272 -0.0098573
0003c0 b5 8b d2 3c 15 47 a0 3c e5 8f da 3c 29 96 59 3d
       0.025701383 0.019565145 0.026679942 0.05312172
0003d0 e4 99 96 bd 7f f1 b6 bd 1b c9 d9 3d 04 69 d3 3d
       -0.07353571 -0.089327805 0.10634061 0.103227645
0003e0 95 e4 01 bd df de df 3d fa 69 f6 3b a8 c9 73 bc
       -0.031712133 0.10931181 0.0075199576 -0.014879622
0003f0 d2 18 53 bd 14 d2 4d bd d4 79 b3 3d c9 3b 7c bd
       -0.051537342 -0.050249174 0.08763471 -0.061580453

lstm.bias_ih_l0 f4 [200]
000000 be 35 72 3d 46 25 26 3d 51 5e ed bc f2 f2 ef 33
       0.059133284 0.04056289 -0.028975638 1.1173496e-07
000010 72 39 78 bb e5 c7 3d b1 13 79 ea bd ab ad bf 3d
       -0.0037876037 -2.7616747e-09 -0.11448874 0.093592964
000020 6e b3 d4 bc 14 49 dc bd f7 1c 5a b4 11 66 a5 3c
       -0.025964465 -0.10756126 -2.031337e-07 0.02019027
000030 e7 89 24 3d 69 b2 3e bd df 7b 32 b7 dc 19 c1 bd
       0.040170576 -0.046556864 -1.0638468e-05 -0.094287604
000040 35 a1 a5 bd 5d 01 8b bd 7e e9 81 bd c3 ed 81 3d
       -0.080873884 -0.067873694 -0.06343363 0.063441776
000050 97 f8 cf bd 19 af 0c bc 3b b3 0c bd a6 49 8a 3d
       -0.101548366 -0.008586668 -0.034350615 0.067523286
000060 79 9a 23 37 c8 fe 57 bd 65 3a b6 3d a6 e2 a6 bd
       9.751523e-06 -0.052733213 0.088978566 -0.081486985
000070 e4 5d f2 bc 50 f5 d2 bd 00 73 74 b8 93 ba 8f 3c
       -0.029585786 -0.10300696 -5.8281235e-05 0.01754502
000080 61 e5 c7 3d 4a 6b 9d bd 82 0d 8d bd c4 e0 eb 3d
       0.097605474 -0.076864794 -0.06887342 0.1151748
000090 7b 50 b1 3b 67 f5 8f bd f3 c8 15 3d a8 84 e1 3d
       0.0054112053 -0.07029229 0.036568593 0.1101163
0000a0 d5 fc 1a 35 f8 db 24 bd 52 32 4f bd 37 08 de bc
       5.773739e-07 -0.04024884 -0.0505851 -0.027103527
0000b0 22 4e 41 3d 89 91 c3 bd d2 23 d2 3d c4 42 95 bd
       0.047193654 -0.09549243 0.102607384 -0.07288125
0000c0 79 72 8b 3c 26 93 ea 3d 61 c7 1b bd 9d 5d 8d bd
       0.017022358 0.114538476 -0.03803194 -0.06902621
0000d0 ee 63 46 bd 46 4c 0f bd 36 e7 7b bd 34 de e7 bd
       -0.048435144 -0.03498485 -0.061499797 -0.11321679
0000e0 82 97 85 bd 83 2f d1 bc 3b c4 c5 3d 82 30 05 bc
       -0.065230384 -0.02553535 0.096565686 -0.008129241
0000f0 9a 3b 8d 3a f2 9f ad bc a6 6e 6f 3b 93 ba 2e 3d
       0.0010775209 -0.021194432 0.0036534457 0.0426584
000100 52 90 ad 3b 87 15 10 bc 53 85 e2 38 06 e5 db 3d
       0.0052967453 -0.008794195 0.00010801353 0.10737042
000110 21 aa 8c bd 90 a0 e6 3d 5b 92 26 bc 94 02 9a 3d
       -0.06868387 0.112610936 -0.01016673 0.07520023
000120 b4 82 ab 3d d4 b8 80 34 05 19 44 34 fc 5c 94 3d
       0.08374539 2.3976338e-07 1.8263025e-07 0.07244298
000130 46 44 89 bb 8a 36 86 3c d9 ab df 3d d8 4a f8 bb
       -0.004189047 0.016383428 0.10921449 -0.0075772814
000140 89 0b d6 bc 0f cc ab 3d 46 f1 ce 3d bb 49 e0 3d
       -0.026128547 0.083885305 0.10104613 0.10951563
000150 2c dd db bd e1 85 8a 3d c8 85 37 3d 45 be 84 bd
       -0.107355446 0.067638166 0.044805318 -0.064816035
000160 6d ff 88 3d cf 8f 50 bd 17 03 4c 3d be fe 03 39
       0.066893436 -0.050918397 0.049807634 0.00012588032
000170 ce 1e af 3c 86 4e 7c bd a3 cd e8 bb c3 3e 54 bd
       0.021376994 -0.061598323 -0.007104592 -0.051817667
000180 25 7a 54 3d 74 30 b1 bd 47 3f c7 37 43 a9 fa 3c
       0.0518743 -0.0865182 2.3752114e-05 0.030598288
000190 0a 5e 13 b4 d5 41 a0 bc a9 92 31 3c 89 30 53 38
       -1.3724653e-07 -0.019562641 0.010838189 5.0351522e-05
0001a0 d2 8a 58 bd 79 92 82 bc 6f 76 d3 bc 13 73 5f bd
       -0.052866764 -0.015938984 -0.02581331 -0.054553103
0001b0 3f 23 ed 32 3f 59 aa bc 92 6d 60 bd 29 b4 b5 bd
       2.760646e-08 -0.020794509 -0.054791994 -0.088722534
0001c0 68 b3 88 bd 9a 9c 1e bc 34 be b2 3d d3 56 94 ba
       -0.06674844 -0.009680891 0.087276846 -0.001131738
0001d0 ac 7d 50 bd 2b 21 a8 bd 92 ec a0 3b 9d 2b c1 3d
       -0.0509011 -0.08209451 0.004911014 0.09432147
0001e0 ba b9 cf bd 31 8d aa 3d 50 75 cd 3d 38 23 2e 3c
       -0.101428464 0.083277114 0.10032141 0.010628514
0001f0 0d 3d 3b 3d 80 3b 9c 3c 7f e4 01 be eb 21 04 bd
       0.04571252 0.01907134 -0.1268482 -0.03225891
000200 1c b8 3c bc 64 e2 71 bd 0d 13 28 34 1a 9f 12 3c
       -0.0115185045 -0.059053794 1.565315e-07 0.008949066
000210 52 27 0d 3c 1f 4e 55 3d f8 ed 6d bd 1e 8e be 3d
       0.008615332 0.052076455 -0.058088273 0.093044505
000220 74 62 08 bd 7c 50 b3 3d fb 6a d1 3d 5c a3 b7 bd
       -0.033297017 0.087555856 0.10225483 -0.08966705
000230 d8 1a e0 bd 1b 47 a2 3d e6 bd a7 3d 1a b4 31 ba
       -0.1094262 0.079237185 0.08190517 -0.00067788514
000240 09 4a 0c 3c e0 0e 44 3b c7 d9 a4 bc 5d 78 4a 3d
       0.008562573 0.0029916093 -0.020123376 0.049431194
000250 38 58 c6 3c d8 ef e1 bd e2 e2 86 bc f0 86 70 bd
       0.024211988 -0.11032075 -0.016465608 -0.058722436
000260 0f ba 14 3d 43 a0 eb bd 76 c5 c3 bd 22 17 ca bd
       0.03631025 -0.11505177 -0.09559147 -0.098676935
000270 22 96 59 bd 3a 92 aa bd fc 91 1b bd f9 86 62 bd
       -0.053121693 -0.08328672 -0.03798102 -0.0553045
000280 51 19 86 3d 33 eb c8 3d ae 38 fb 3c d3 79 fc bc
       0.065477975 0.09810486 0.030666675 -0.030819809
000290 82 19 09 3d 4a 8f c3 bd cb f2 3b bd 2f 41 10 bc
       0.03347159 -0.095488146 -0.045885842 -0.0088046035
0002a0 f8 69 d9 bd 9f 34 da 3d 6e 9c 89 3d db 74 27 3d
       -0.10615915 0.10654568 0.0671929 0.040882926
0002b0 da 2e 2b 3d f0 7f e7 3d c0 11 f4 bc b2 b9 4c 3c
       0.041792728 0.11303699 -0.02979362 0.012495445
0002c0 43 23 c5 bc 8c b1 9e bb b1 03 e7 bd 7d c9 72 3d
       -0.024064666 -0.0048429426 -0.11280001 0.059274185
0002d0 8d 14 9c bd d1 6e 1e bd d1 f2 cc 3d eb 8e 6c bd
       -0.07621107 -0.0386799 0.10007251 -0.057753485
0002e0 52 2f e1 3a 4a 7c d4 bd cd 16 69 bd 93 25 d8 3d
       0.001718024 -0.10375269 -0.05690651 0.10554042
0002f0 bc fb 50 3d ec 89 8d 35 95 0e 3b bd 18 23 a8 3d
       0.051021323 1.0545459e-06 -0.045668203 0.082098186
000300 f3 37 db 3d 53 43 00 3c 83 99 86 bd f3 5e 49 34
       0.10704031 0.007828551 -0.06572249 1.8754126e-07
000310 54 b7 34 3d 4c 36 97 3c a9 5a cf 3d 88 a3 ff 3d
       0.044120148 0.018458508 0.10124714 0.12482363

lstm.bias_hh_l0 f4 [200]
000000 ac 7d 3f 3d 35 06 95 bd 73 2d b2 36 d2 cd e9 3b
       0.04675071 -0.072765745 5.3101044e-06 0.0071351314
000010 ac 45 c2 bc 2b 75 9e 3c 52 e1 88 3d f4 5d 52 bd
       -0.023714863 0.01934298 0.066836014 -0.051359132
000020 2f 58 a4 bc 7a 1f c1 bd e1 8a 6c 3b e7 83 74 3d
       -0.02006158 -0.09429832 0.003609352 0.059696104
000030 14 ac d0 3d 63 fd 81 b6 76 73 88 3d ad a5 fe bd
       0.10189071 -3.8739977e-06 0.066626474 -0.12433944
000040 c8 c4 6a b4 cd 68 d9 bb 06 ef 25 bd de c4 d6 3d
       -2.1864537e-07 -0.0066348077 -0.040511154 0.10486768
000050 fb e0 80 3d 23 52 bc bd 9e b7 d1 bd 31 57 2a bd
       0.062929116 -0.09195354 -0.102401 -0.04158706
000060 7e 7f c8 3c b2 a4 2d 3d f6 b5 45 3d 0d 19 ab 3d
       0.024474856 0.042393394 0.048269235 0.083543874
000070 f5 4a 85 bd e0 06 e5 38 fd ba 1d bd de 91 33 bd
       -0.065084375 0.000109208515 -0.038508404 -0.04384028
000080 1a da a8 b3 7e 8e 2d b9 71 b5 b5 bd 87 e5 30 b1
       -7.862782e-08 -0.00016551648 -0.08872498 -2.5741842e-09
000090 e6 35 31 3d e5 7c ce 3d 7b 4a 81 bc 75 8d 8f 3d
       0.043264292 0.100824155 -0.015782585 0.07009403
0000a0 ff 6b 29 bc ea 6d a0 bd 85 5b c5 3d 02 f2 40 bc
       -0.01034069 -0.078334644 0.096365966 -0.011776449
0000b0 a8 70 39 bc 50 15 c3 bc 56 c5 cf 3d fc 2b 4b bd
       -0.011318363 -0.023813874 0.10145061 -0.049602494
0000c0 66 46 79 bc 2e 21 14 b7 09 74 89 bd 4e 9b fe 3c
       -0.015214538 -8.829213e-06 -0.06711585 0.031079914
0000d0 2a ed c0 3d 34 02 e0 3c 1e b8 48 bc d5 28 e2 bb
       0.094202355 0.0273448 -0.012250928 -0.00690184
0000e0 87 84 02 be 48 74 af bd 98 2a 85 bc 5d 2d 5c 3d
       -0.12745868 -0.08567101 -0.016255662 0.0537542
0000f0 c9 07 d8 3d 98 a2 f0 34 e6 10 ae b9 e2 cf 91 3d
       0.1054836 4.4821786e-07 -0.00033200457 0.071197286
000100 b9 65 10 bc 37 09 9d bd 65 f5 60 3d 31 6e 16 bd
       -0.008813315 -0.07667773 0.054921526 -0.03672618
000110 73 c2 99 bd 64 ab 63 b3 bb 74 8c bd fa 0e ad bd
       -0.07507791 -5.3008435e-08 -0.06858202 -0.08450122
000120 0e 81 58 bd c4 2e 18 b9 cf 85 c1 3c 3c 8e 0c bd
       -0.05285745 -0.00014513271 0.023623375 -0.034315333
000130 94 01 e0 bd 39 77 c9 bc a5 07 d8 3d 92 cd 36 bc
       -0.10937801 -0.024592983 0.10548333 -0.01115741
000140 65 da 9e bd a1 ad ed bc cd 90 cf 3d 0a 7b 81 3b
       -0.07756499 -0.029013457 0.101350404 0.003951435
000150 b8 bd 21 bb 2d d8 e5 3d 50 8e 0d 3a 87 c8 5b 3b
       -0.0024679732 0.11222873 0.00053999294 0.0033536272
000160 60 ec e7 3d b6 92 09 ba 70 e3 b1 bb ea d4 b2 3d
       0.11324382 -0.0005247997 -0.005428724 0.087320164
000170 15 f2 b0 3c e6 bb 96 bd da 4e 85 3d 3a 32 0f bd
       0.021599809 -0.073600575 0.0650918 -0.03496001
000180 32 c0 c1 bd 1b c4 ca 3d f9 5c a1 bd b7 cf 12 bd
       -0.094604865 0.099006854 -0.07879061 -0.035842624
000190 49 41 81 bb 06 71 1c b2 6e 65 80 ba 21 d5 a2 3d
       -0.00394455 -9.106094e-09 -0.0009795853 0.07950807
0001a0 99 05 a4 3d 86 74 cc bd 45 15 e3 bd e0 ee e5 bd
       0.0800888 -0.099831626 -0.11088041 -0.112272024
0001b0 8a fe bb 3d bc 3d ac ba 9c 10 39 bd cc de 8a bd
       0.09179409 -0.0013140957 -0.045181856 -0.067807764
0001c0 96 2f f2 3a a3 33 91 3c 5d 2e 65 3d d9 d4 b4 3d
       0.0018477316 0.017724818 0.05595242 0.0882966
0001d0 42 46 cc 3d bd d6 8c bd 6e 4d 8e 36 74 18 84 bd
       0.09974338 -0.068768956 4.240944e-06 -0.064499766
0001e0 fb 36 df bc 4f 90 67 b4 9b db 5d 3d ef 87 1f bd
       -0.027247896 -2.156605e-07 0.05416451 -0.038947996
0001f0 12 8f 5f bd 81 0e 78 bc 6d 33 5b 3d c9 6e 44 b4
       -0.0545798 -0.015140177 0.05351584 -1.8294226e-07
000200 7c 58 a4 3d 35 6d cf bd db 0b e2 3c d8 a0 a6 3d
       0.080246896 -0.101282515 0.027593544 0.08136147
000210 96 fb 9d 3d f6 db c6 bd 49 10 8d bd 75 b0 8b 32
       0.07714002 -0.09709923 -0.06887872 1.6261973e-08
000220 c3 b1 9d 32 19 8a 71 3d 6b 3f b7 3d ba 76 11 37
       1.8358042e-08 0.05896959 0.08947643 8.670317e-06
000230 be 0b 99 bc 20 20 55 3d d2 a2 87 bd b2 8e 23 bd
       -0.018682357 0.05203259 -0.066228524 -0.039931007
000240 03 7b b8 3a b4 62 9a bb 02 7a 76 3d 9b 55 f9 bb
       0.0014074746 -0.0047114734 0.06017495 -0.007609082
000250 42 b5 29 3a 68 1e 8f 3c 69 17 04 b9 8f ab b5 bc
       0.0006473848 0.017470554 -0.00012597222 -0.022176532
000260 6d 5f 80 3d 29 e8 5b 3d a3 93 5e bb 03 5b 85 bd
       0.06268201 0.053688202 -0.003396251 -0.065115
000270 56 da 50 bd 8a f6 93 3d f5 5e 89 3d 9f 73 ba bc
       -0.05098947 0.07224758 0.06707565 -0.02276021
000280 65 f5 55 3d cd 64 95 ba 31 f9 17 37 fa 5f 2b bd
       0.05223598 -0.0011397839 9.058321e-06 -0.041839577
000290 e6 88 6e b4 9b 1b 0f bc 53 e1 5f 3c 36 09 de bd
       -2.221528e-07 -0.008734609 0.013664561 -0.108416006
0002a0 01 87 23 37 5d a3 ad bd eb c0 d7 bd 08 9f e9 bd
       9.74699e-06 -0.08478425 -0.10534843 -0.11407286
0002b0 bb e3 84 bb 8d 8b d3 3b 08 0e 19 3a 9e 6d 44 3c
       -0.004055468 0.0064558447 0.00058385776 0.011989025
0002c0 7c dc 14 bd 21 9a 8b bd 07 5a 01 bd f4 b2 a4 bd
       -0.036343083 -0.06816507 -0.031579997 -0.08041945
0002d0 8f 66 c4 ba ba bb 10 3c 81 bd 1e 3b 7e c7 d1 bd
       -0.0014984178 0.00883382 0.002422184 -0.10243128
0002e0 4d 9e dd 3d 17 59 c4 3d 54 ff 1e bd 9c f8 c4 bd
       0.10821209 0.09587305 -0.03881772 -0.09617731
0002f0 47 2c 3d 3b 34 fc 2c 3c c5 dd 7c bc 78 51 25 bd
       0.0028865503 0.010558177 -0.015433733 -0.040360898
000300 cd ff c6 37 95 cf 78 bd 9c 42 49 bd 2b f7 b3 3c
       2.3722556e-05 -0.06074484 -0.04913579 0.021968445
000310 d6 7f 71 3a 0f a5 06 3d 1b da bf 3d 51 30 f7 3b
       0.00092124694 0.032872256 0.09367772 0.0075436016

lstm.weight_ih_l0_reverse f4 [200, 33]
000000 e5 6c c9 3c 31 41 9a 3d 11 52 81 bd e8 b0 8c 3d
       0.024588058 0.075319655 -0.06314481 0.0686968
000010 97 28 92 3d 02 e1 f5 bc 27 8b ad 3d 8a ce 24 bd
       0.07136648 -0.030014519 0.08473807 -0.040236033
000020 08 2f 2f bd 40 22 9b 3d 14 ce 27 3d 21 66 d7 b6
       -0.042769462 0.07574892 0.040968016 -6.4193887e-06
000030 eb ea af bd 63 48 63 3d 9f 55 52 3c 31 40 72 bd
       -0.08589729 0.055488955 0.0128377965 -0.05914325
000040 12 27 2c b5 61 b0 9c 3d b4 e2 10 3d f7 8a 25 bd
       -6.413185e-07 0.07650829 0.03537245 -0.04041573
000050 bc 90 c8 33 2c 5a d7 bc 96 f6 8a 3d 17 cf 2a 3d
       9.339553e-08 -0.026288114 0.06785314 0.041701403
000060 d1 4f 47 bb 73 83 91 ba 23 5f 9e bd eb 1e 25 bc
       -0.0030412565 -0.0011101797 -0.0773299 -0.010078172
000070 96 6c 36 3d a2 53 e0 bd 39 2a da 3a 5b 24 de 3d
       0.04453715 -0.10953452 0.0016644663 0.10846778
000080 2e 5d 15 3d 6c 21 8d 3d b2 56 21 bd f5 c5 b5 bb
       0.036465816 0.0689114 -0.03938932 -0.00554728
000090 6b 3b c7 bd 19 3d 81 bd 1f 40 0c 3d 1f 70 3e 3d
       -0.0972813 -0.063104816 0.03424084 0.046493646
0000a0 58 51 6e 3d a4 23 5f bd 36 53 95 3c 28 6c 5f bd
       0.058183044 -0.05447735 0.018228155 -0.054546505
0000b0 30 50 a2 bd ea 12 f7 bc 66 eb c6 bd ff 91 4c 3c
       -0.07925451 -0.030160386 -0.097128674 0.01248598
0000c0 a2 82 a8 3c 11 0c 86 3d 60 bc 48 3d 3b d2 ed 3b
       0.020570103 0.0654527 0.049007773 0.0072577274
0000d0 93 2b f9 3c 32 49 a7 3c 21 5b dc bd e1 84 26 bd
       0.030416286 0.020420644 -0.10759569 -0.040654067
0000e0 59 8f b7 bd cf 9c 68 bd 86 08 01 3c d2 a8 db 3d
       -0.08962888 -0.05679017 0.007875567 0.10725559
0000f0 ed 2a 94 3d 4e 67 08 bd 2d 67 3a 3c da 08 93 3d
       0.0723475 -0.033301644 0.011377138 0.07179423
000100 f4 0e 10 3c d0 e0 b7 bd e5 64 b5 3a 09 b2 08 3d
       0.008792628 -0.089784265 0.0013839273 0.033372913
000110 ee 41 8d 3b 03 3b d3 3d 01 a8 bc 3d 42 bd 5c bd
       0.004310838 0.1031399 0.09211732 -0.053891428
000120 b4 76 a7 3d f0 f3 cd bd 45 c4 61 bd 2d b7 07 3d
       0.08176938 -0.10056293 -0.055118818 0.033133674
000130 7e 28 61 b4 35 f8 c4 3d b7 1f 71 3d 45 41 16 bc
       -2.0969489e-07 0.09617654 0.058868136 -0.009170835
000140 9b 86 df 3d 09 53 9b bd 55 f8 d1 3b a8 2d b3 3c
       0.10914346 -0.07584197 0.0064077773 0.021872357
000150 9e 92 ad 3d e3 de e5 3d db f9 34 3d 42 bc 1d bd
       0.08475231 0.11224153 0.044183593 -0.038509615
000160 01 f5 b3 3d 31 05 93 3d 12 c4 84 b4 72 63 9b 3d
       0.08786965 0.071787246 -2.4729576e-07 0.07587327
000170 2e fb 80 3b 2f 64 1b b9 d2 95 a8 3c 80 3f 43 32
       0.003936193 -0.00014819273 0.020579252 1.1364932e-08
000180 fc dc 8c bc 42 14 39 3b cb 07 88 31 02 9f 92 bd
       -0.017195217 0.0028240834 3.959007e-09 -0.071592346
000190 9c 9f 9f bd 2b 0f bd 3c 2a fe fd bc 9a 62 59 33
       -0.07794115 0.023078522 -0.031004984 5.0613927e-08
0001a0 d2 8d ca 3d a1 09 a1 3d 68 f2 5a 3d 79 02 4e 3d
       0.09890331 0.07863165 0.053453833 0.050295327
0001b0 22 ce 8f 3d 77 f5 8d bd b9 24 d8 3d fa ee a0 bd
       0.070217386 -0.06931584 0.10553879 -0.07858081
0001c0 b6 8c 87 bd ff fd 09 bd 72 92 e5 3d 99 4e 5d 3d
       -0.06618635 -0.033689495 0.11209573 0.054030035
0001d0 fa 50 8b 3c 31 8d 68 3d 14 2d df bd e2 ce de bd
       0.017006386 0.056775276 -0.1089727 -0.108793035
0001e0 b4 49 ab 3c bf 75 84 bc 35 ee 2f 3d d9 10 99 bd
       0.020909168 -0.016169427 0.04295178 -0.074739166
0001f0 0c ce dc 3d 4f 7b c7 bd 87 3d 41 3d d4 d5 4a 3d
       0.10781488 -0.09740316 0.047177818 0.04952033
000200 ec 1e 50 bd 9d b7 ca 3d 95 9d 47 3d c9 c0 23 bd
       -0.05081074 0.09898303 0.048734266 -0.039978776
000210 4d 75 21 bd 7c e3 a8 3d 3d d7 53 bc 2a c6 13 b7
       -0.039418507 0.08246514 -0.012929735 -8.808021e-06
000220 7e c0 24 3d a8 4b 29 3d e2 43 3c bd 18 52 a5 3d
       0.040222637 0.041331917 -0.045963176 0.08072299
000230 68 b7 a2 3c f8 1d b6 3c 86 3b 28 bd 1d 93 20 3d
       0.019862846 0.022231087 -0.04107239 0.0392028
000240 40 69 c0 ba 25 e6 98 3d 42 f8 42 3d d0 f3 9c 3d
       -0.0014679804 0.074657716 0.04760004 0.07663691
000250 e9 39 0e bb 24 18 88 3d 96 08 aa 3d 84 2b 26 3c
       -0.0021701998 0.066452295 0.08302419 0.010142211
000260 6d 33 2e 37 21 19 89 bd 11 db 44 bd 5a 6e 66 3d
       1.0383182e-05 -0.06694246 -0.04806048 0.056257583
000270 0f 49 7b bd c1 46 37 bd 61 73 41 3d 53 70 40 bd
       -0.06134897 -0.04474521 0.047229175 -0.04698212
000280 92 3a ab bd a4 cf 26 3c 89 00 16 3d a9 3f d1 bd
       -0.08360781 0.010181341 0.036621604 -0.1021722
000290 9b d2 db 3a 70 65 e2 bd b7 20 6e 3d a8 9b 8f 3d
       0.0016771139 -0.11054504 0.058136668 0.07012111
0002a0 86 73 34 3d 7f 5d 0b 3e 8a 52 ed bc 5b 5f 6c bd
       0.044055484 0.13609885 -0.028970022 -0.057708126
0002b0 c9 43 9e 3c 9f 9e bc 3c a9 ec 24 bd 9e 90 b5 bd
       0.019319432 0.023024855 -0.04026476 -0.08865474
0002c0 74 48 2b bd f5 a8 16 3d 84 7f 6e 3d d8 c5 74 bd
       -0.041817144 0.036782224 0.058227077 -0.05975899
0002d0 55 ad f1 3d ce c6 a2 bd e6 97 9a ba 33 d0 52 3c
       0.118006386 -0.07948075 -0.0011794537 0.012867021
0002e0 ad a2 a2 bd dd 28 d4 3d 7b 0c 36 bd c5 00 74 3d
       -0.07941184 0.103593566 -0.044445496 0.059571046
0002f0 c4 9f 2e b7 69 22 62 bd 62 73 d9 3d 2d 83 87 bb
       -1.04084065e-05 -0.055208597 0.10617711 -0.0041355104
000300 44 d0 e3 3b 4b c7 dc 3d 57 d3 da bd 1a fb b5 3d
       0.0069523174 0.107801996 -0.10684841 0.088857844
000310 f5 05 3d bd c4 1d b6 bd 06 4c 5b 3d 0d 82 a5 bc
       -0.04614826 -0.08892396 0.0535393 -0.020203615
000320 bf 41 b2 bd 10 71 36 bd ed 18 87 3d 00 a3 19 3d
       -0.08703946 -0.04454142 0.06596551 0.037508965
000330 0f de af 35 1e 6a 43 3d 2d 8d fa 3b f4 2b a4 bd
       1.3103144e-06 0.047708623 0.007646224 -0.08016196
000340 50 98 e4 3b 17 bb 99 3d f2 06 92 b9 72 44 7f ba
       0.006976165 0.07506388 -0.00027852465 -0.0009737677
000350 a0 e5 e6 3d a1 fe 90 bc 4c 9a d8 3d fc 65 c8 3d
       0.11274266 -0.017699542 0.10576305 0.09785077
000360 35 36 b5 3d 6e 80 79 3c e3 84 85 3c 04 09 69 3c
       0.0884823 0.015228374 0.016298717 0.014223341
000370 8d 27 d4 bd bc 65 02 bd 1a 69 5d bd ea 17 43 bb
       -0.10359106 -0.031835303 -0.05405531 -0.0029768893
000380 fb f2 3b bd 2a 35 b6 bc 43 de 90 bd 6b 06 9e bd
       -0.04588602 -0.022242147 -0.07073643 -0.07716068
000390 91 71 b7 3c c8 37 e5 3d 2e c6 07 bd e7 2e 8b bd
       0.02239302 0.1119228 -0.033147983 -0.06796055
0003a0 51 17 c5 bc f9 46 f1 bc 22 92 e4 bd db 2d c9 3d
       -0.02405897 -0.029452788 -0.11160685 0.09823199
0003b0 27 67 90 3d a2 1e a2 3d 54 38 45 bd 80 4b 8b bd
       0.07050925 0.07915999 -0.04814942 -0.0680151
0003c0 33 2c e0 3d 2f c3 76 bd 41 47 be bd 28 37 bc bd
       0.1094593 -0.060244735 -0.09290934 -0.09190208
0003d0 59 dc a3 3c 89 5c 04 bb 9d ab 79 bd 1e 84 c1 3d
       0.02000253 -0.0020196757 -0.06095468 0.094490275
0003e0 1e 46 5a bd 5a 59 1d b7 94 f0 3a 3d 75 ea 2f 3d
       -0.053289525 -9.378733e-06 0.04563959 0.042948205
0003f0 92 5f bd 3d 7a 79 be ba 7b 7d 44 3d 34 f9 60 b8
       0.09246744 -0.0014532052 0.04797123 -5.363785e-05

lstm.weight_hh_l0_reverse f4 [200, 50]
000000 55 34 a6 bc 3d d2 37 bc d7 3e b9 bd 22 5c a6 bd
       -0.020288626 -0.011219558 -0.09045189 -0.08123042
000010 c3 67 17 3c b3 f2 7c 3d 17 f0 39 bd 63 cd b6 bc
       0.009241047 0.061754894 -0.045394983 -0.022314733
000020 b8 98 cd 3c 8c 55 d2 3d 20 01 34 bc b1 77 e3 bd
       0.025097236 0.10270223 -0.010986596 -0.11106814
000030 6f 2b 95 3d db 9d ca bd f9 5f 3f bd b3 55 92 bd
       0.07283675 -0.0989339 -0.046722386 -0.07145252
000040 47 b8 24 3d e4 ee 66 3d 13 43 d8 3d f2 8b 57 38
       0.040214803 0.056380168 0.105596684 5.139033e-05
000050 fe 29 8e bd 9f d8 95 3d 9a 98 9c 3d 2a 73 9f 3c
       -0.06941603 0.07316708 0.07646294 0.019464094
000060 3f 36 96 3c 3a fa a6 bd 03 98 29 bc 6e 4d da 3d
       0.018336413 -0.08153196 -0.010351184 0.106593
000070 54 51 65 3b d0 12 e5 bd b9 9b e0 3d ae 5c 8b 3d
       0.0034991102 -0.11185229 0.10967202 0.068047866
000080 8b 1c 93 3d 6b 24 57 3d 6c 5a 23 3d a1 25 d9 3d
       0.071831785 0.052524965 0.039881155 0.1060288
000090 56 93 ff 3c 76 b6 d6 bd bf bf 40 bd 25 9f b4 3c
       0.031198185 -0.104840204 -0.047057863 0.022048542
0000a0 fa 72 c6 bd 3c 0f a3 bd b9 cd a6 bd 6e 57 86 bd
       -0.09689899 -0.0796189 -0.08144707 -0.06559645
0000b0 c9 2c 0b 3d 97 98 8e 3d c0 45 60 bd bd 94 38 bd
       0.033978257 0.06962698 -0.05475402 -0.045063723
0000c0 54 d7 30 bc fe e4 d5 bc 9b e3 83 bc 7d 7f a6 ba
       -0.010793526 -0.026110169 -0.016099742 -0.0012702789
0000d0 99 17 d9 3d 2a fe e4 bd 25 35 0f 3c 67 0f 09 bd
       0.10600204 -0.111812904 0.008740698 -0.033461954
0000e0 32 f4 88 bd 5c 66 80 3c c0 40 69 3d 61 7b ce 3d
       -0.066872016 0.015673809 0.056946516 0.100821264
0000f0 e7 11 49 bd 3f b1 ea b7 5c 3c ad bd 43 79 5a bd
       -0.04908934 -2.797751e-05 -0.08458778 -0.0533383
000100 91 4e 96 39 ae 1c 4f 3d 01 21 00 bc 95 25 7c 3d
       0.00028668766 0.05056446 -0.007820369 0.06155928
000110 71 8c 72 33 7d 06 83 bc 84 dc 3a 3c 97 2e b6 3d
       5.6472746e-08 -0.015994305 0.011405114 0.08895605
000120 2b 82 09 3d 3c fd ef bc 83 74 26 bd e3 b5 dd 3d
       0.033571403 -0.029295556 -0.040638458 0.10825708
000130 3f 37 ae 3d 19 6f 95 3d 20 9f 73 bd 00 2b e5 bd
       0.08506631 0.07296581 -0.059477925 -0.11189842
000140 01 71 98 bd 96 18 dc 3c 13 c2 dd 3d 6f cf 19 bd
       -0.07443429 0.026867192 0.10828032 -0.03755134
000150 2d c5 e9 bd 46 b5 8b bd a9 69 f3 3c 31 da 94 3d
       -0.114145614 -0.068216845 0.029713469 0.07268179
000160 08 e5 ef bb 29 21 49 b4 6b ea 9d bd c6 48 24 bd
       -0.007321004 -1.8731647e-07 -0.07710727 -0.040108465
000170 6e ec 8b bd d5 65 88 3d 53 26 f5 bb 80 43 0d bd
       -0.06832205 0.06660048 -0.0074813752 -0.0344882
000180 02 6c 3e ba ff ee 20 3d 23 15 5a bd e1 d1 2f bb
       -0.0007264019 0.039290424 -0.053242814 -0.0026827978
000190 57 e9 11 3d e2 dd 97 ba 8c 43 b8 3c 88 4d 8e bd
       0.03562292 -0.0011586512 0.022493146 -0.06948382
0001a0 82 75 00 37 77 95 33 bd c0 52 d5 3d d2 ba eb bd
       7.656754e-06 -0.043843713 0.10416174 -0.115102425
0001b0 f6 97 3d bd 1c ef 01 bd 12 66 1b 3d 38 0d 1e bd
       -0.0462875 -0.031722173 0.03793914 -0.038586825
0001c0 14 96 82 bd 01 ed 14 37 5d 65 b4 bc a6 cc e3 3d
       -0.063762814 8.876669e-06 -0.02202099 0.11123018
0001d0 26 7e 7c 3d 0a b2 ad 3d 29 9b bd bd 15 4d 6a bc
       0.061643742 0.08481224 -0.0925811 -0.014300604
0001e0 43 34 a9 bd b5 12 d0 3d 2d 08 70 3d a0 fb ad bd
       -0.08261921 0.10159818 0.058601547 -0.08495259
0001f0 ba 70 a1 bd a7 8f 38 3d 44 ff 3f bd 16 85 b3 3c
       -0.07882829 0.045058873 -0.0468743 0.021914046
000200 65 24 c9 bd 7d 41 b2 bd b6 89 c9 bc a7 b9 ad bd
       -0.09821395 -0.08703897 -0.024601799 -0.08482676
000210 1b 5e 7c 3d 05 70 a8 bd d0 a2 bb bc a1 db e5 bd
       0.061613183 -0.08224491 -0.022904783 -0.112235315
000220 ef 6b d4 3d cb c7 8b 3b f4 3e 78 bd 5b 05 21 bc
       0.10372149 0.0042657605 -0.06060691 -0.009827937
000230 30 2e 9f 3c 7c 69 cb bc 52 40 b2 3d b6 0d 35 bc
       0.019431204 -0.024830572 0.087036744 -0.011050632
000240 a2 b6 d9 3d e5 6a 55 3d 0d e2 97 3d bf 38 ce b3
       0.106305376 0.052103896 0.07416163 -9.6029446e-08
000250 03 7b 93 bc 4e a2 12 3d 0b f6 81 3d fc 85 12 3b
       -0.018002992 0.035799317 0.06345757 0.0022357693
000260 99 b4 fd 3b ce e5 c3 3d d1 d8 53 bd e5 fa 1a bc
       0.007742476 0.09565316 -0.051720444 -0.009459232
000270 dc b5 e9 37 c9 8c 92 ba 22 b9 65 bd 97 c3 b4 3c
       2.786045e-05 -0.0011180873 -0.05608476 0.02206592
000280 ab e0 e4 3b 8c e4 76 bd 97 bc f8 36 88 e7 81 3a
       0.0069847903 -0.060276553 7.4129307e-06 0.0009910921
000290 f2 c3 00 ba b9 73 a7 3c 4c e7 d4 bd 51 e7 17 bb
       -0.00049120106 0.020440923 -0.10395679 -0.0023178647
0002a0 11 12 a1 3d c1 92 3c b4 01 ff 97 ba 6a 72 84 bc
       0.07864774 -1.7562253e-07 -0.0011596383 -0.016167838
0002b0 20 89 67 bb 62 33 94 ba 94 cc 34 bd c0 63 9a bd
       -0.0035329536 -0.0011306817 -0.044140413 -0.07538557
0002c0 69 47 04 b9 93 a7 e9 3d ab b4 a5 3d fc ae 7d b5
       -0.00012615103 0.11408915 0.080911 -9.450448e-07
0002d0 c5 d2 16 3d 69 9a 22 3c f8 1b 43 bd 23 6f df 3c
       0.0368221 0.00992451 -0.047634095 0.027274674
0002e0 d0 ec 23 3d 0f 06 0a 37 be dc 71 3d d3 9a 03 3d
       0.040020764 8.226852e-06 0.059048407 0.032130074
0002f0 8a 6b 2d bd 60 92 96 3c 56 b0 23 3d bb ef af 3d
       -0.042338885 0.018380344 0.03996309 0.08590647
000300 11 15 91 bd ed bf d5 bd cb 48 00 bd 72 1a e8 38
       -0.07084096 -0.104369976 -0.03131942 0.00011067548
000310 8a 9e af bd c9 76 55 bc 3a 43 9f bd 78 7f a6 bd
       -0.08575161 -0.013028809 -0.07776494 -0.081297815
000320 fa fd a2 3c 0e 55 35 3d 13 c3 09 3b 5b 82 94 3d
       0.019896496 0.044270568 0.0021020814 0.07251426
000330 42 28 47 bc 91 79 e7 3a ed f8 a0 3d 34 e3 ba 3d
       -0.012155594 0.0017660131 0.07859979 0.09125367
000340 7f 62 91 3c 2c 29 c2 bd c1 5d 4b 3c d4 29 9c 3d
       0.017747162 -0.09480509 0.012412489 0.076251656
000350 9a c2 c9 3c a8 bf e7 bd 39 32 bb bc 91 bc 42 bd
       0.024628926 -0.113158524 -0.022851096 -0.047543112
000360 a2 66 cf bd 52 ee bb bd bb 16 87 3d 58 77 85 bd
       -0.101269975 -0.09176315 0.06596132 -0.06516904
000370 34 83 75 bd 0c fa 17 bd 74 05 2b ba 2c d9 70 3d
       -0.05993958 -0.037103698 -0.0006523945 0.05880086
000380 f3 d0 e7 bd 8c 93 1e bd 04 5f 8b bb 68 80 88 3c
       -0.11319151 -0.03871493 -0.00425327 0.016662791
000390 32 8c 5a bd b9 e9 82 bc a3 ec 50 bd f7 df 2a bc
       -0.053356357 -0.015980588 -0.051006924 -0.010429374
0003a0 ac 51 45 3d 5c 32 11 bd c8 4f 08 bb 95 8b 89 bd
       0.04817359 -0.035448417 -0.0020799506 -0.06716076
0003b0 18 5d 8a 3c 14 eb 85 bd 6c 63 38 3c 74 cc ea bd
       0.016890094 -0.06538978 0.011254173 -0.114647776
0003c0 e1 2b ff 3c 0b 4f de 3c 83 f6 a6 bd 1e a2 d7 ba
       0.031148853 0.0271373 -0.08152487 -0.0016451513
0003d0 b8 f0 73 bd 40 5f 2f bd 03 7b 27 3d 9d a0 63 bd
       -0.05955574 -0.042815447 0.040888797 -0.055573095
0003e0 67 00 60 3d 24 e0 3e 3d cd 2f d0 3d 54 95 ed bc
       0.054687884 0.046600476 0.10165367 -0.02900187
0003f0 ef a3 cb bd 9b 5a 87 3d 7e f4 3e bc 8e 81 00 bd
       -0.09943377 0.066090785 -0.011654971 -0.031373553

lstm.bias_ih_l0_reverse f4 [200]
000000 54 d9 d2 ba 5d 1d d0 3c ee b0 7f bd a2 03 c6 bd
       -0.0016086497 0.025404627 -0.062424593 -0.09668662
000010 1a a5 e9 3d 16 86 5d 3d b1 0b 80 3c 0c 0e 95 bd
       0.11408444 0.054082952 0.015630575 -0.0727807
000020 8f b2 cd 3d 44 64 0d ba 66 34 3d 3c 45 87 78 bd
       0.10043823 -0.0005393664 0.011548137 -0.060675878
000030 e4 09 ec bb 74 fc e4 3c 41 b3 13 bd 74 0b 7e 3a
       -0.0072033275 0.02795241 -0.03605962 0.00096910377
000040 63 5b 8f bd 98 f4 2c bd e9 e6 b7 bd a7 72 c1 3d
       -0.069998525 -0.04222545 -0.089795895 0.09445696
000050 af 4a 2d 37 35 1f 4d 3b cd ff 92 3d 07 94 da 3d
       1.0328992e-05 0.0031299118 0.071776964 0.10672765
000060 b5 09 e6 3d 6a 30 74 3d d4 ef ca 3a cd 9d f9 3c
       0.1123232 0.059616484 0.0015482851 0.030470753
000070 14 c9 2d 3d bf b8 56 3d 83 5f a7 bd ed 02 ad bd
       0.04242809 0.05242228 -0.08172514 -0.08447824
000080 b7 9a e5 bd 6e 28 91 3d e9 74 c6 3d fb eb 9e 3d
       -0.1121115 0.070877895 0.096902676 0.077598535
000090 73 27 13 3c 83 d3 24 b7 db 6a 29 bd f9 61 d2 3d
       0.008981573 -9.824408e-06 -0.04136167 0.10272593
0000a0 c6 eb 95 3d 94 3b 8d 38 af c6 dd bd 6e 4c b8 3d
       0.07320361 6.734501e-05 -0.108289115 0.08998953
0000b0 46 75 56 bd 7b 48 d9 bc 73 a6 b0 3d 69 4d 9d bd
       -0.052357934 -0.02652382 0.08625498 -0.076807804
0000c0 a7 8d 82 3d c1 59 3d 3d e3 75 2e bd 1e 38 e0 bd
       0.06374674 0.046228174 -0.042592894 -0.109482035
0000d0 85 74 85 bc 13 24 9f bd 64 38 df bd 2c be da 3d
       -0.016290912 -0.077705525 -0.108994275 0.10680804
0000e0 2c 69 e0 bc 37 e2 a7 bc 39 3a 73 3d bc ea e4 bb
       -0.0273939 -0.02049361 0.059381697 -0.0069859903
0000f0 e4 22 fd bb cd 67 b1 bd 5d 9d 7e bb a0 dc af bd
       -0.0077251066 -0.086623766 -0.003885112 -0.08587003
000100 d4 71 62 3d 57 e1 e1 bd e7 15 ad 3c c4 d4 ea bd
       0.055284336 -0.11029308 0.021128608 -0.11466363
000110 be 2f ba 3d e9 5e 6d 3d bf fc 95 3b 38 e9 97 b2
       0.09091137 0.05795184 0.004577249 -1.768477e-08
000120 51 84 d0 3c 0a 72 d4 3d 35 b6 b4 bd a5 ca 61 3d
       0.025453718 0.10373314 -0.08823816 0.055124898
000130 12 5d a3 b9 dd 99 be bc 82 48 da 3d 54 4f 9b 3c
       -0.00031159126 -0.023266727 0.10658361 0.018958725
000140 da 82 e9 bd 95 ed d0 bc b0 fc 15 3d 9e 2f 76 bd
       -0.11401911 -0.025503913 0.036617935 -0.060104005
000150 49 90 af bd f2 21 a4 bd 8c d8 10 3d 7b 30 42 bc
       -0.08572442 -0.08014287 0.035362765 -0.011852379
000160 64 6a 91 bd fc d5 45 3d be 02 24 3d a1 94 99 3d
       -0.071003705 0.048299775 0.040041678 0.07499052
000170 8a f9 ca ba 39 30 87 bd 47 7a fc 3b 19 3e a1 b2
       -0.0015485745 -0.066009946 0.0077050063 -1.8771106e-08
000180 69 b5 b1 3d 07 37 2d 3d b8 44 40 bd 88 2a 7e 3d
       0.08677179 0.042288806 -0.046940535 0.06205228
000190 31 a2 98 3c ae 05 c4 bc 5b 92 3b bc ae c6 fe bc
       0.018632026 -0.02392849 -0.011448468 -0.031100597
0001a0 9e b0 b1 3d 87 95 22 3d b0 f6 64 bb dd be da 3d
       0.08676265 0.03969338 -0.0034937076 0.106809355
0001b0 eb a6 6d 3d 8d 35 a0 3d 4d 99 90 ba 39 29 9a b7
       0.058020514 0.07822714 -0.0011032015 -1.8377426e-05
0001c0 4e 29 ea bd f2 9f 6e bd 30 7f 70 3d 0e 83 62 bb
       -0.114336595 -0.058258004 0.058715045 -0.0034562978
0001d0 60 9d 14 3d 74 97 9c bd 3c fb 9e 3d 8e be ca 3d
       0.036282897 -0.07646075 0.07762763 0.09899627
0001e0 2b 84 7e bd 42 1b e4 3d 6e 3d b0 3d da 1d be bc
       -0.062137764 0.111380115 0.08605467 -0.023207594
0001f0 bb b0 3b 3d 02 80 e2 bd f0 72 a5 ba 0d 9a 76 3a
       0.04582284 -0.11059572 -0.0012622755 0.00094071106
000200 ce 55 d5 3d e0 b4 bf 3d c1 04 9f bd 48 5d 03 37
       0.104167566 0.09360671 -0.077645786 7.829927e-06
000210 8a d0 8c bd 0a f5 61 3a ea b3 cc bd 2d 63 35 3c
       -0.06875713 0.00086195825 -0.099952534 0.011071009
000220 8c 83 12 3d 50 06 cd 3c a5 57 20 3d ec f4 d5 3d
       0.035769984 0.025027424 0.039146084 0.10447106
000230 9a 39 06 3c 83 f2 4d 3d c2 f4 f2 3c d9 3d b0 bd
       0.008192444 0.050280105 0.029657725 -0.086055465
000240 25 06 bd bd 86 d1 7d 3c 45 db 4d bc 0e 2b b6 3b
       -0.092296876 0.015491849 -0.012564485 0.0055593317
000250 02 f2 54 bc be 9b be 3c 70 7b cd bd 70 f7 4c ba
       -0.012997152 0.023267623 -0.100333095 -0.00078188535
000260 0a d0 1e bc ea 9e ea 3d a2 36 3b 3d a4 bc 40 3b
       -0.009693155 0.11456092 0.0457064 0.0029409314
000270 20 e9 7f bd c7 63 a0 bd af 4d bd bd a7 07 50 bd
       -0.062478185 -0.07831531 -0.092433326 -0.050788548
000280 da 56 d0 bd 02 4b 99 3d 9e 20 f3 3d 75 1f 58 bc
       -0.101728156 0.0748501 0.118714556 -0.013191094
000290 71 20 c8 bb fd 32 aa 3d 39 1c 09 bd 70 51 f8 3c
       -0.006107383 0.083105065 -0.03347418 0.03031227
0002a0 c2 e6 b7 bd 15 8c ce 3d 67 7e 21 bc 37 bc 07 3c
       -0.089795604 0.10085312 -0.009856797 0.00828462
0002b0 fc 2c e4 bd 60 4b 0c b4 20 36 c2 bb 78 5a 7f bd
       -0.111413926 -1.3065937e-07 -0.0059268624 -0.062342137
0002c0 43 3b e3 bd aa 4b 24 bd 35 a5 b4 3d 23 8f 41 bc
       -0.11095288 -0.04011122 0.08820573 -0.011813912
0002d0 08 94 9d b3 21 ec bc 3d 1c ce 92 3d 83 69 e7 3d
       -7.337809e-08 0.092247255 0.071682185 0.11299422
0002e0 8d 38 db 3d 08 b5 22 b7 36 d6 b1 30 73 9c e2 3d
       0.107041456 -9.698102e-06 1.2939327e-09 0.110649966
0002f0 3b ee 35 bd 73 b2 fa 33 f2 ab 30 bb 6b bb 43 3c
       -0.044416647 1.1673992e-07 -0.0026957956 0.011946539
000300 d9 00 1b 3c c3 11 25 bd 5d d9 eb 3c fb 01 2d b7
       0.009460651 -0.040300142 0.02879017 -1.0312065e-05
000310 9d 9a e4 b8 a5 c5 a7 3d ee e4 86 3d dd 04 a3 38
       -0.00010900686 0.081919946 0.065866336 7.7733515e-05
