src/model_checkpoint.pt (torch, 382867 bytes, 17 tensors)

lstm.weight_ih_l0 f4 [200, 33]
000000 ed 52 7b 1b 9c 1e 7e 3d b7 7b 0f bc 9f 3e 09 bd
       2.0789028e-22 0.06204091 -0.008757523 -0.033506986
000010 c5 79 a8 3c e2 e2 61 a9 c3 83 00 3d 8d 30 06 bd
       0.020565877 -5.0156826e-14 0.031375658 -0.032761145
000020 92 08 3b 3d a1 60 00 3c 2f f7 88 3c 08 49 63 bd
       0.04566247 0.007835538 0.016719429 -0.05548957
000030 20 e1 8a 3d 81 99 f9 bc 15 36 0c 3d 43 f6 cb bc
       0.067812204 -0.030468704 0.034231264 -0.0248977
000040 5a a8 69 39 e4 55 38 bc 65 e5 7e 3d 3b f8 8c 3c
       0.00022283327 -0.011250947 0.062230486 0.01720821
000050 7c 68 99 b7 7f 10 7b 3a 43 40 04 39 62 11 0b b6
       -1.8287676e-05 0.0009577348 0.0001261244 -2.0722732e-06
000060 69 48 e1 bb 48 e5 78 b8 32 eb 44 3b 95 54 32 3d
       -0.006875087 -5.9341342e-05 0.0030047414 0.043537695
000070 54 37 ba a0 cc 76 f4 3c bf 18 4e 3c ea 4e 18 3d
       -3.154624e-19 0.029841803 0.012579142 0.037184633
000080 17 70 87 ba 1c d0 ea 3d 2d 1f a3 3d 1c d6 c4 39
       -0.0010333088 0.11465475 0.07964931 0.00037543557
000090 4a 53 04 bd b0 52 8d bd 85 ff c6 bd 9e ca 09 bd
       -0.032305993 -0.06900537 -0.09716705 -0.033640496
0000a0 ba 6a e2 bb ae 0a 3f bc 97 1c b1 b9 f3 5c 87 bd
       -0.0069096955 -0.011660261 -0.00033781372 -0.066095255
0000b0 a6 f1 9f b8 df 27 c3 3c a7 8f 87 bd a5 a7 44 3c
       -7.626721e-05 0.023822723 -0.066191964 0.01200286
0000c0 83 1d 8c bc c4 11 5c 3d 75 63 7b 3d 39 6a 3d b8
       -0.017103916 0.05372788 0.061374146 -4.516004e-05
0000d0 fb 04 36 3d 78 35 25 3b 60 5d ea b7 39 49 d1 3c
       0.044438343 0.0025208872 -2.7938455e-05 0.02554761
0000e0 da db 6f 3c d7 8f b2 b7 8b 43 48 37 8d 8b d6 3c
       0.014639819 -2.1286234e-05 1.1936655e-05 0.02618959
0000f0 98 f0 15 bc e6 5f 28 bd f6 9b 85 3d 99 0a ac 39
       -0.0091516 -0.04110708 0.06523888 0.00032814292
000100 ea 15 02 33 7d 1b 40 3d b5 0f f5 ba 95 d1 5a ba
       3.0287914e-08 0.046901215 -0.0018696698 -0.000834727
000110 42 de a3 3c 7a 80 2a 3c b8 7e 5e bd e1 fb 65 bc
       0.020003442 0.010406608 -0.054320067 -0.014037103
000120 cb f3 b9 bc 06 15 22 3d 39 3b fc ba d6 b0 78 ba
       -0.022699257 0.03957083 -0.0019243724 -0.00094868
000130 a4 32 65 3b e5 0a b8 ba e4 91 8f b8 2d 5c eb bb
       0.003497281 -0.0014041333 -6.8459456e-05 -0.007182619
000140 ac 7d 97 ba 08 d5 6f 3d 25 cb 58 3d 32 95 74 bc
       -0.0011557839 0.05855277 0.05292811 -0.014928149
000150 54 91 2b 37 04 55 cf 3c 84 bc a6 bc e8 63 76 39
       1.0226231e-05 0.025309093 -0.020353563 0.00023497606
000160 bf 49 6f 3d 18 eb 7f bd ef 55 7a 3c 25 66 73 3d
       0.05841994 -0.062480062 0.015279277 0.059423584
000170 9d c5 23 3d 36 63 f1 3c c7 06 c8 b8 3a 4d 59 3a
       0.03998338 0.029466253 -9.5380055e-05 0.0008289401
000180 55 18 c5 bc 98 26 e1 3c 1d 81 a3 b8 56 cc 65 ba
       -0.024059454 0.027484223 -7.796495e-05 -0.0008766105
000190 f9 49 61 bc 55 54 2b bb 19 f8 92 bd c1 07 33 bc
       -0.013750547 -0.0026142795 -0.07176227 -0.010927142
0001a0 95 6f 65 35 58 9b 92 bd b8 5f 12 bc 9e d7 6d bc
       8.547152e-07 -0.07158536 -0.008933954 -0.014516739
0001b0 10 8e 2b 3c d9 2c f9 3c c4 72 84 3c 44 c9 26 3d
       0.010470882 0.030416893 0.016168006 0.040719286
0001c0 a9 f8 2c bd 41 32 00 38 e2 c4 f9 38 b0 ef e0 bc
       -0.04222933 3.056438e-05 0.000119099175 -0.027458042
0001d0 ab 80 bf 3c d1 87 03 bc 44 76 db bc a6 b8 78 39
       0.023376783 -0.008027987 -0.026789792 0.0002371991
0001e0 3f 37 96 bb f0 b4 0e bc 75 23 a2 b9 e3 cc 89 3a
       -0.0045842226 -0.008710131 -0.00030925465 0.0010513332
0001f0 1b 28 54 a8 de 4b 3e bc a1 17 fe 3c 4d 0d 84 bd
       -1.17770605e-14 -0.011614768 0.031017127 -0.064478494
000200 36 98 e6 3b d5 6e c5 20 59 77 a9 3c 60 77 69 3d
       0.007037188 3.344644e-19 0.020686792 0.05699861
000210 94 b4 10 bc 5f d9 cf 30 1b b7 8e 3d 80 20 cc bc
       -0.008832116 1.5123013e-09 0.06968518 -0.024917841
000220 67 a4 02 bb 6e 09 2e bd 07 59 20 b8 d4 b6 1e 3d
       -0.0019934417 -0.04248946 -3.8229886e-05 0.038748577
000230 26 9d 95 bd f5 1d 7c ae 33 d3 90 3d 2c 8b 8d 1f
       -0.07305364 -5.7324773e-11 0.07071533 5.9946063e-20
000240 45 25 51 3d d3 0a 25 3d 8d f8 25 ae 2e db 71 3d
       0.051060934 0.040293526 -3.7737414e-11 0.059046917
000250 50 7f 5d 9e 88 13 81 bc bb f2 05 32 98 17 ae bb
       -1.172597e-20 -0.015756384 7.796809e-09 -0.005312871
000260 be 1f 11 bd 8b 9b 1c bc 1b f6 67 3d ee 06 07 3d
       -0.035430662 -0.009558569 0.05663119 0.032965593
000270 61 b0 37 3b 82 3a 7a 3d 4d 6b db 3c 38 19 e0 bc
       0.0028028714 0.061090954 0.026784563 -0.027355775
000280 d9 66 70 bb 0a 0d 89 3d 78 02 7e 3c ac 36 e6 b1
       -0.0036682396 0.0669194 0.015503518 -6.7000965e-09
000290 9d 1b 5c 3d d5 86 b3 bc 71 ae 46 3d 21 1e ba b7
       0.05373727 -0.021914879 0.048506204 -2.2186958e-05
0002a0 e9 a9 67 3d c4 3f 5d 3d e6 b9 34 3d 04 f4 90 3c
       0.056558523 0.05401589 0.0441226 0.01769448
0002b0 ae d7 a7 b8 7d 6a 53 3d cd 25 9c bb 01 79 a7 ba
       -8.003354e-05 0.051615227 -0.0047652484 -0.0012777151
0002c0 87 bb 54 ba d0 23 d5 bc 9e 22 70 bd c8 63 8d 3d
       -0.0008115102 -0.026018053 -0.058626764 0.069037974
0002d0 72 b6 85 bd a7 50 90 bc e2 76 d1 3c c6 25 3a 3c
       -0.06528939 -0.017616583 0.025569383 0.011361545
0002e0 97 ab 2a bb 18 a0 11 bd 4e 0d 28 9e db c4 56 3c
       -0.0026042217 -0.035553068 -8.896597e-21 0.013108457
0002f0 50 10 82 3d 0a 4f 38 3d f3 00 52 3d 82 8d 1f 3c
       0.063507676 0.044997253 0.051270436 0.009738328
000300 26 f0 f1 bc d9 0d 78 3d b4 53 3b 3d 0b 6d 4d 3d
       -0.029533457 0.06056008 0.045734122 0.05015282
000310 98 8a 8d 3b 98 62 fb 2a 45 9c 4d a3 96 1f c5 bc
       0.0043195 4.465497e-13 -1.1146164e-17 -0.024062913
000320 b5 d1 99 bd c5 ed 90 ba 15 ba 92 bd df a2 65 3d
       -0.075107016 -0.0011057189 -0.071643986 0.05606353
000330 29 56 72 3d c8 26 c1 b8 c5 0a 0a 3c db 7b 31 3d
       0.0591642 -9.210181e-05 0.008425419 0.04333101
000340 7e c7 29 bd 23 d7 64 bd d9 1a 96 bd 93 cc 4c 9f
       -0.041450016 -0.055869233 -0.073293395 -4.33679e-20
000350 f8 9f ad bb 8e 04 9d 3c d6 03 84 3c ee 68 ca ba
       -0.005298611 0.01916721 0.01611511 -0.0015442648
000360 74 f9 25 1c d4 29 7a bd e1 dc d5 9f e2 cd 2a 3c
       5.491633e-22 -0.061075047 -9.057442e-20 0.010425063
000370 fc 0b 42 3a 0a aa 86 bd cd 6d 1e bd ca 72 05 3d
       0.00074022985 -0.06575401 -0.038678933 0.032580175
000380 81 06 65 1e 1a 17 23 bd 25 53 e3 37 57 13 eb 34
       1.2124504e-20 -0.039816953 2.7099226e-05 4.3786233e-07
000390 f2 10 23 3d b0 ad ca 3c 9e 67 ba 2d 6b d8 da 27
       0.039811082 0.024741024 2.1191767e-11 6.0741796e-15
0003a0 19 b4 8f 3d ce 63 41 a2 be c0 d9 3c b7 19 7e bd
       0.07016773 -2.6209214e-18 0.026581164 -0.062036242
0003b0 2b 5e 25 3d a2 c8 98 3d 59 8d 84 bd 9f 4a 5e b9
       0.04037301 0.07460143 -0.064722724 -0.00021199368
0003c0 72 b7 93 bd cf 8b 17 bc f1 eb 99 bc ef 68 8b ba
       -0.07212724 -0.009249642 -0.018789263 -0.0010636131
0003d0 51 3c 33 bd 51 f0 21 3d b9 95 80 36 ef 9c 23 3a
       -0.043758694 0.039535824 3.8321273e-06 0.00062413415
0003e0 2e 06 84 2e 98 af b0 bb 8e c8 c7 3b 71 f5 05 bc
       6.003763e-11 -0.005392026 0.006096906 -0.008176194
0003f0 d9 54 e1 3c 30 32 27 3a 83 dc 4e 9f 97 95 07 3c
       0.027506279 0.0006378023 -4.38046e-20 0.008275411

lstm.weight_hh_l0 f4 [200, 50]
000000 40 92 97 3a 4a bc e5 3c 67 ac 85 3d f0 b7 b2 3c
       0.0011563972 0.028043885 0.06527024 0.021816224
000010 bc e4 cf 3c ba b0 a6 3c 94 55 0b 3d 54 42 d4 bc
       0.025377624 0.020347942 0.03401716 -0.025910534
000020 f9 8d 92 bd 55 76 5b bc d6 fa 96 3d e5 df 9d a2
       -0.071559854 -0.013394912 0.07372062 -4.2791993e-18
000030 7d d7 61 23 2e f4 8e bd 17 5e 11 3b 8c c7 2b 3d
       1.2242906e-17 -0.06980167 0.0022181326 0.04193835
000040 9c f4 c1 b4 03 63 79 3d 43 3a 2c bd 61 0d 5c bd
       -3.6127028e-07 0.06088544 -0.04204775 -0.053723697
000050 36 0c 16 bc 47 a9 94 bc bb cd d9 bc 61 da 9d 3b
       -0.009158185 -0.018147124 -0.026587358 0.0048172926
000060 c3 dc dc b9 69 e5 bb 3b 06 a1 96 ad 82 97 92 9b
       -0.0004212615 0.005734135 -1.7124534e-11 -2.4251584e-22
000070 25 56 79 3c 09 11 95 bd d8 a2 7f b5 bb 42 14 bd
       0.015218292 -0.0727864 -9.523187e-07 -0.03619645
000080 0c 10 99 3d c1 c1 9a b8 00 7c 12 3c a8 87 18 3d
       0.07473764 -7.379382e-05 0.008940697 0.037238747
000090 3d b5 06 3d 61 72 2d b4 8a 0b 68 3c 50 cf 98 bd
       0.032887686 -1.6153491e-07 0.014162907 -0.07461417
0000a0 01 f5 bb bb 5d 7e 04 3d c2 45 7e bd de 77 0c bd
       -0.005735994 0.032347072 -0.062078245 -0.034294
0000b0 c7 25 3b 3d 6c 36 eb bc 22 b2 1d 3d 9a 68 3d 3a
       0.045690324 -0.028712474 0.03849996 0.00072253647
0000c0 c8 4a 9c 3c 33 b6 88 3d 54 30 4f bd 3d 13 22 3d
       0.019078627 0.06675377 -0.0505832 0.03956913
0000d0 c8 5c 53 3c 5f c8 b2 1d dc c2 48 bd 88 98 81 3d
       0.012900539 4.7323387e-21 -0.049013957 0.06327921
0000e0 9c 28 92 bd 8f 57 32 3d ee c2 28 bd 7b 18 85 bc
       -0.07136652 0.043540534 -0.041201524 -0.016247025
0000f0 1f cb 5b bd 66 5b 87 bc 3a ce ba b7 0a 78 89 3c
       -0.05366051 -0.016523074 -2.226896e-05 0.016780872
000100 30 33 82 bd e2 a0 67 3d 8d 7e 7b 3d 53 0b 8f bc
       -0.063574195 0.056549914 0.061399985 -0.017461454
000110 ac 19 ce bc c3 aa 29 3d 15 a9 19 3b b1 fc 96 bc
       -0.025158726 0.041422617 0.0023446728 -0.01843104
000120 d2 ce c6 3c 0c a8 ba 3b 82 0a 91 b7 cf c4 b9 b7
       0.024268541 0.0056963023 -1.729024e-05 -2.2145365e-05
000130 4d a3 a1 bc 70 ac 85 bb 69 fb 00 3d 60 20 33 3d
       -0.019731188 -0.004079394 0.031489763 0.043732047
000140 9e cb 95 3d b5 34 ff ba bc 0c 57 37 fb 3b 3a 3d
       0.073142275 -0.0019470664 1.2817964e-05 0.045467358
000150 65 d8 4c bd 4f 7f b9 bc 06 f1 0a 3d 97 0a bc b9
       -0.050011057 -0.022643713 0.033921264 -0.00035866044
000160 51 8f 76 39 41 34 db bb 98 04 29 3b f5 25 b6 3c
       0.00023513778 -0.0066895788 0.0025790092 0.022234896
000170 86 8f 0b 3d da 05 d7 3c 74 96 b9 b7 f3 29 31 bd
       0.03407242 0.026247907 -2.2123779e-05 -0.043252897
000180 82 1b c3 ba d7 63 6c 3d 99 3f 5a bd 54 05 a5 bb
       -0.0014885517 0.057712402 -0.053283308 -0.0050360356
000190 46 4d 22 bd e8 f9 be bc 14 8b 9c b8 c8 3e 0e 3d
       -0.039624475 -0.023312524 -7.464565e-05 0.03472784
0001a0 4d 34 bb bc 1b 22 67 3d fc 51 8b b8 d1 42 03 b7
       -0.022852087 0.05642901 -6.643307e-05 -7.823765e-06
0001b0 87 82 0c bd 72 97 68 bb 5a 61 00 3c 18 3e 46 3c
       -0.034304168 -0.003549066 0.00783571 0.012099765
0001c0 10 ac 21 bd c8 c4 08 bc bb 45 27 bd 94 11 b2 bc
       -0.039470732 -0.008347698 -0.040837985 -0.021736898
0001d0 59 b4 42 bd 6a 98 12 bd af 0d 98 3c 89 86 c5 b5
       -0.047535274 -0.035789885 0.018561212 -1.4716799e-06
0001e0 49 54 e1 38 2c 68 6f bd 33 d5 97 b8 b9 92 64 bc
       0.000107445354 -0.058448955 -7.2399525e-05 -0.013950997
0001f0 c3 63 54 3d da 40 94 bd 28 0a a8 bc 69 f4 8b bd
       0.051852953 -0.07238932 -0.020512655 -0.06833727
000200 e2 75 50 3d 6b 61 2a bc 44 00 6c bc 40 bb 87 bd
       0.05089367 -0.010399203 -0.01440436 -0.06627512
000210 25 8c 45 3d c2 82 a6 9c 48 56 3b 37 73 38 21 3d
       0.048229355 -1.1018759e-21 1.11661575e-05 0.039360475
000220 5d 33 d0 3c b8 31 2c 3d 50 13 24 39 cd b6 8c 3d
       0.025415117 0.042039603 0.00015647453 0.06870804
000230 cb a1 80 3c 28 a5 dd ba ea c2 88 3d 0e fc 1f 3c
       0.015702149 -0.0016910182 0.06677802 0.009764684
000240 4a 68 fe bc d1 c3 c1 38 de f1 1f 3d a3 ca ea 3c
       -0.031055588 9.239431e-05 0.039049022 0.028661078
000250 cc 76 89 bb 01 e8 f5 bc fd 34 d9 3c 9e 23 3e 23
       -0.00419507 -0.030017855 0.026514525 1.0307463e-17
000260 41 5a 8b b9 3b 45 3a 20 09 6b 80 bd a0 e1 9c ba
       -0.0002657939 1.5777719e-19 -0.06270415 -0.0011969097
000270 26 bc 65 3d 7d 99 2d bd 41 63 3c 3c 10 d9 26 3c
       0.056087635 -0.042382706 0.011498273 0.010183588
000280 2b 2a 42 ab 77 0e b0 bc 27 a0 1b bd 4c 9d f5 3c
       -6.8981165e-13 -0.021491272 -0.03799453 0.029982232
000290 53 c3 2e bd eb 9b 05 3d f9 7d 99 3d 3b c8 37 1c
       -0.042666744 0.032619398 0.074947305 6.0808413e-22
0002a0 54 8b b9 1d 6d b7 b0 3b 8f bc 4e bc 5b fb 0b bb
       4.9113154e-21 0.00539296 -0.012618198 -0.0021359536
0002b0 be 8c d4 3c 82 24 2a 3a ff c1 f8 3c 80 36 88 b9
       0.025946017 0.00064904254 0.030365942 -0.00025980547
0002c0 46 06 99 bd d4 62 0f 3d 8a 39 95 bc 7e 66 1a 3d
       -0.074719 0.03500636 -0.018215913 0.0376954
0002d0 b2 08 ae 3c 67 e5 00 3c d0 ce 54 bd fc 70 95 3c
       0.02124438 0.007867194 -0.051955044 0.018242352
0002e0 7e 65 ab bc 70 f5 2d bd 92 e4 5a bc 88 2f 67 bd
       -0.020922419 -0.042470396 -0.0133601595 -0.056441814
0002f0 d7 ae fc bc 7a 1c 8e b0 10 f8 84 bd 29 ad ec b8
       -0.030845089 -1.0339953e-09 -0.06492627 -0.000112856105
000300 66 6f dd 3c ff 70 94 3d 85 3c 94 bc 8b c1 bf 3b
       0.027030658 0.07248115 -0.018095264 0.0058519295
000310 a2 25 73 bd 41 7d 8c 3c 47 41 80 3d 00 1c a6 9d
       -0.05936206 0.01714957 0.06262451 -4.3968785e-21
000320 d0 2c fa b7 cc d0 35 31 8f e4 37 3d 5d 62 11 bd
       -2.982319e-05 2.6457654e-09 0.044895705 -0.035494197
000330 f5 7e 5b a7 69 46 dd 3c 09 2d 9e 3c 54 bf 48 bd
       -3.0461179e-15 0.027011113 0.019308584 -0.04901059
000340 c9 90 46 3c 38 91 f0 3c bc 4c 99 bd 51 33 8e 3d
       0.01211948 0.02936612 -0.07485339 0.069433816
000350 89 8e 02 3a 09 5f 0c bd a2 41 77 bd c5 42 28 3b
       0.0004980346 -0.03427032 -0.060365327 0.0025674563
000360 6d 2c f1 bc f7 c8 21 b3 24 2a 54 bd cb 0c bd 3a
       -0.02944013 -3.766851e-08 -0.051798 0.0014423368
000370 94 3a fe bc c9 56 2d bc dc 38 97 bc bd 8b 93 bc
       -0.031033792 -0.010579773 -0.01845973 -0.018010968
000380 c9 8f 90 3d 3d ac 76 bc 2f 78 7e bc ce 32 a8 3c
       0.07058675 -0.015055713 -0.015531584 0.020532038
000390 4e e3 31 39 ea 2d 4d b0 9e 99 81 bd 38 5f f8 3c
       0.00016964713 -7.4643813e-10 -0.06328128 0.030318841
0003a0 4b c9 e5 bc f6 e2 46 3d 60 28 60 bb 04 aa a4 3b
       -0.028050086 0.04855629 -0.0034203753 0.0050251503
0003b0 ab 92 24 3d ad ff 68 bd ad 02 7f 3d e9 83 51 33
       0.040178936 -0.056884456 0.06225841 4.8781576e-08
0003c0 b1 3d c3 38 a6 7f 02 3d 54 4c 90 3d c9 27 4f aa
       9.3098155e-05 0.031860016 0.070458084 -1.8399097e-13
0003d0 c3 0e 89 3d 14 af 2d 2f 65 a2 80 3c 19 ca 81 9f
       0.06692269 1.5796459e-10 0.015702436 -5.496797e-20
0003e0 62 b3 0c a3 fc c9 8e 3d 16 5e 49 3d 4c 24 68 bd
       -7.627401e-18 0.06972119 0.049161993 -0.05667524
0003f0 48 b6 01 bd 7c 90 07 bd c4 56 d4 bc fc 31 71 bd
       -0.031667978 -0.033096775 -0.02592028 -0.05888556

lstm.bias_ih_l0 f4 [200]
000000 c7 46 df 3b 21 5a 1a 3d 12 c2 af bc cc bd 7c bb
       0.0068138572 0.03768361 -0.021454845 -0.0038565276
000010 51 49 5c 3d 62 da 78 bc af bc bc 3c 05 27 82 39
       0.053780857 -0.015188785 0.02303919 0.00024824604
000020 3f 73 37 b7 bc e0 15 bd e8 8e 10 3d bd b8 18 3d
       -1.0934483e-05 -0.036591277 0.035292536 0.037285555
000030 39 c9 d0 bc d6 0a c5 b7 15 14 66 2c 0d 27 c3 bc
       -0.025486575 -2.3489276e-05 3.2696114e-12 -0.023822332
000040 ae 72 82 3a 6f 50 94 bd fd ad 90 3d fb 45 85 3d
       0.000995239 -0.07241904 0.07064436 0.06507488
000050 9c ab 94 3d 9e ce 88 bc e6 40 6d bd 93 d9 2b b7
       0.072592944 -0.016700085 -0.05792322 -1.0243052e-05
000060 73 40 1b 3c 7f 5f d8 3d 34 f3 58 3d c0 09 ba 3c
       0.009475815 0.105650894 0.05296631 0.022709727
000070 dd ab 39 3d bc 32 26 bc 14 e1 48 bb 8b 87 40 3b
       0.045329917 -0.010143932 -0.0030651735 0.0029377665
000080 6a 3f 67 3d 85 92 2e bc 7a 8f ad 3d ae d0 98 ba
       0.05645696 -0.01065505 0.084746316 -0.0011658871
000090 55 21 87 3d 3e e4 b5 3a fc 92 1c 1d ba 79 3f ba
       0.065981545 0.0013877226 2.0722417e-21 -0.00073042104
0000a0 93 4b e4 3c a9 80 a9 3d a9 63 98 3d 1c df b1 3b
       0.027868068 0.08276493 0.07440884 0.005428208
0000b0 24 83 3f bd 64 b6 25 3d 30 fa cb 3b 6d 89 23 36
       -0.046755925 0.040457144 0.006224893 2.4368885e-06
0000c0 37 54 41 bd b0 ff 2f 3d 18 3f 55 bd e7 1f a9 3d
       -0.047199454 0.042968452 -0.052062124 0.08258038
0000d0 7e 4a 7a b5 55 a4 a7 bb a5 3f 1b bc d3 fe 05 bd
       -9.324066e-07 -0.0051160255 -0.009475623 -0.032713722
0000e0 ed 6f 54 bd 4c bb 5a 9f 97 ab a1 bc e7 fd bb bc
       -0.051864553 -4.6318224e-20 -0.01973514 -0.022948219
0000f0 e5 1b 4e 3d f3 89 dc 35 7a f6 07 3d c0 0b 2f 3d
       0.05031957 1.6431426e-06 0.033194043 0.042735815
000100 ca 8c f8 30 9c 48 05 3c 29 8a b5 bc 7e 4f ab b7
       1.808439e-09 0.008134987 -0.022160606 -2.0421805e-05
000110 41 23 f0 bc 5b 29 07 bd 2d f1 41 3d 2f df 85 bd
       -0.029313685 -0.032998424 0.047349144 -0.065367095
000120 c3 7a ce 3a 6f 18 9a 3d 8e 0a 59 3d df 15 65 3c
       0.0015753139 0.075241916 0.05298858 0.013982265
000130 1e d9 0b 3d 70 33 55 3a 62 b3 1a 3d ea 3f 6d 33
       0.034142606 0.000813297 0.03776873 5.5238992e-08
000140 70 33 2f bc a0 c1 64 3c d9 54 c2 3c 25 d0 4f 1e
       -0.010693416 0.013962179 0.0237221 1.1001532e-20
000150 1d 1b 18 3d 91 dc 16 25 fc 01 c5 38 74 26 fa bc
       0.037135232 1.3085157e-16 9.3940616e-05 -0.030535914
000160 df d4 82 3d f4 a0 10 bd ae 05 d1 3c ee d0 88 bd
       0.06388258 -0.035309747 0.025515404 -0.06680475
000170 88 4c 9d 3a ce 9a 20 b8 f6 9b 43 bd ce 78 80 3d
       0.0012000958 -3.8291146e-05 -0.047756158 0.06273042
000180 04 af 1a bd 46 87 a0 bc a5 fe c4 3c f8 7d 91 3d
       -0.037764564 -0.019595753 0.024047205 0.07104105
000190 8f e1 a9 ba 9b a2 5c bd 12 b3 ab bc fe 92 bd bc
       -0.0012960898 -0.05386601 -0.02095941 -0.02314138
0001a0 5e cb 36 bd c9 c9 4d 3d 46 4f 2f 3d 81 d3 69 bd
       -0.04462754 0.050241265 0.04280021 -0.05708647
0001b0 4e 03 f1 3c 7f f6 20 bd ab 32 ae b5 79 a5 e2 bc
       0.029420521 -0.039297577 -1.2978757e-06 -0.027666794
0001c0 4a 6e f9 3c 72 34 d7 ba 63 12 98 3d 68 c3 0a 3a
       0.030448098 -0.0016418828 0.07425382 0.00052934
0001d0 01 26 95 3c 57 45 43 3d 4c a4 f4 ba 86 9c 4b bd
       0.018206598 0.04767355 -0.0018664687 -0.04970982
0001e0 ec 34 52 3d 25 bc 89 3c 63 97 8a bd 4f 4e 76 3c
       0.05132 0.016813347 -0.06767156 0.015033319
0001f0 6c 31 35 3b e8 bd b1 b7 cb 70 e2 25 bf a4 36 bc
       0.0027647866 -2.1188476e-05 3.9281182e-16 -0.011147677
000200 e5 88 04 37 1b 2a 03 3d ba 3f 82 bb 85 b1 48 b9
       7.899686e-06 0.032022577 -0.003974882 -0.00019139618
000210 67 82 e5 b6 c4 2c f0 3c d6 1c 14 b7 e7 1b 61 3b
       -6.8399127e-06 0.02931822 -8.828201e-06 0.0034348906
000220 24 c6 18 bd e3 2f 2d 3d 12 4c 2f b2 38 50 77 bb
       -0.037298337 0.042281996 -1.0203637e-08 -0.0037737023
000230 35 02 25 3c 56 57 90 3d dd 00 bc bc 60 ed 52 3c
       0.010071327 0.07047908 -0.02294963 0.012873977
000240 40 24 8d bb 47 b2 39 bb a6 3a e1 bd 7b 37 78 3a
       -0.0043073 -0.0028335021 -0.109975144 0.00094687165
000250 a0 05 8d 3d da 9b 84 bd 4c 6c 0a 3d 00 e0 b3 3c
       0.068858385 -0.06475039 0.033794686 0.021957397
000260 0e f4 f6 bc 68 20 04 bd b6 fa 91 bd b4 75 55 35
       -0.030145671 -0.032257468 -0.071278974 7.9519964e-07
000270 ff fe f8 b4 59 40 00 bd 0d 2d 59 3d f6 06 85 3d
       -4.6379134e-07 -0.031311367 0.05302148 0.06495468
000280 d8 d7 20 3d 5a 2c 09 bd 2a a4 89 bd 91 ea 34 3d
       0.039268345 -0.033489563 -0.06720765 0.044169012
000290 3a 39 83 bd 4d 04 4f b4 18 fc ec bc 31 c5 12 3d
       -0.064073995 -1.9279942e-07 -0.028928801 0.035832588
0002a0 64 91 07 3d a5 0a 52 bd 22 fe 02 bd 66 f4 5c bd
       0.03309764 -0.051279683 -0.03198064 -0.053944014
0002b0 87 cc 5f bd e8 50 74 3c 3f a5 86 3d b9 95 1d 3d
       -0.05463841 0.014911868 0.06574487 0.038472865
0002c0 d8 f6 d5 b4 1f 4e 65 bd 8e d8 2f 3d 28 f4 6d 3d
       -3.9853944e-07 -0.055982705 0.042931132 0.058094174
0002d0 d0 65 bf 3d 04 6b 88 3c 40 c9 a8 ba 84 cd fd 3b
       0.09345591 0.016652592 -0.001287736 0.0077454466
0002e0 83 ae a8 bd a0 52 8e bc 0c 92 ea bc da 30 34 bc
       -0.082364105 -0.017373383 -0.028634094 -0.010997975
0002f0 9a b1 74 b4 ee 65 f0 bc 79 db 4d 27 7a 75 65 22
       -2.2788882e-07 -0.029345479 2.8568441e-15 3.1097479e-18
000300 c1 9c c3 3c c3 84 1d bd 84 14 89 bc 1f 81 5d bc
       0.023878457 -0.03845669 -0.016733415 -0.013519554
000310 c3 7b f6 bc bb d3 3b bd 42 89 b5 bb 33 2f 8d 3c
       -0.030088311 -0.04585622 -0.005540044 0.01723442

lstm.bias_hh_l0 f4 [200]
000000 6e 2e e2 1c 62 0b 98 bd fa ad 48 bd 46 e5 79 3b
       1.4967427e-21 -0.07424046 -0.048994042 0.0038131042
000010 72 3e 76 1a 04 5e a4 36 08 80 20 39 4d 41 31 3d
       5.092205e-23 4.8985257e-06 0.00015306484 0.043275166
000020 8a c3 39 3c 96 5b 87 bd 87 78 31 bc b0 35 86 b1
       0.011338124 -0.066092655 -0.010831959 -3.906017e-09
000030 b8 18 d4 39 6f 09 55 35 d3 a5 c5 bc 2c 39 4f bd
       0.00040454208 7.936241e-07 -0.024126923 -0.050591633
000040 6a ae 29 3c 18 bf 7a bd 0f d1 69 bc f5 37 27 bd
       0.010356525 -0.061217397 -0.014271035 -0.04082485
000050 a8 d5 fc a0 f5 e2 e7 3c 2d d1 3a bd 1a c5 37 ba
       -4.2831846e-19 0.028306464 -0.04560964 -0.00070102664
000060 4f 9a cb 3c c4 ae ee 3d 9a 77 29 b9 3d 83 4b bd
       0.024853854 0.11654428 -0.00016161651 -0.049685705
000070 26 b0 39 bc 7e e3 75 34 9c a0 84 3d 97 d7 a6 bc
       -0.011333501 2.2900164e-07 0.06475946 -0.020366473
000080 05 a2 75 bd 74 07 89 bb 21 5c 9f 3d b1 ca 28 3d
       -0.059968967 -0.0041817967 0.07781244 0.041208927
000090 69 fc 0c bd 96 c8 8a bd 0d d5 0d 3d 48 7e 7d 3d
       -0.034420405 -0.0677654 0.03462701 0.06188801
0000a0 48 0f 27 ba 8b b1 ac 3b b1 69 45 3b 8d 94 32 3a
       -0.00063728215 0.005270188 0.0030122811 0.0006812297
0000b0 64 f9 c2 3a 2d e8 3a bb b5 06 4a 3c 04 f1 5e bd
       0.001487535 -0.0028519735 0.012330701 -0.05442907
0000c0 c0 b2 71 bd af 9e 35 3b 5a 3b 5f b4 93 c2 32 bd
       -0.05900836 0.002771299 -2.0790085e-07 -0.04364259
0000d0 e7 af 7f 3c 94 1e 98 ba 12 06 59 37 1d 19 f6 bc
       0.015605903 -0.0011605793 1.2935621e-05 -0.030041272
0000e0 2b 93 61 3d 45 ef 35 3b 0d a3 6e 3d 8b 6b 4b bc
       0.05507199 0.0027761024 0.058260966 -0.012415777
0000f0 bb 83 2f 3d cd d3 02 bd b8 34 e7 3b 1f a5 22 bb
       0.042850237 -0.03194027 0.007055845 -0.0024817658
000100 2e de 6f 3d 20 b9 da bc 38 94 61 3c 4f 76 b0 27
       0.058561496 -0.026699603 0.013768248 4.8978084e-15
000110 b9 43 14 bc 25 6d 66 3d d8 a9 e3 b4 dd 58 94 bc
       -0.009049349 0.056256432 -4.2405622e-07 -0.01810878
000120 00 6d d4 b9 9f 26 ae 39 d8 26 16 a8 98 00 b0 3c
       -0.00040517002 0.0003321664 -8.335096e-15 0.021484658
000130 e7 db 46 3c ad a6 3e 3d b6 5e 2c 3d b4 a5 09 3d
       0.01213739 0.046545673 0.04208251 0.033605292
000140 a1 68 f6 bc cb 16 d6 37 ef d5 6c bd 80 dd a3 3c
       -0.030079188 2.5521402e-05 -0.05782121 0.02000308
000150 e6 c6 ba 3d ff 23 69 bd 45 14 f1 bc ae ca d6 3c
       0.09119968 -0.056919094 -0.02942861 0.026219692
000160 85 ea 46 3d 6c c7 85 3d e2 ae b7 3c fa e3 0b 26
       0.0485635 0.06532177 0.022422258 4.853428e-16
000170 53 c5 2f 3b f0 e1 8e bd c7 1f 38 bd 2f 97 07 ba
       0.0026820495 -0.06976688 -0.04495218 -0.00051723694
000180 23 66 5f bd 61 b2 53 b5 09 a7 01 bd 94 de 11 3d
       -0.054540765 -7.88632e-07 -0.031653438 0.035612658
000190 a8 10 23 3c c0 71 94 3d 2a 17 00 bb d4 9c 1a 3d
       0.009952702 0.072482586 -0.0019545057 0.03774722
0001a0 af dd 3c 3d f7 e9 33 bd f0 03 7c 3d 94 f0 b0 ba
       0.04610985 -0.0439243 0.061527193 -0.0013499432
0001b0 b0 18 e5 b7 f5 14 cd 3d 64 a7 0c 3d 01 06 46 bd
       -2.7310423e-05 0.10013763 0.034339324 -0.04834557
0001c0 7f e9 24 a2 99 f7 b3 af dc 22 02 be 82 d8 9a bd
       -2.2349756e-18 -3.273584e-10 -0.1270861 -0.07560827
0001d0 6a dd 37 bc 51 8e b2 3c 34 56 30 bd 96 8d f0 9a
       -0.011222223 0.021796377 -0.04305096 -9.949042e-23
0001e0 63 aa 15 bd 07 e3 27 bc 84 4b a5 ba 89 01 06 3d
       -0.036539447 -0.010246999 -0.0012611006 0.032716308
0001f0 ce 6a 2a bd b7 11 1f 38 b1 01 41 3c 48 da 37 3d
       -0.041605763 3.7925052e-05 0.011780188 0.044885904
000200 b0 b1 86 bd 15 1e f6 bc 4c 0e a3 3c 0e d4 09 3d
       -0.0657686 -0.030043641 0.019904278 0.033649497
000210 9a f6 4f bd dc e7 06 3d 6f 2f 16 3c e2 ce d1 3b
       -0.050772287 0.032935962 0.0091665825 0.006402836
000220 e1 6c 15 ba 3b 1f 3d 34 96 25 2c 3d 2d 8d 9b 3c
       -0.0005700123 1.7613358e-07 0.042028032 0.018988216
000230 09 bc f9 3c 69 d6 8b 3d 11 47 6c bd aa 63 4a aa
       0.03048517 0.06828005 -0.05768496 -1.7975782e-13
000240 ba 2c d2 32 6f 83 d2 bc 48 bd bb 3d d4 47 63 bd
       2.4467557e-08 -0.025697438 0.09166962 -0.055488423
000250 d8 8c 2f bc a6 db cd 3c dd 85 89 3b 50 f4 da bb
       -0.010714732 0.02512915 0.004196866 -0.0066819564
000260 13 0d 9c 3c e4 07 86 bd a1 56 1b bd d5 d7 b9 39
       0.019049203 -0.06544474 -0.037924413 0.00035446757
000270 24 19 75 3d cd b2 3e ba 03 14 88 bc 5c 78 a3 bd
       0.05983843 -0.0007274568 -0.016611105 -0.07981941
000280 1e 3a 83 bd 22 7c 81 3d af d1 07 3d 20 ad 82 b2
       -0.06407569 0.063225046 0.033158954 -1.521272e-08
000290 3e 87 f5 34 02 85 94 3c 55 ca 23 bd a3 fb 93 bc
       4.5733208e-07 0.01812983 -0.03998788 -0.018064326
0002a0 06 d7 70 3c c7 7f e7 bc 07 43 0e bd be ae b1 3c
       0.014699703 -0.028259171 -0.03473189 0.021689769
0002b0 8e e3 8b 3d 41 5e c2 3c 93 ec 10 bc 83 bc 2d bc
       0.06830512 0.023726584 -0.008845466 -0.010604027
0002c0 ab 5c 1f 3d 7e 88 85 3d 75 b5 9b 3d b0 c9 f3 bc
       0.038906734 0.065201744 0.076029696 -0.029759258
0002d0 aa 75 f0 3b b0 73 97 bd 76 7e a6 bb b8 fd f8 33
       0.0073382454 -0.073951125 -0.0050809933 1.1594551e-07
0002e0 7e 04 dd 3b e8 1b 81 3d 75 ac aa bc a0 b5 33 3c
       0.0067449203 0.06304151 -0.020834187 0.010968596
0002f0 15 81 e0 3c a2 8d 10 bb 9d 32 89 bd 09 92 53 bd
       0.027405301 -0.0022057076 -0.06699107 -0.05165294
000300 b0 39 67 bd 25 f0 9a 3c 20 71 ce bd d3 a7 ac bc
       -0.0564515 0.018913338 -0.10080171 -0.021076119
000310 a9 5a 53 bd 11 00 c5 bc 37 a3 4a 3c 41 c6 a5 3d
       -0.051600132 -0.024047883 0.012368015 0.080944546

lstm.weight_ih_l0_reverse f4 [200, 33]
000000 9b 9f 12 2f 52 d3 5b bc 12 5e 3c bc 43 4c d2 3a
       1.3335326e-10 -0.013417082 -0.0114970375 0.0016044456
000010 ed a4 93 34 36 a0 48 2f c9 21 79 bb 93 b5 33 bd
       2.7500883e-07 1.8246812e-10 -0.0038014522 -0.043874335
000020 54 de 53 3d 6d 26 aa bb 0e f4 a8 3c d1 2d 58 3d
       0.0517257 -0.005192569 0.020624187 0.05277807
000030 e6 92 14 bd 62 36 d9 bb c8 b2 a1 bc a6 5d e2 bb
       -0.036272906 -0.0066287974 -0.01973857 -0.0069081364
000040 ec ee 45 3d 35 39 66 3d 76 fe 1e 39 1f a8 4e b8
       0.048323557 0.0562069 0.00015162848 -4.9270802e-05
000050 eb cd 2e 3d 9f 11 96 bb 3f 3a f3 3c a1 32 8b bc
       0.042676847 -0.0045797373 0.02969086 -0.016991915
000060 57 af 14 3d 00 6b c1 bc 8a 3f 74 bd 39 80 12 3d
       0.03630003 -0.023610592 -0.059630908 0.035766814
000070 d7 b6 4d bd 33 cc 5a 29 59 40 14 bd b3 c8 2a bc
       -0.050223198 4.858284e-14 -0.03619418 -0.010423827
000080 da 2d ac a8 17 bb 53 3d a1 aa 43 bd 4e 04 fe 39
       -1.9115721e-14 0.051692095 -0.047770146 0.00048449863
000090 73 f3 8f bd b3 46 09 bd 1c b7 09 3c 80 ea 50 bd
       -0.07028856 -0.03351469 0.008405473 -0.051004887
0000a0 fa 1c b5 3d 74 f9 fb bd cb 03 9e 3b 49 77 51 b7
       0.088434175 -0.12303439 0.0048222295 -1.2485144e-05
0000b0 81 1f 3a b7 86 b9 82 3d 66 70 24 3d 67 b2 b9 3c
       -1.1093799e-05 0.06383042 0.040146254 0.022668077
0000c0 0a 55 06 bb 58 af 9f b9 ce ff 81 bd 98 68 a9 39
       -0.0020497465 -0.00030457485 -0.06347619 0.0003231212
0000d0 93 ca f3 3c d6 d3 13 b9 2b 03 9c 3c 18 87 2f 3c
       0.02975968 -0.00014097927 0.01904448 0.010713361
0000e0 88 ea 1f bd 07 0a 60 3d 94 4d 9a 3d 73 1b 45 b6
       -0.039042026 0.054697063 0.07534328 -2.9371265e-06
0000f0 3a 3a 90 3d 51 4c 66 bd 01 0b 1d 3b 8f 4d 38 bc
       0.07042356 -0.056225125 0.0023962858 -0.01124896
000100 47 24 47 b7 19 12 1e 2e bd a1 8e 3d 09 c3 a7 33
       -1.1869771e-05 3.5941115e-11 0.06964443 7.81202e-08
000110 60 dd 2b bb cb 29 41 3a 22 6c 94 bd c5 0a 23 b6
       -0.002622448 0.00073685934 -0.07247187 -2.4295161e-06
000120 8a 29 86 bc d2 d3 95 bd 35 8e 89 3c bc 76 7f bc
       -0.01637723 -0.07315792 0.016791442 -0.015592273
000130 bd 4f 22 3b c5 a3 6c bd 8b 36 73 3d b0 31 f6 3c
       0.0024766766 -0.05777337 0.059378188 0.03005299
000140 93 fa db 3c 8f 7b 61 bc 14 d2 a1 bc f0 b1 21 29
       0.026852882 -0.013762369 -0.019753493 3.5903518e-14
000150 95 83 0b 3d 29 62 dd a7 de 04 3a 3d ef f6 a1 3b
       0.034061033 -6.1446248e-15 0.045414798 0.004942767
000160 cb 2c de 3b d3 c2 30 a0 eb d6 d7 1d 7d d7 a5 3c
       0.006780242 -1.4972242e-19 5.7132246e-21 0.020244354
000170 e2 1e 54 bd b7 69 9c 3b 55 80 8e 3d a3 8b 01 bd
       -0.051787265 0.0047733444 0.06958071 -0.03162731
000180 07 75 0b bc 51 c2 ec bc 64 7d 60 bc 3d 68 13 bd
       -0.008511788 -0.028901251 -0.01370177 -0.03598808
000190 88 13 76 3b bb da 5b 3d 0b 0f 9a bd e4 04 4d bd
       0.0037548263 0.053675395 -0.075224005 -0.050053492
0001a0 bc 07 72 1e f2 9f b8 bc c4 98 61 3b 93 29 fb 3c
       1.2812973e-20 -0.022537205 0.003442333 0.030659473
0001b0 34 44 e3 3c a9 50 89 3d 61 3e 90 3c a0 16 7b bc
       0.027742483 0.06704838 0.01760787 -0.015325218
0001c0 ae a0 9e a8 56 5f ec 3c b0 4f 26 3d 56 34 a2 21
       -1.7611207e-14 0.028854053 0.04060334 1.09914e-18
0001d0 66 93 b2 3c 91 c4 ee 3c 0e a8 87 3d 14 38 df bb
       0.0217988 0.029146465 0.06623851 -0.006812105
0001e0 42 b8 4a bd 66 d5 78 3c c9 ad 3b b9 50 a1 cd 3c
       -0.04949213 0.015187597 -0.0001789845 0.025101334
0001f0 bb c0 87 3d 1e bb 27 33 37 19 dc 3c 25 86 81 3a
       0.06628557 3.90529e-08 0.026867492 0.0009881897
000200 4f 71 a0 3c 54 41 e7 b9 20 04 f1 bc 42 13 35 b6
       0.01958528 -0.00044108427 -0.029420912 -2.6982311e-06
000210 82 2e 70 3d da e3 c9 bc 45 0d 9a 3d b9 93 8f bb
       0.058638103 -0.02464478 0.07522062 -0.0043816236
000220 81 3c 8f bd a7 03 63 3d 37 c2 99 3d 77 25 46 bd
       -0.06993962 0.055423405 0.07507747 -0.048375573
000230 ae b3 d2 9c e3 ba 57 bd 72 4d 93 bc 2b d3 c7 bc
       -1.394308e-21 -0.052668463 -0.017981265 -0.024392685
000240 84 a5 78 bc a9 73 a9 3c 55 09 a0 b1 fa 59 94 bd
       -0.015176181 0.020685034 -4.657674e-09 -0.07243724
000250 b4 34 74 bd 79 68 ca bc 4b 0f e1 3c 59 32 18 bc
       -0.059620574 -0.02470802 0.027473113 -0.009289348
000260 78 ed df 3c f8 a4 99 bd a6 43 b9 3c 97 cb 69 bc
       0.027334914 -0.075021684 0.022615265 -0.014269731
000270 bd a9 44 3a 93 89 e5 3c ca c2 83 36 12 96 72 3d
       0.00075020996 0.028019702 3.9267807e-06 0.05922515
000280 ca 06 e6 bb 05 25 9d 36 ef ca 11 38 b8 b5 6d 3b
       -0.0070198523 4.6832743e-06 3.475969e-05 0.0036271643
000290 1e 9a 6e bd 30 40 51 33 0b 56 12 bc ad 59 ca 3c
       -0.058252446 4.8719983e-08 -0.008931647 0.024700964
0002a0 43 72 a9 bc e2 83 8e 3d 15 8c a2 bc 11 fc ef bc
       -0.020684367 0.069587484 -0.019842187 -0.029295
0002b0 b1 aa 8c bd d5 e6 91 bd ac fc 71 bd 72 d3 d6 3c
       -0.06868494 -0.07124106 -0.059078857 0.026223872
0002c0 b7 66 22 3d 41 4d 0f 1b 7c b4 4c 3d 2e 7e 89 3d
       0.039648738 1.1853645e-22 0.04997681 0.0671352
0002d0 27 ce d7 3c 2e 15 34 b4 ed 65 87 b8 a9 ef 58 bd
       0.026343418 -1.6771511e-07 -6.456287e-05 -0.052962933
0002e0 c0 42 b6 1c 9b 57 09 3b 63 15 2d 3b 01 63 0a bd
       1.2061004e-21 0.0020956758 0.0026410453 -0.033785824
0002f0 6f d2 39 bd 01 15 77 bd 59 a3 90 37 6b 81 ae 3c
       -0.0453667 -0.060322765 1.7242202e-05 0.021301946
000300 34 13 c6 30 94 b0 73 3d 79 82 d7 b9 fa 96 36 3d
       1.4411854e-09 0.05949457 -0.00041105205 0.044577576
000310 42 88 d5 bc bf de 08 bd 7c 2d d9 bd 3e 9a e1 ba
       -0.02606595 -0.033415552 -0.106043786 -0.0017212105
000320 ad b1 95 3d 82 2b 24 bd 41 d4 01 3d 23 6c a6 3d
       0.073092796 -0.040080555 0.03169656 0.08126094
000330 db 22 9a bc 20 2e c8 b9 99 3d d4 3d 23 dc 02 bd
       -0.018815449 -0.00038181338 0.10363311 -0.03194822
000340 c9 88 6d 3d ea 32 a6 bc e1 ed e5 bc 57 81 99 3d
       0.057991777 -0.02028795 -0.028067531 0.07495373
000350 95 b5 9f 3c 9a 48 5a bc 09 04 7c 38 9e d2 c7 bc
       0.019495765 -0.013322974 6.008524e-05 -0.024392422
000360 b0 5e 97 3d c0 63 97 bd ac 7c d1 3b 33 bb 76 bd
       0.07391107 -0.07392073 0.006393036 -0.06023712
000370 da 4d 04 bd 78 81 0b 3a 83 0d d6 ba ba f5 fe ba
       -0.032300808 0.00053217215 -0.0016330931 -0.0019451894
000380 21 67 2f bd b4 ed 32 bd 05 21 6d 39 01 ec 71 35
       -0.04282296 -0.043683723 0.00022614382 9.0122927e-07
000390 69 d0 e2 bc cd f4 2c bc 74 3b 01 bd 84 a8 f6 bc
       -0.027687268 -0.010556412 -0.03155084 -0.030109651
0003a0 58 9a 54 3d ed a6 55 aa 73 ca 91 35 f5 8b 1b 1d
       0.051905006 -1.8976114e-13 1.0862262e-06 2.0586435e-21
0003b0 74 5c 27 3c 9b b2 dc 3a 71 5d 89 1f 41 6a a3 9a
       0.010214914 0.0016837897 5.817634e-20 -6.758688e-23
0003c0 03 a0 4b b1 3e c1 44 bc 48 22 7d 3b 9e 51 1e bc
       -2.9631344e-09 -0.012008963 0.003862517 -0.009663014
0003d0 44 66 28 2f 79 04 70 bd 8f 2d 0f 3c 35 9a f4 bc
       1.5315843e-10 -0.058598015 0.008738889 -0.029858688
0003e0 4e 95 7c 9e 99 59 2b bd d3 12 95 3d cd 1c a7 3b
       -1.33716444e-20 -0.041833494 0.07278981 0.005099869
0003f0 1e 94 c3 35 ce 41 b7 b6 44 5f 78 bd 5f a9 2f 1e
       1.457174e-06 -5.4614857e-06 -0.060637727 9.299448e-21

lstm.weight_hh_l0_reverse f4 [200, 50]
000000 5b 4b 24 3d 54 bf 5c bd 6f e1 d8 b3 45 b4 2d 3a
       0.040110927 -0.053893402 -1.009929e-07 0.00066262885
000010 28 66 14 bd fc b9 22 bb 33 e4 6f bc a8 a1 e6 bb
       -0.036230236 -0.0024830094 -0.014641809 -0.007038314
000020 22 61 72 bd fc 90 eb bb 7e fa 94 3d ef bf e0 bc
       -0.059174664 -0.0071889143 0.0727434 -0.027435271
000030 16 e6 86 3d 2d 60 6e 29 80 7e 93 3b 38 47 8a 3b
       0.06586854 5.2930035e-14 0.004501164 0.0042199157
000040 aa 36 ff b4 d7 0f 2e 3d 9b 25 cb 1f f6 e8 83 bb
       -4.7537225e-07 0.042495575 8.603606e-20 -0.004025574
000050 63 dc 84 bd c5 6c 63 bd 1b 28 17 bd 93 83 ca 9a
       -0.06487348 -0.055523653 -0.036903482 -8.375781e-23
000060 2e 38 80 3d 90 ac 7a bd a8 3b 27 bd 07 17 4c bc
       0.062607154 -0.061199725 -0.040828377 -0.012456662
000070 0a 7f 2c 3d 2a f4 f8 3c e3 20 27 bc 01 cd 4e 3c
       0.04211334 0.030389864 -0.010200712 0.012622119
000080 ba bb bb 3c b0 aa 64 3d 19 6a 8e 34 c8 29 bc 25
       0.022916663 0.055826843 2.6526757e-07 3.2641113e-16
000090 a8 d0 71 ba 35 12 c5 b8 65 f1 09 9c a7 d5 8b bd
       -0.00092245126 -9.397083e-05 -4.5641493e-22 -0.0682786
0000a0 5b fa 6d 3d e5 88 3f 34 05 64 59 3d 9c e0 81 39
       0.058100086 1.7838063e-07 0.0530739 0.00024772144
0000b0 d3 b5 9e bc de 90 02 3d 18 f9 ea 3b 31 73 8c bd
       -0.01937381 0.031876437 0.0071708076 -0.068579085
0000c0 ee 4f a6 3a cf 19 38 37 67 69 49 1d 9a 76 3a 3a
       0.0012688616 1.0973264e-05 2.665662e-21 0.000711301
0000d0 21 46 b5 39 a1 2c f6 1f c5 54 14 3d a9 47 6b bc
       0.0003457526 1.04258885e-19 0.036213655 -0.014360347
0000e0 7d 8d 5b 3d 24 ab 96 bb 92 38 b9 27 9d a1 84 bd
       0.05360173 -0.0045980383 5.140915e-15 -0.06476138
0000f0 32 ff 54 b6 68 da d9 3c db aa 76 3d c0 b0 0c bd
       -3.1739005e-06 0.026593402 0.060221534 -0.03434825
000100 46 28 2b 3d e3 3d 59 bc 3a a5 59 3d 41 91 18 3c
       0.041786455 -0.013259384 0.053136088 0.009311975
000110 0e e3 3c 3c 94 95 c7 3c 67 ec 59 3d 4b 42 5d ba
       0.011528743 0.024363317 0.053203966 -0.00084403594
000120 cc 42 7a 1e 7f 2d d8 bb fa ee 9f 2f ed 16 22 bc
       1.3248703e-20 -0.0065972204 2.9091735e-10 -0.009893161
000130 bc f9 6a 3d 9d 26 ac bc 1a bd 8f b8 76 ee e4 3b
       0.05736707 -0.021014506 -6.853994e-05 0.0069864346
000140 d3 c1 6f b9 64 75 4c 23 1d fd e7 b7 fd b2 95 3c
       -0.00022865021 1.1083721e-17 -2.7655211e-05 0.018273825
000150 54 48 01 bd f1 26 04 b9 4d 33 7b 3c f6 35 3e 3c
       -0.031563118 -0.00012603008 0.015332055 0.011609545
000160 cb 3b e7 b6 0e 7b 11 bd f3 6d b7 3c b2 c5 06 3d
       -6.8912973e-06 -0.035517745 0.022391295 0.03290338
000170 6d 58 27 bc 2e e5 62 3d f9 15 01 bd f2 57 14 bd
       -0.010213953 0.055394344 -0.031515095 -0.036216684
000180 6a e3 a1 3d e6 f1 30 bc 46 64 86 3d ec d7 7d bd
       0.07904704 -0.010799861 0.065620944 -0.061973497
000190 dd 4e 0e 21 f4 19 04 bd ef 6d 50 bd 36 c7 73 37
       4.8215846e-19 -0.032251313 -0.05088609 1.4530311e-05
0001a0 31 30 14 bd 6b 5a e5 38 bd 6e 48 bc f4 22 70 bd
       -0.03617877 0.000109364126 -0.012233433 -0.058627084
0001b0 0a 5e 7e 3d bf 00 89 b7 0c dd cc 9e cd 69 87 bc
       0.0621014 -1.633202e-05 -2.1690763e-20 -0.016529942
0001c0 8c 97 4c 24 55 68 29 3d 0a ea 5b bd 43 78 9c bc
       4.4363814e-17 0.041359264 -0.053689994 -0.019100314
0001d0 84 83 a9 b4 df a4 2e bd fe de 64 bd a3 0d c9 35
       -3.1574393e-07 -0.042637702 -0.055876724 1.4979636e-06
0001e0 9f 37 05 9e 44 8d 0a bc 5f 1a 74 a2 41 ea 03 bd
       -7.0524635e-21 -0.008456532 -3.3082127e-18 -0.032205824
0001f0 7d d5 79 3c 94 da 6a 3d c7 c2 94 bd 2b 13 0b 3c
       0.0152486535 0.05733736 -0.07263713 0.008488457
000200 0c 96 fc bb f5 4d d6 b3 69 d7 b2 bb 6a 82 07 bd
       -0.0077083167 -9.979332e-08 -0.005457808 -0.033083357
000210 11 ce 96 b3 a4 9f db 34 a7 2d 22 3c 68 39 16 3a
       -7.0224026e-08 4.0908083e-07 0.00989858 0.00057306
000220 7f 7e 19 b5 8d 10 a2 3b c6 bc 92 3d 5f a1 07 bd
       -5.718102e-07 0.0049458207 0.07164912 -0.03311288
000230 03 78 dc bc a3 b3 8d 3c aa 93 91 bd b4 b4 cf b8
       -0.026912695 0.017297572 -0.07108243 -9.904188e-05
000240 f6 84 ad bc f4 9c 78 bd bb 2b b3 3c 84 5d 82 bd
       -0.021181565 -0.060696557 0.021871438 -0.06365493
000250 71 3c 31 3d 07 96 09 bc 44 5c 7a bc 1b ce 8a bc
       0.043270532 -0.008397586 -0.015280787 -0.016943982
000260 fa 1f 29 3c 2b d5 95 bc b6 ef 95 3d a3 b5 46 3d
       0.010322565 -0.018290123 0.07321112 0.048513066
000270 43 2f 27 bb f8 75 8b bc 1d cc 2b bb a2 e6 73 3c
       -0.0025510348 -0.017024025 -0.002621419 0.01488653
000280 07 67 7f bd c7 f9 a2 3a b5 44 73 bc 6b e7 78 3d
       -0.062354114 0.0012434059 -0.014847924 0.060767572
000290 94 53 99 bd 83 54 d6 3b fd 16 b5 3c ce 32 00 bd
       -0.074866444 0.0065408363 0.022105688 -0.03129845
0002a0 8e 0a 7f 3b 3f fe b3 bc 4b 40 55 3a 60 23 11 3c
       0.0038916203 -0.02197182 0.00081348856 0.008858532
0002b0 14 f9 09 bd ad fd a6 3c 9f 9e 33 bd 68 38 36 b9
       -0.033684805 0.020384634 -0.043852445 -0.00017377886
0002c0 54 ba 85 39 26 b4 36 bd 9b 72 0d 9f a5 6c 1a bc
       0.00025506562 -0.044605397 -2.995271e-20 -0.009425317
0002d0 b6 10 01 3b 7c 65 98 3d 6d 26 05 bd a3 7b 15 bd
       0.0019693798 0.074412316 -0.03250735 -0.036494862
0002e0 02 e5 50 3c ba 50 74 bd 5c 0e 1c 3c 16 9d 35 3b
       0.012749912 -0.0596473 0.009524908 0.0027712039
0002f0 19 8a 67 3d 4a 2e 98 3d 56 05 a9 22 d9 43 5c bd
       0.056528185 0.07430704 4.581319e-18 -0.053775642
000300 1d 9a 98 3d 4b 56 75 3d 81 4a 43 bb 6f 50 8b 24
       0.0745127 0.05989675 -0.0029799046 6.04179e-17
000310 36 90 80 a2 b1 92 49 bd 2c b9 0c bc 30 e3 33 3d
       -3.484716e-18 -0.04921216 -0.00858907 0.043917835
000320 d3 f1 c6 36 f0 47 16 bd a3 7e d8 bc f3 7a ce bc
       5.929012e-06 -0.0366897 -0.026427573 -0.025205111
000330 47 31 21 3c df 5f bd 3b 64 c1 08 3d 5b d1 d4 3c
       0.009838409 0.005779251 0.033387557 0.025978735
000340 c7 2e 1a bd 96 c8 7b bb 5c e9 02 bd 08 48 fc 20
       -0.037642267 -0.003841912 -0.03196083 4.2738127e-19
000350 0f ca 7e 3d ff c8 97 3d ff 81 74 9d 67 d6 19 38
       0.062204417 0.07411384 -3.2360338e-21 3.667772e-05
000360 19 e2 15 ba eb 1b 80 3d 23 69 10 3a 6d be 6f bd
       -0.000571759 0.06255325 0.00055088307 -0.058531214
000370 dd ad 1f bd 20 48 5d bb 19 cc e9 3b de e4 34 bd
       -0.03898417 -0.0033764914 0.007134926 -0.044163577
000380 03 5f 5a 9c aa 05 28 bd 82 fd 17 bd da 2c 36 ac
       -7.225295e-22 -0.041021027 -0.037107 -2.5888653e-12
000390 45 f3 a5 bc 53 b4 c2 3b b6 c1 a2 3a c9 55 87 3a
       -0.020257602 0.0059419065 0.001241735 0.0010325249
0003a0 4c 0f 8c b8 ff 0f 83 3b d2 63 8e 3d 71 67 16 3b
       -6.6785695e-05 0.0039997096 0.06952633 0.002294984
0003b0 08 8b 8f 37 ae d2 81 bd ac 52 39 36 39 76 da 3c
       1.711167e-05 -0.06339012 2.761527e-06 0.026667701
0003c0 16 8e ba bc 23 7b 78 3c c3 07 27 3d 4c 65 54 bd
       -0.02277283 0.015166077 0.040778887 -0.051854417
0003d0 65 87 f6 3b d1 38 1d 3b fd ce 05 24 4a cf 60 3c
       0.0075234645 0.0023990164 2.9015104e-17 0.013721297
0003e0 a2 f3 94 bd 4b 13 ba bb 54 d9 b0 3c ce 6d c8 34
       -0.07273032 -0.0056785694 0.021588005 3.7332796e-07
0003f0 d9 87 87 1d fa 3d 8c bc 13 4f ae 3c 2e f9 02 30
       3.5874666e-21 -0.017119396 0.02127794 4.764783e-10

lstm.bias_ih_l0_reverse f4 [200]
000000 a3 7b 10 3b 93 63 b9 3c 15 0b 38 bd e2 14 00 3c
       0.002204635 0.022630488 -0.044932444 0.007817479
000010 b0 37 92 bd 64 14 4d bd f0 5a 83 bd 37 cf ad bb
       -0.07139528 -0.050068274 -0.06413829 -0.005304243
000020 cd 00 46 9d e8 ff c7 bc 41 1c 81 3b bd 60 c2 3c
       -2.6205496e-21 -0.024414018 0.0039401357 0.023727769
000030 2f cb 59 3c ca 52 96 bd 0b 61 89 24 e2 96 e3 39
       0.013293072 -0.073400095 5.9578676e-17 0.0004340923
000040 9b 10 73 3d b5 35 a8 3a e6 c3 99 ba 51 40 00 37
       0.059342008 0.0012833389 -0.0011731356 7.644369e-06
000050 32 22 96 bd b8 c7 7a bb 8c 1c 4b 3d 46 2d 41 3d
       -0.07330741 -0.0038266014 0.04958777 0.047162317
000060 b8 73 ab 9e 09 d4 a6 3c 38 19 9a 3d 25 bd e7 3c
       -1.815319e-20 0.020364778 0.07524341 0.028288433
000070 f8 dd 58 a2 a8 71 db bd 08 39 a7 3c 21 21 24 b7
       -2.9390968e-18 -0.107150376 0.020412937 -9.782875e-06
000080 f7 66 59 bc c6 c0 eb bc cb 75 95 3c 85 7f 25 bd
       -0.013269178 -0.028778445 0.018244645 -0.040404815
000090 cc 19 c6 3c 53 0f 91 3d 6f 0b 80 3c 58 81 e8 bb
       0.024182223 0.07083001 0.015630452 -0.007095497
0000a0 75 02 0b 3c a4 59 ef bc 90 0e 7c ba a1 a0 81 3d
       0.0084844725 -0.029217549 -0.0009615207 0.06329466
0000b0 68 19 f9 3c 20 58 fd bc 57 51 f4 3a 37 1a 80 bc
       0.030407622 -0.03092581 0.0018639964 -0.0156375
0000c0 f3 35 fd 9d fc df 29 b4 e2 03 93 bd f3 5b 38 3d
       -6.7024325e-21 -1.5820837e-07 -0.07178475 0.045009565
0000d0 9b 9c 38 bd d5 0a 33 3d 82 53 61 ba 41 34 d3 ad
       -0.045071226 0.043711502 -0.00085955125 -2.4011128e-11
0000e0 e3 c2 0c bc de 96 de bc bf 23 3d 3d 4a 9d 67 ba
       -0.0085913865 -0.027171548 0.04617667 -0.00088353886
0000f0 55 db 56 b2 e9 07 5a bd a9 36 14 bc c2 5e bd 3d
       -1.250631e-08 -0.0532302 -0.009046235 0.09246589
000100 ba fd 44 3c 69 c3 63 bd 01 18 88 3d 7b e5 88 3c
       0.012023384 -0.05560628 0.066452034 0.016710987
000110 cc 1f be 3b 01 a7 8f bd 89 40 f6 b9 02 56 17 bd
       0.0058021303 -0.07014275 -0.0004696886 -0.036947258
000120 16 e2 16 3a 78 c9 16 b1 f8 2b 52 bc ad 4e 8e 3d
       0.00057557353 -2.1942395e-09 -0.012827866 0.069486
000130 5c b2 5a 3c 5f 08 25 b8 86 89 0a 3d 99 09 91 3b
       0.013348188 -3.934686e-05 0.03382256 0.004426193
000140 a2 7f cf 3c 99 16 b5 3c e3 2b 60 39 9f 8a 45 3d
       0.025329415 0.022105502 0.00021378654 0.048227903
000150 db 35 31 b9 97 86 21 bd 71 62 a5 3a 0b 6f f7 3a
       -0.00016900098 -0.039434996 0.0012617839 0.0018877698
000160 6d 42 41 bd dd 40 b2 3c da 7f a5 3c 9a 27 b0 37
       -0.04718249 0.021759445 0.020202566 2.0999276e-05
000170 42 a2 94 a4 24 52 8d bd a7 55 7b bd f3 cb cf 3b
       -6.4459644e-17 -0.06900433 -0.06136098 0.0063414513
000180 cc e3 75 3d 13 92 34 3c 33 4c 5e bc 6e 32 98 bd
       0.060031697 0.011021155 -0.013567972 -0.07431494
000190 98 8f 52 a2 78 b2 27 bc 85 3f d3 3c 16 96 07 3b
       -2.8536325e-18 -0.010235421 0.025787124 0.0020688823
0001a0 30 c5 82 bb 72 b3 58 bc dc f0 79 b7 af c1 94 bd
       -0.0039907917 -0.013226377 -1.4897636e-05 -0.07263505
0001b0 9d e4 92 3d 2e 94 85 1d 42 6f b2 b1 43 45 2e 3a
       0.07172511 3.535802e-21 -5.1931304e-09 0.0006647894
0001c0 13 8d 19 3c d1 31 de bc 34 26 eb 20 b9 08 87 ba
       0.009372014 -0.027123364 3.983583e-19 -0.0010302282
0001d0 8c 6e a5 3c 1e 5c cb bc 56 3f 28 bd 0b 98 9d 3a
       0.020194314 -0.024824198 -0.041076027 0.0012023462
0001e0 41 a1 55 bb 39 8c a2 36 99 75 63 b3 86 f9 7c bd
       -0.0032597336 4.8443003e-06 -5.295951e-08 -0.0617614
0001f0 bf a7 68 a5 fd d0 35 3d 85 0d 02 3d ec d3 a6 bc
       -2.0179627e-16 0.04438876 0.031751174 -0.020364724
000200 87 55 14 3d 52 dc 19 3c 38 5b 96 bd bd a7 b6 ba
       0.036214378 0.009390907 -0.07341617 -0.0013935488
000210 1c e2 33 1c 54 f0 58 3d 39 82 17 3d 50 fa 23 bc
       5.951837e-22 0.05296357 0.036989424 -0.01000841
000220 27 9a 86 3c c1 8f 9e 3c 97 56 5e 3d 13 8f 6f 3d
       0.016430927 0.019355657 0.054281797 0.058486056
000230 f2 98 96 bb f6 a1 38 bd 35 0e ba 3c cc c0 83 3d
       -0.004595869 -0.045076333 0.022711853 0.064332575
000240 93 25 03 bd e8 8c 02 3e 1a 37 a6 17 78 1c 20 3d
       -0.032018255 0.12749064 1.0741408e-24 0.03908965
000250 17 d1 a3 3a c7 47 b5 b6 63 d4 fe 3c 3a 21 eb bc
       0.0012498227 -5.4025763e-06 0.031107133 -0.028702367
000260 cb 6a 97 3d 07 c0 87 3d 82 af 36 bd 57 80 01 3a
       0.07393416 0.06628423 -0.04460097 0.00049400836
000270 c8 96 8d 2b db 11 40 3d 77 8a 5e 3c 1b 1b 90 bd
       1.0060503e-12 0.04689203 0.013582817 -0.0703642
000280 a5 cb 91 bd bb 64 05 bb f1 c6 fd 38 d5 b3 29 3a
       -0.0711892 -0.002035423 0.00012101036 0.00064736354
000290 d2 46 1e ad a0 74 58 ae 48 0c 74 37 40 a6 5f bc
       -8.9969854e-12 -4.9216298e-11 1.4546393e-05 -0.013650477
0002a0 9f a5 05 26 d4 4e 1c bd 0f 67 61 3d a5 0d 30 3d
       4.6368103e-16 -0.038161114 0.055029925 0.042981762
0002b0 39 db 67 3c 23 05 c1 3d 2c 12 12 bd 62 ec 87 39
       0.014151388 0.09424808 -0.03566186 0.00025925325
0002c0 92 2d c1 bc 54 7f 3b bc 48 6d 52 3c bc 2a 83 3d
       -0.0235813 -0.011443932 0.0128434375 0.06404635
0002d0 a1 70 ba bc 54 fe 01 3c d0 df 88 3d 76 62 ba bb
       -0.022758784 0.007934172 0.06683314 -0.005688007
0002e0 cd 87 25 bd 47 cb b2 bc 81 07 03 bd 75 4e 30 3d
       -0.040412713 -0.021825446 -0.03198958 0.043043572
0002f0 10 c6 3d bd 31 c7 53 bc f0 3c c7 b8 d2 0e 87 bd
       -0.046331465 -0.012925909 -9.50041e-05 -0.065946236
000300 a5 ca e2 3c 5b ba 7c bc 59 76 2b 3d db f0 34 38
       0.027684519 -0.01542529 0.041860912 4.313966e-05
000310 0a f0 f3 bd c9 37 10 3e 23 c4 b9 a9 56 27 02 bb
       -0.11911018 0.1408378 -8.249675e-14 -0.0019859872
