src/model_checkpoint.pt (torch, 138963 bytes, 9 tensors)

lstm.weight_ih_l0 f4 [200, 33]
0.03154314 0.038645502 -4.0031173e-05 0.048752412 -1.6986674e-05 4.9945293e-06 -0.0073143058 0.0146301
0.044463485 -0.028322728 0.043053377 1.312534e-06 0.028855849 -8.6064385e-11 0.0070284475 4.743627e-10
0.032215696 -3.9858294e-10 -0.0061263703 0.000102615886 -0.005784251 5.9599157e-12 -0.003168304 0.021388898
-0.034194864 -0.005799376 -0.0002719953 -0.015804386 -5.639584e-13 -0.056940414 0.04694891 -0.040821146
0.032337025 8.275565e-08 -0.00081667537 0.0172467 7.773499e-09 0.036214866 -7.699095e-13 -0.00066152634
0.00017294269 -0.00018866746 0.0037921523 0.045759905 0.013874562 -0.0045550996 0.013810148 5.158198e-07
0.008663657 -0.016510779 -0.05720849 -0.0024249114 -0.03180593 0.03759685 0.00032268697 0.0035026337
0.00067537214 -3.8281913e-16 0.03346739 -0.025978483 -4.3116217e-14 -0.023222165 0.0005586231 -0.0012167643
0.0005322684 -8.238168e-06 0.03857708 -0.015081017 -0.015391454 -0.015394491 0.046524502 0.000977994
0.053898472 -0.03812066 -0.05744528 -0.033441126 -0.022274151 0.0031233465 0.0015565582 0.03874737
-0.009245496 -0.023141973 0.010239626 -0.0030899711 0.016288092 -4.6628265e-05 0.013390178 -0.03286359
-0.008452165 0.00051191397 1.0241483e-05 -0.0001028683 0.015363735 0.022958111 -0.027458591 -0.010476865
0.04840825 -0.0010638279 -0.0014632549 -0.054535333 -0.013440199 8.295196e-05 -1.959032e-11 -0.027531099
7.41834e-15 -0.02327461 -0.04070063 -0.011722948 -0.04373926 -0.018923776 0.058377586 1.5645534e-06
0.00055596576 -0.050401118 -0.020769095 -0.0009701191 9.074049e-09 -0.0442777 -0.004251816 -0.015583325
2.255331e-18 -0.001958836 -7.444517e-14 -0.022748062 -0.023596432 -0.014310334 -0.0011695189 -0.034185216
0.039588176 -3.7945113e-06 0.042054493 0.0006045243 -0.04052086 0.024147337 -0.00021572335 -0.0023208586
-0.038652446 -0.057720438 0.0003047926 -1.6299806e-05 0.00252904 -0.03761066 0.029230066 -0.028366392
-2.2348513e-07 8.559014e-06 0.009233567 0.036143463 0.04786051 -0.034578573 8.978677e-05 -0.004216575
1.0436385e-12 -0.029859444 0.04784885 -0.028355803 0.010519164 0.0013854377 0.00082115695 -0.010972823
0.047627065 1.7681845e-05 4.421015e-11 -0.04443041 0.0037447333 -3.5680547e-10 -0.0056407466 0.041890364
2.1453172e-05 -0.011921994 -0.008550762 2.0890152e-14 0.012313091 -0.000105290484 -0.013272723 -0.0011727775
-0.029712172 0.0015182963 0.032551292 -0.051432267 3.6040823e-05 0.009256927 6.892191e-07 -0.001504974
0.009627831 0.009878858 0.0020152302 -3.414914e-07 -0.0001503945 1.0428141e-12 -3.8630867e-07 -0.00042743652
0.019148046 0.041941643 -2.163082e-13 -2.2683322e-05 2.804936e-15 2.8209912e-14 5.423457e-05 0.00025436204
-0.047546297 -0.0018661804 0.03999745 0.002537294 2.4116205e-14 -0.015943669 -0.016710065 -0.0460996
-0.00083924754 0.0010695617 0.019003905 0.005837463 -0.044738702 -0.01581204 -1.3509995e-08 0.05450611
-6.5574196e-10 -0.0001206559 0.003481425 -0.0022389393 -0.01988538 0.027939476 -0.00545545 -4.485124e-06
-0.05779808 0.021948032 0.030815836 0.0017324291 -0.02466243 -0.056851517 -0.036676813 0.029569298
0.006902625 0.039927546 0.009762986 9.528799e-05 -2.3070157e-16 -0.031117775 -0.04164453 -0.05071439
0.0032990777 -0.0075706267 -4.782191e-06 -0.013668026 -7.647311e-07 -0.025312064 -0.02045588 0.00094753265
-0.00041821945 0.017193481 -0.00074929127 -0.028316438 -3.7556921e-07 -0.007184555 -0.00052593776 -0.05268043
00000000: 6133 013d bf4a 1e3d 25e7 27b8 9cb0 473d
00000010: 9b7e 8eb7 ae96 a736 d8ac efbb 16b3 6f3c
00000020: 581f 363d 1105 e8bc bd58 303d 532a b035
00000030: 1a63 ec3c f141 bdae e44e e63b 4f64 0230
00000040: 9bf4 033d 901f dbaf b8bf c8bb 7c33 d738
00000050: d089 bdbb 26b2 d12c 52a3 4fbb c537 af3c
00000060: ea0f 0cbd b108 bebb 979a 8eb9 3378 81bc
00000070: 7cbd 1eab 5a3a 69bd 804d 403d 1334 27bd
00000080: d473 043d 66b7 b133 2816 56ba f448 8d3c
00000090: 368c 0532 0a56 143d d4b5 58ab 486a 2dba
000000a0: f357 3539 09d5 45b9 c285 783b bd6e 3b3d
000000b0: 2252 633c f242 95bb f643 623c de76 0a35
000000c0: 03f2 0d3c 9d41 87bc 7353 6abd 43eb 1ebb
000000d0: ef46 02bd 28ff 193d 502e a939 718c 653b
000000e0: 750b 313a 22ae dca5 1a15 093d d4d0 d4bc
000000f0: 9d2d 42a9 693c bebc 9070 123a d67b 9fba
00000100: ed87 0b3a aa36 0ab7 0003 1e3d 5f16 77bc
00000110: 702c 7cbc 2d39 7cbc 7a90 3e3d 0830 803a
00000120: a5c4 5c3d 6924 1cbd be4b 6bbd 90f9 08bd
00000130: 4878 b6bc 0fb1 4c3b 6d05 cc3a 90b5 1e3d
00000140: 6c7a 17bc 3c94 bdbc 1bc4 273c 1d81 4abb
00000150: 9b6e 853c b892 43b8 7a62 5b3c f99b 06bd
00000160: f37a 0abc f731 063a d6d2 2b37 ffba d7b8
00000170: 2db8 7b3c a612 bc3c d7f0 e0bc 28a7 2bbc
00000180: bb47 463d 2470 8bba b0ca bfba 7160 5fbd
00000190: 4834 5cbc 7ff6 ad38 7b51 acad e688 e1bc
000001a0: 0ea3 0528 65aa bebc b4b5 26bd 9c11 40bc
000001b0: f027 33bd 0906 9bbc 561d 6f3d a5fd d135
000001c0: 3bbe 113a 6771 4ebd f323 aabc 974f 7eba
000001d0: 17e4 1b32 895c 35bd d152 8bbb 3451 7fbc
000001e0: 006a 2622 d15f 00bb b8a2 a7a9 255a babc
000001f0: 4e4d c1bc e475 6abc 8b4a 99ba cc05 0cbd
00000200: 3627 223d 35a5 7eb6 5541 2c3d f078 1e3a
00000210: 34f9 25bd a3d0 c53c cc33 62b9 8c19 18bb
00000220: 0752 1ebd 446c 6cbd 92cc 9f39 91bb 88b7
00000230: 40be 253b a30d 1abd e473 ef3c a360 e8bc
00000240: 20f7 6fb4 af98 0f37 6348 173c 2b0b 143d
00000250: 6209 443d 43a2 0dbd e84b bc38 322b 8abb
00000260: 0ae1 922b cb9b f4bc 28fd 433d 6e4a e8bc
00000270: 9258 2c3c 9397 b53a e942 573a 5bc7 33bc
00000280: 9914 433d 7953 9437 3470 422e a9fc 35bd
00000290: 336a 753b e827 c4af 03d6 b8bb 3b95 2b3d
000002a0: 56f6 b337 7854 43bc 7f18 0cbc 6929 bc28
000002b0: d9bc 493c 66cf dcb8 d675 59bc e2b7 99ba
000002c0: f166 f3bc 9201 c73a 8154 053d a4aa 52bd
000002d0: 8a2a 1738 5eaa 173c c702 3935 8c42 c5ba
000002e0: 0dbe 1d3c efda 213c f411 043b 3856 b7b4
000002f0: 37b3 1db9 56c3 922b dc65 cfb4 8f19 e0b9
00000300: 5ddc 9c3c 00cb 2b3d 988a 73aa 1048 beb7
00000310: f01d 4a27 a117 fe28 ed79 6338 e55b 8539
00000320: e8bf 42bd a09a f4ba 5ed4 233d bb48 263b
00000330: 2f38 d928 4c9c 82bc 8ce3 88bc efd2 3cbd
00000340: f300 5cba 8930 8c3a 14ae 9b3c 3048 bf3b
00000350: ee3f 37bd 4088 81bc 9619 68b2 cc41 5f3d
00000360: bd3f 34b0 a508 fdb8 9f28 643b 2bbb 12bb
00000370: aae6 a2bc 54e1 e43c a2c3 b2bb ec7e 96b6
00000380: aebd 6cbd 5ccc b33c 7e71 fc3c ad12 e33a
00000390: dd08 cabc 23dd 68bd 6d3a 16bd 503b f23c
000003a0: 6a2f e23b 118b 233d eef4 1f3c 5ad5 c738
000003b0: 8bfd 84a5 b4ea febc 7493 2abd e4b9 4fbd
000003c0: 5735 583b 0513 f8bb b576 a0b6 dbef 5fbc
000003d0: ec47 4db5 3f5b cfbc 1793 a7bc d763 783a
000003e0: 7744 dbb9 58d9 8c3c 166c 44ba e0f7 e7bc
000003f0: d7a1 c9b4 6a6c ebbb 16df 09ba 6fc7 57bd

lstm.weight_hh_l0 f4 [200, 50]
0.05100109 -0.0050602034 -0.00482682 -0.0035999161 -0.031237522 0.05041801 -0.012829331 -0.005201334
-0.00048781748 0.039960258 0.006107818 0.0018409858 -0.0001404973 0.008500188 6.952246e-07 0.03499254
2.0265257e-05 0.028357137 0.02396023 2.9943615e-07 -0.053424936 5.7059324e-06 -0.030487314 1.9693131e-07
3.858764e-12 0.034875643 -0.026710484 -0.03931367 0.004983163 0.021096172 -1.54963e-05 0.00018531443
0.035624586 3.739128e-13 -0.00024850827 0.013886386 0.046734728 -1.4361615e-07 0.0228323 1.9454828e-13
-8.882838e-06 -1.6966331e-13 -0.054915123 0.0068797464 -0.011243777 -0.041067872 2.789804e-10 -0.0032199984
-0.018901583 -9.630913e-06 -1.5581647e-12 0.00049968896 -1.7295619e-10 1.767476e-11 1.8100256e-05 -0.019865058
0.040448833 0.007489069 0.018552173 -0.045658525 0.02322591 3.9183587e-07 -0.054388724 0.052388433
2.8973859e-15 2.080488e-06 0.038345195 0.019666923 0.04539736 -0.050481074 0.057055376 6.292115e-05
-1.7013284e-15 -0.033801503 -0.010760131 0.05492038 0.029342558 0.033135664 -2.2048848e-13 -0.012209954
3.845684e-05 -0.006687518 -0.02022624 0.00078613963 0.033655144 -0.031818744 -0.044736266 -7.184813e-11
-0.0014078369 -0.010539916 -6.2673103e-06 -7.831739e-15 -0.00023181783 0.029034784 0.0119879795 0.0006484971
-0.00074699096 1.9655747e-14 0.019983614 1.6633736e-13 -0.054193687 -5.509134e-13 0.0097462535 -0.00010947414
-1.2486811e-06 9.706353e-11 0.016948016 0.03817102 -0.033698995 0.020963829 0.0033045465 0.0013514567
-0.013072352 -0.013298785 0.05757665 0.00010686931 -2.0956657e-05 -5.3037975e-06 0.02197104 -8.0502236e-05
0.022555323 -0.00028181807 4.452688e-05 0.0001429939 -0.008959461 5.7792258e-15 4.222159e-06 -0.055779513
-3.3287192e-06 -5.412841e-13 0.037938975 1.9606592e-05 -0.040876444 -0.00037335098 0.057228122 -4.030038e-11
0.030477962 -6.4888884e-12 0.02071294 -0.0041982187 0.0563055 9.988049e-06 -6.291759e-06 0.03200556
0.0077073937 -0.022224633 -2.1179495e-14 0.026602883 8.061284e-05 -0.00067534804 -0.020238632 -0.024957491
0.012121638 0.005337761 -0.044989847 -6.5850613e-06 9.528799e-05 -0.044833176 0.04221319 -1.2023948e-12
-0.0031710267 -3.0822022e-12 0.0016432992 2.0536787e-05 0.052246783 0.012670056 3.4088354e-13 1.5497619e-07
5.9339072e-05 -0.0027962797 -0.041657303 -1.3161874e-12 -0.0022395835 -0.05180905 0.0015182082 -0.003735481
0.053323112 0.0015449678 0.0040184283 0.0003564698 0.0025531852 0.019246232 0.02842516 -3.3795574e-14
-0.00028147802 0.00018707622 -0.005269334 1.454277e-14 0.00036175663 0.005041055 -0.05449685 0.0024547216
-0.0024534552 -0.02536415 -0.004018854 -1.3555124e-16 0.0076653236 -0.045507208 0.00019159893 0.046702918
-0.012829003 5.0570066e-05 -0.0030035914 6.975316e-05 0.004353784 -0.017076802 5.1400275e-05 0.05702649
6.641806e-14 -0.0259098 -2.5691202e-15 1.854605e-05 0.0005526096 -1.4472432e-14 -1.2476829e-05 -0.007967501
0.01978801 -0.01282328 -0.0011270255 0.021401053 -0.006303838 -3.760633e-11 -0.0028750896 -0.04501838
0.007020319 -0.004897881 -0.005824548 -1.8345962e-05 0.00020754166 0.04406272 0.04480432 1.05033495e-16
-0.04174556 -5.2825017e-14 6.7465306e-15 0.040267844 -7.2968724e-06 -0.051218193 0.0016999238 -1.7207247e-05
0.0013239391 0.00046168384 0.0015137383 0.01191249 -0.025036074 -0.03693531 0.05082268 0.048217244
-0.002726318 0.053332284 3.4686632e-06 -0.00013946214 -0.01104217 -0.010353774 0.03560671 -0.016958805
00000000: 85e6 503d 10d0 a5bb 4d2a 9ebb 92ec 6bbb
00000010: d5e5 ffbc 1e83 4e3d 1d32 52bc f46f aabb
00000020: c1c1 ffb9 5ead 233d 1724 c83b 3c4d f13a
00000030: 7552 13b9 5f44 0b3c 799f 3a35 5654 0f3d
00000040: 4fff a937 3a4d e83c 3f48 c43c 31c2 a034
00000050: 1bd4 5abd 9675 bf36 88c0 f9bc 1174 5334
00000060: a8c4 872c c3d9 0e3d f2cf dabc 5f07 21bd
00000070: cd49 a33b e1d1 ac3c 0dfe 81b7 f750 4239
00000080: 16eb 113d 837e d22a 374a 82b9 b983 633c
00000090: ea6c 3f3d e834 1ab4 ce0a bb3c b90a 5b2a
000000a0: 8007 15b7 1f06 3faa aeee 60bd 7f6f e13b
000000b0: d237 38bc c936 28bd 005f 992f 9c06 53bb
000000c0: 7ed7 9abc 7594 21b7 cd4a dbab 8ffd 023a
000000d0: d72a 3eaf 0578 9b2d 01d6 9737 0cbc a2bc
000000e0: adad 253d dd66 f53b bafa 973c 6f04 3bbd
000000f0: 4344 be3c 835d d234 b6c6 5ebd 4195 563d
00000100: 56c7 5027 839e 0b36 da0f 1d3d 871c a13c
00000110: 95f2 393d 3ec5 4ebd e6b2 693d 89f4 8338
00000120: f02f f5a6 7273 0abd 434b 30bc 31f4 603d
00000130: ce5f f03c 43b9 073d 7a3f 78aa 420c 48bc
00000140: b84c 2138 f822 dbbb 80b1 a5bc f014 4e3a
00000150: fad9 093d 5f54 02bd 603d 37bd e7fe 9dae
00000160: 2b87 b8ba 9daf 2cbc c94b d2b6 8515 0da8
00000170: 2014 73b9 5bda ed3c 3b69 443c e7ff 293a
00000180: b7d1 43ba 110b b128 adb4 a33c 7b47 3b2a
00000190: 33fa 5dbd 7e11 1bab c0ae 1f3c 7b95 e5b8
000001a0: 5b98 a7b5 e971 d52e 91d6 8a3c 3759 1c3d
000001b0: f507 0abd 56bc ab3c 1791 583b 5d23 b13a
000001c0: 6b2d 56bc 26e3 59bc 7ed5 6b3d 061f e038
000001d0: 14cc afb7 46f7 b1b6 9cfc b33c 4fd3 a8b8
000001e0: f1c5 b83c fbc0 93b9 60c2 3a38 a2f0 1539
000001f0: b4ca 12bc f337 d027 12ac 8d36 0f79 64bd
00000200: f662 5fb6 a15b 18ab e665 1b3d d678 a437
00000210: 0f6e 27bd 52be c3b9 0968 6a3d 323e 31ae
00000220: ebac f93c b64e e4ac 2fae a93c 3691 89bb
00000230: 99a0 663d 5892 2737 cc1d d3b6 4318 033d
00000240: 4e8e fc3b 6f10 b6bc 97c4 bea8 4aee d93c
00000250: b00e a938 d709 31ba 7dcb a5bc a773 ccbc
00000260: d699 463c 62e8 ae3b 4647 38bd 3ff5 dcb6
00000270: 5ad5 c738 fea2 37bd bde7 2c3d d738 a9ab
00000280: 00d1 4fbb 05e4 58ac f963 d73a 6a46 ac37
00000290: b900 563d 1196 4f3c 7fe6 bf2a 8867 2634
000002a0: d8e2 7838 ca41 37bb d9a0 2abd a63c b9ab
000002b0: fac5 12bb ba35 54bd 9dfe c63a f9ce 74bb
000002c0: 5669 5a3d 8480 ca3a 05ad 833b 91e4 ba39
000002d0: 5753 273b 46aa 9d3c e2db e83c a533 18a9
000002e0: 5793 93b9 e429 4439 61aa acbb 58fd 8228
000002f0: 27aa bd39 6f2f a53b 1738 5fbd 65df 203b
00000300: 26ca 20bb 7ac8 cfbc 97b0 83bb aa47 1ca5
00000310: 652d fb3b c465 3abd f2e7 4839 8f4b 3f3d
00000320: bd30 52bc 321b 5438 e7d7 44bb 7148 9238
00000330: 30aa 8e3b a6e4 8bbc a096 5738 9c94 693d
00000340: 688f 9529 ca40 d4bc e71f 39a7 5793 9b37
00000350: 01dd 103a 285b 82a8 9353 51b7 1f8a 02bc
00000360: 771a a23c bc18 52bc b3b8 93ba 4351 af3c
00000370: 6d90 cebb f764 25ae 006c 3cbb 3165 38bd
00000380: b40a e63b 677e a0bb dadb bebb a7e5 99b7
00000390: 8a9f 5939 1c7b 343d bc84 373d d530 f224
000003a0: 64fd 2abd 19e7 6da9 c311 f327 e5ef 243d
000003b0: a8d7 f4b6 2bca 51bd facf de3a 4858 90b7
000003c0: 0688 ad3a 280e f239 a168 c63a 9b2c 433c
000003d0: 7418 cdbc 7b49 17bd 712b 503d 727f 453d
000003e0: 07ac 32bb f472 5a3d 2ec7 6836 953c 12b9
000003f0: 38ea 34bc e0a2 29bc 57d8 113d 31ed 8abc

lstm.bias_ih_l0 f4 [200]
0.015434255 0.0057926755 -0.0020177283 3.5488984e-15 -1.2480983e-08 2.4217396e-15 -0.057754207 0.04032967
-0.004914922 -0.114459254 2.3820523e-15 0.009842514 0.005642246 -0.043106772 2.1976038e-14 -0.029880721
-0.030419746 -0.021090591 -0.018145153 0.0846682 -0.046822578 -7.801982e-06 -0.0035192282 0.020853132
1.2312047e-14 -0.011696706 0.036660388 -0.030881772 -0.0021655783 -0.12007068 3.373019e-14 0.007254262
0.043579932 -0.027443614 -0.021772562 0.058344614 3.5261846e-07 -0.022751532 0.0042669917 0.054015823
-1.2654223e-14 -0.005664665 -0.010531605 -0.0044060564 0.008793539 -0.029726643 0.047701176 -0.08509309
0.00025575495 0.057797 -0.0047997697 -0.021877337 -0.0093864715 -0.0037255862 -0.016907826 -0.05666224
-0.07423057 -0.001293211 0.042732656 -0.026819285 -6.567742e-12 -0.000637647 2.4256857e-05 0.013188526
2.9858347e-07 -1.6187355e-11 2.2630205e-13 0.051690005 -0.021642754 0.05614333 -2.0405298e-05 0.026232265
0.03259852 3.4977137e-15 4.696981e-15 0.024263216 6.3851985e-10 0.00021602616 0.053249735 -3.3850642e-06
-0.0014049623 0.032705635 0.046407025 0.053505227 -0.051677298 0.020930931 0.0076492797 -0.019047083
0.020428387 -0.010709227 0.010121914 2.4198699e-13 0.00065965246 -0.016970096 -2.409971e-06 -0.011194271
0.011225113 -0.03473673 0.000927446 0.0024237868 -7.11176e-15 -0.00046144298 2.8823453e-05 -7.767889e-14
-0.011770732 -0.00019099929 -0.021221759 -0.012720389 -0.0028302222 -0.00059108407 -0.01285716 -0.03645906
-0.020331003 -1.5558964e-05 0.03532734 5.4714818e-12 -0.01069997 -0.031341046 1.6188893e-07 0.04091585
-0.046723288 0.032240685 0.045808647 2.5964167e-05 0.008075857 0.0004153742 -0.13028415 -0.0028818576
-3.9689367e-05 -0.015385593 -7.631963e-15 9.940343e-06 -0.007949643 0.0113354195 -0.014798528 0.03988956
-0.0031898497 0.035545167 0.04740828 -0.03720286 -0.053429328 0.029195119 0.03119794 -1.0012744e-12
7.673247e-06 -4.704262e-10 -0.0005179088 0.009925905 0.0010634353 -0.054189343 -0.00022088445 -0.015183197
0.0041761566 -0.05823867 -0.04194198 -0.044456497 -0.041673005 -0.032248016 -0.015218401 -0.013152397
0.019483892 0.043988027 0.009905067 -0.0024824138 0.0032432568 -0.041858327 -0.008158481 -0.0023515518
-0.05067002 0.050995003 0.020629985 0.0059244963 0.0063067456 0.056508157 -0.0022172704 5.5880533e-05
-0.0010395086 -1.439362e-07 -0.111120984 0.015520701 -0.026966115 -0.0050454647 0.045603458 -0.014596873
4.416993e-11 -0.04865481 -0.014091152 0.097683534 0.010764309 8.0669686e-08 -0.008054774 0.031344134
0.051411636 4.664794e-06 -0.019646049 6.10852e-15 0.007333821 0.0036818897 0.046573196 0.06648025
00000000: f5df 7c3c 7cd0 bd3b dd3b 04bb 9fb9 7f27
00000010: f26b 56b2 3681 2e27 ad8f 6cbd b930 253d
00000020: 5b0d a1bb 9d69 eabd 1ca5 2b27 7f42 213c
00000030: 97e2 b83b ba90 30bd 4bf1 c528 6ac8 f4bc
00000040: d532 f9bc 2dc6 acbc 25a5 94bc 8566 ad3d
00000050: 08c9 3fbd 42e5 02b7 daa2 66bb 30d4 aa3c
00000060: 4ccb 5d28 8aa3 3fbc 3429 163d c5fb fcbc
00000070: 60ec 0dbb 9ee7 f5bd 43e8 1729 29b5 ed3b
00000080: df80 323d 6ed1 e0bc 5f5c b2bc c3fa 6e3d
00000090: 834f bd34 6c61 babc 1fd2 8b3b b23f 5d3d
000000a0: 4ef5 63a8 a79e b9bb c18c 2cbc ae60 90bb
000000b0: c712 103c 4a85 f3bc 4f62 433d 4945 aebd
000000c0: d916 8639 8cbc 6c3d 6347 9dbb 1a38 b3bc
000000d0: b7c9 19bc f728 74bb 4882 8abc aa16 68bd
000000e0: 3206 98bd f680 a9ba 7008 2f3d 1eb4 dbbc
000000f0: f614 e7ac c427 27ba 347b cb37 b014 583c
00000100: 004d a034 af62 8ead 20cb 7e2a e6b8 533d
00000110: 254c b1bc 8cf6 653d 0b2c abb7 0ce5 d63c
00000120: 0786 053d 6e09 7c27 013a a927 a7c3 c63c
00000130: d783 2f30 1585 6239 651c 5a3d f62a 63b6
00000140: b626 b8ba 58f6 053d 4b15 3e3d 4c28 5b3d
00000150: 93ab 53bd 5877 ab3c cfa6 fa3b a108 9cbc
00000160: 6f59 a73c c175 2fbc 62d6 253c 003a 882a
00000170: 87ec 2c3a df04 8bbc fdba 21b6 2d68 37bc
00000180: 89e9 373c 1a48 0ebd d91f 733a 65d8 1e3b
00000190: 341d 00a8 d4ed f1b9 e5c9 f137 d5ea aea9
000001a0: 07da 40bc fb46 48b9 41d9 adbc 2e69 50bc
000001b0: 407b 39bb fbf2 1aba d6a6 52bc 1856 15bd
000001c0: 348d a6bc 9f84 82b7 67b3 103d ba82 c02c
000001d0: ed4e 2fbc 785f 00bd b1d3 2d34 6197 273d
000001e0: eb60 3fbd cf0e 043d d9a1 3b3d a0cd d937
000001f0: 9950 043c 95c6 d939 3569 05be 8cdd 3cbb
00000200: 2278 26b8 db13 7cbc 387c 09a8 73c5 2637
00000210: 383f 02bc 32b8 393c 8675 72bc 3c63 233d
00000220: cc0c 51bb cf97 113d 2f2f 423d 0762 18bd
00000230: b6d8 5abd 9a2a ef3c d392 ff3c b6ea 8cab
00000240: 58bc 0037 4d4f 01b0 45c4 07ba 43a0 223c
00000250: f862 8b3a a5f5 5dbd 389d 67b9 f2c2 78bc
00000260: 24d8 883b ac8b 6ebd 5bcb 2bbd 0418 36bd
00000270: 50b1 2abd 7f16 04bd 9a56 79bc 277d 57bc
00000280: af9c 9f3c ca2c 343d dd48 223c feaf 22bb
00000290: d28c 543b a373 2bbd 26ab 05bc 7e1c 1abb
000002a0: 5e8b 4fbd 23e0 503d 3700 a93c 4722 c23b
000002b0: d1a8 ce3b 1975 673d a04f 11bb 4461 6a38
000002c0: 1f40 88ba e28c 1ab4 6693 e3bd 8a4a 7e3c
000002d0: 0be8 dcbc 6d54 a5bb b1ca 3a3d b927 6fbc
000002e0: ec42 422e 444a 47bd 93de 66bc 4e0e c83d
000002f0: c95c 303c a13c ad33 2cf8 03bc b562 003d
00000300: 0295 523d 4686 9c36 c0f0 a0bc 2715 dc27
00000310: 8d50 f03b dc4b 713b 89c3 3e3d cc26 883d

lstm.bias_hh_l0 f4 [200]
0.008576193 -0.024488116 -2.984161e-14 2.4781036e-06 -0.0009840158 0.00044045458 0.020389829 -0.010945902
-0.0029365667 -0.10047642 6.615397e-09 0.02974488 0.047111098 -0.0015117782 0.020249177 -0.05427284
-9.380236e-16 -1.5313201e-06 -0.005771498 0.12576906 0.01781954 -0.039017245 -0.047529683 -0.006219372
0.0011069446 0.0065651033 0.0093308 0.03244442 -0.019223776 0.01181658 -0.0049798572 -0.018118465
4.6101145e-16 -1.06857394e-13 -0.036461 -2.6832704e-15 0.006948054 0.04622356 -0.00018268413 0.022614565
-2.238458e-05 -0.028525427 0.042570323 0.0013628085 -3.6228594e-05 -0.0006889197 0.046741623 -0.058932822
-0.00015456356 -1.4993527e-16 -0.02057806 0.0025522313 0.040496133 0.0016512058 -5.4407494e-05 -1.9932766e-06
-0.13987455 -0.034080025 -0.00020861698 0.06837076 0.050102785 -6.768427e-14 3.245755e-05 0.029022917
-9.093696e-06 -0.023189396 0.012931539 -0.004322885 -0.026143802 1.7946538e-15 -0.021573093 -0.03317814
-0.011765547 -2.0211626e-13 0.00096980145 -0.003501831 -0.05329079 -0.0011268434 0.050102532 -3.33783e-05
-0.027957628 -0.0020267174 0.046658687 2.0462306e-08 3.9628106e-10 0.055816345 1.5190631e-12 1.8649988e-09
0.056685377 -1.415112e-12 -3.6151462e-07 0.035361104 0.00068714406 -0.025082389 0.019228656 -0.0037173894
-0.041144367 0.04472718 -0.036683798 -0.0040142094 -2.0067768e-08 4.4412505e-16 6.287925e-12 0.029396908
0.029830728 -0.045405053 -0.12118999 -0.055853345 0.0525125 -6.037892e-12 -0.007825106 -0.02104585
-3.042535e-08 0.00030477915 0.013529207 0.03612477 0.045332424 -0.021700667 -1.5300022e-14 -0.018839464
-0.001630741 -8.939444e-15 0.012499079 -0.005148842 -0.012735621 -0.00015111786 0.050090082 -9.467575e-15
0.029949106 -0.046602495 0.0017044174 0.030787028 0.07573653 -0.043167025 -0.021776183 3.2695688e-15
-9.509103e-16 0.015334052 0.037052486 -2.0949474e-14 -0.00038110535 0.011311464 -0.019982984 -0.0055364864
1.5995852e-11 -1.1362701e-07 0.016077181 -3.7357356e-06 1.3688849e-12 0.00028637156 -2.4193185e-13 -0.0007616065
0.017660784 0.012229806 -2.4241211e-09 -0.019243965 -0.039643567 0.024121244 0.053718567 -0.000841878
0.011422777 5.221075e-12 0.008582725 -0.006326729 -7.158552e-15 -8.628267e-06 9.322498e-05 -0.06756887
2.896864e-14 -0.033395812 -0.049989443 -0.057396807 -2.7145436e-08 1.2711371e-06 1.6617085e-12 4.5176606e-05
-0.004187656 -0.021288678 -0.032286678 -0.030078446 -2.6807374e-11 9.217991e-06 -3.449309e-10 -0.04755486
0.05240081 0.042170167 -0.0050984886 -0.09376223 -6.2473493e-10 2.4299321e-05 -0.00016503416 -0.005710183
-1.0810265e-13 -0.016432637 -0.009773183 0.00073418964 -5.116547e-12 0.00905312 0.04039775 -0.0011364819
00000000: 2983 0c3c 4d9b c8bc 0965 06a9 7f4d 2636
00000010: 17fa 80ba d0ec e639 9208 a73c 7156 33bc
00000020: 6a73 40bb 95c6 cdbd a64d e331 89ab f33c
00000030: 91f7 403d dc26 c6ba 9ae1 a53c 334d 5ebd
00000040: f62e 87a6 c287 cdb5 d61e bdbb 9bc9 003e
00000050: 49fa 913c 8cd0 1fbd 7cae 42bd e0cb cbbb
00000060: e616 913a 1420 d73b 36e0 183c 71e4 043d
00000070: 2e7b 9dbc 549a 413c 122e a3bb 2d6d 94bc
00000080: a4e0 0426 189f f0a9 2158 15bd 9a59 41a7
00000090: 80ac e33b ea54 3d3d e68e 3fb9 2e42 b93c
000000a0: 85c6 bbb7 28ae e9bc 385e 2e3d 44a0 b23a
000000b0: 28f4 17b8 9e98 34ba 2574 3f3d 8b63 71bd
000000c0: 5712 22b9 15dd 2ca5 5293 a8bc 5643 273b
000000d0: 46df 253d 466d d83a 9a33 64b8 3bc4 05b6
000000e0: 463b 0fbe 7f97 0bbd 32c0 5ab9 f805 8c3d
000000f0: 9438 4d3d 5369 98a9 0723 0838 78c1 ed3c
00000100: 2091 18b7 b0f7 bdbc cede 533c fda6 8dbb
00000110: 872b d6bc 8551 0127 0eba b0bc cde5 07bd
00000120: 48c4 40bc 0c90 63aa 463a 7e3a fa7e 65bb
00000130: 7247 5abd 97b2 93ba 5038 4d3d adff 0bb8
00000140: 6507 e5bc add2 04bb 2e1d 3f3d 16c5 af32
00000150: 9adb d92f ae9f 643d 04ca d52b 6829 0031
00000160: ed2e 683d c828 c7ab 3116 c2b4 ced6 103d
00000170: 7521 343a 9579 cdbc 6a85 9d3c 729f 73bb
00000180: ff86 28bd d933 373d c041 16bd a189 83bb
00000190: 7d61 acb2 a502 0026 983c dd2c c9d1 f03c
000001a0: 925f f43c a6fa 39bd 7532 f8bd 7ac6 64bd
000001b0: 5917 573d 7f70 d4ac e034 00bc 5968 acbc
000001c0: 07ad 02b3 c4ca 9f39 9ba9 5d3c 91f7 133d
000001d0: 7eae 393d 99c5 b1bc 73cf 89a8 3855 9abc
000001e0: 97be d5ba e909 21a8 f0c8 4c3c 9eb7 a8bb
000001f0: 11a9 50bc 6475 1eb9 422b 4d3d 7c8d 2aa8
00000200: d457 f53c 42e2 3ebd c266 df3a 1435 fc3c
00000210: c11b 9b3d e8cf 30bd f763 b2bc e698 6b27
00000220: 660a 89a6 ad3b 7b3c 59c4 173d 33b2 bca8
00000230: 18cf c7b9 b853 393c 5bb3 a3bc 6a6b b5bb
00000240: 75b3 8c2d 1c03 f4b3 4bb4 833c 73b3 7ab6
00000250: 47a7 c02b 2424 9639 0e32 88aa 8ca6 47ba
00000260: 59ad 903c 865f 483c 9795 26b1 85a5 9dbc
00000270: 4b61 22bd ea99 c53c 0008 5c3d 7ab1 5cba
00000280: 9926 3b3c 43b3 b72c 8f9e 0c3c 7350 cfbb
00000290: fff4 00a8 20c2 10b7 c881 c338 8c61 8abd
000002a0: 9176 0229 0cca 08bd bbc1 4cbd ea18 6bbd
000002b0: 722d e9b2 f09b aa35 5cdd e92b 037c 3d38
000002c0: 9b38 89bb 9865 aebc 093f 04bd 1367 f6bc
000002d0: d7cc ebad f8a6 1a37 b5a0 bdaf e3c8 42bd
000002e0: 3ba2 563d a0ba 2c3d 3911 a7bb 6906 c0bd
000002f0: d0b9 2bb0 65d6 cb37 050d 2db9 7d1c bbbb
00000300: ef6c f3a9 bd9d 86bc b31f 20bc a276 403a
00000310: c205 b4ac 8a53 143c 1c78 253d 01f6 94ba

lstm.weight_ih_l0_reverse f4 [200, 33]
0.0011260054 0.026318647 -0.017958516 0.021651594 0.023501175 -0.0022729535 0.033360306 -0.0056594647
-0.0067292727 0.026629904 0.0059597897 -1.587183e-14 -0.034255087 0.013259282 6.8741945e-05 -0.015440371
1.4454182e-14 0.027182942 0.0038546652 -0.005732529 1.6483126e-15 -0.0014359517 0.021076627 0.0062678847
3.3921635e-10 6.0284434e-12 -0.027784728 -1.94487e-05 0.007525125 -0.0535212 4.2432346e-11 0.052617148
0.0042307368 0.07391035 -0.034592535 -0.0120029785 -0.11626354 -0.074890755 0.03904693 0.05075333
0.08273626 -0.080416255 0.04554836 -0.07927247 -0.098722644 -0.051998183 -0.09262156 0.026908826
0.027703205 0.09802059 0.06589007 0.029541014 0.047769032 0.056697156 -0.11867335 -0.07198288
-0.12587288 -0.075728044 0.02851138 0.12794931 0.103357516 -0.06826314 0.03518866 0.08503224
0.026530122 -0.124195 1.33082234e-11 0.0032130047 5.0349e-08 0.048144132 0.039147902 -0.012344424
0.031095184 -0.046007875 -0.0130451415 0.0031402924 -1.2644136e-16 0.042416476 0.015272046 -1.1448573e-05
0.05318948 -0.026697531 1.2074416e-06 0.00072173733 0.03337121 0.05582726 0.0073627797 -0.004980321
0.035790414 0.023796689 5.792494e-15 0.026720282 1.959613e-08 -1.9090987e-13 0.0005669401 -8.900678e-18
-0.00026729025 -6.546599e-10 -4.5059485e-16 -0.023659663 -0.028234754 0.0008877621 -0.0025320076 6.638456e-15
0.04464216 0.028745394 0.01209814 0.010378143 0.022699594 -0.022076437 0.050149087 -0.028707681
-0.019954799 -0.0033105763 0.055702765 0.012422826 0.00025470695 0.014013389 -0.05304467 -0.052892495
0.00060420384 -0.00020371444 0.0068095205 -0.025899377 0.052065145 -0.043414786 0.008785733 0.009972187
-0.010651722 0.04470757 0.009567159 -0.00555567 -0.005332717 0.03162252 -7.120844e-05 1.74225e-14
0.0056540426 0.006111762 -0.008195479 0.030306328 0.0004911502 0.0007689008 -0.0060031894 0.00524804
-2.3177647e-11 0.025840677 0.008994973 0.027276905 1.02662615e-10 0.020132529 0.032047838 2.0137008e-05
4.1791752e-14 -0.020461362 -0.0092255 0.013708055 -0.0168125 -0.0076213693 0.008811079 -0.008689461
-0.032493252 2.0566415e-05 0.0042857504 -0.0473398 4.304858e-11 -0.110438116 0.058284443 0.07573943
0.046077184 0.13668726 -0.02883648 -0.057625614 0.034936786 0.038815066 -0.0614102 -0.09445412
-0.04432249 0.054258227 0.058374077 -0.06385196 0.11824083 -0.05387934 -0.01196265 0.028297026
-0.10052933 0.12024292 -0.065917775 0.07694719 0.0057589416 -0.07631665 0.10669968 -0.015467512
0.019059546 0.124497734 -0.12096006 0.10563986 -0.0673791 -0.03661743 0.012146104 -0.00052633265
-0.035142206 -0.0075270752 0.019807637 0.0046058325 2.6106899e-14 0.009049115 3.8515586e-06 -0.029885486
2.1390463e-06 0.026133725 5.4846253e-13 6.1976197e-12 0.056256127 -0.00030291564 0.05033731 0.04378031
0.036270417 0.00015521038 0.00021109362 0.00011288495 -0.048520066 -0.0027609465 -0.01243713 5.0142507e-10
-0.008158571 -0.0007703842 -0.023060637 -0.027660513 0.00079079956 0.05555492 -0.003144613 -0.02114957
-0.0010385921 -0.0021328512 -0.055285193 0.044092037 0.02290239 0.029137714 -0.009270303 -0.021186644
0.05345735 -0.016120568 -0.039781235 -0.03897618 0.00050538324 1.3151221e-11 -0.016564317 0.041051924
-0.012006151 7.6097885e-16 0.008041197 0.0068079345 0.039427638 -2.1406215e-11 0.0091806175 6.052535e-14
00000000: 7996 933a 349a d73c bd1d 93bc af5e b13c
00000010: 8985 c03c d5f5 14bb d1a4 083d 0873 b9bb
00000020: 3b81 dcbb f526 da3c 574a c33b f3f5 8ea8
00000030: 104f 0cbd 763d 593c 8d29 9038 9cf9 7cbc
00000040: 1331 8228 c3ae de3c 8d9e 7c3b f0d7 bbbb
00000050: 008c ed26 8b36 bcba e4a8 ac3c d462 cd3b
00000060: 757c ba2f 641b d42c cc9c e3bc c425 a3b7
00000070: 5395 f63b 0c39 5bbd 939e 3a2e 1485 573d
00000080: fea1 8a3b 4f5e 973d e7b0 0dbd 24a8 44bc
00000090: 941b eebd 5360 99bd acef 1f3d b9e2 4f3d
000000a0: a171 a93d 47b1 a4bd eb90 3a3d 9b59 a2bd
000000b0: 192f cabd 0cfc 54bd 5fb0 bdbd e66f dc3c
000000c0: d5f1 e23c 05bf c83d 5ff1 863d ffff f13c
000000d0: 76a9 433d 473b 683d 030b f3bd c36b 93bd
000000e0: d2e4 00be 4e17 9bbd b390 e93c 2505 033e
000000f0: 1bad d33d 8ccd 8bbd fc21 103d 6225 ae3d
00000100: b355 d93c f359 febd e91e 6a2d 4691 523b
00000110: 503f 5833 c832 453d 8d59 203d 4440 4abc
00000120: 54bb fe3c c172 3cbd 4abb 55bc 5dcd 4d3b
00000130: e7c6 11a5 e6bc 2d3d 9b37 7a3c 3f13 40b7
00000140: 36dd 593d c8b4 dabc 610f a235 f932 3d3a
00000150: 40b0 083d 20ab 643d 7943 f13b f631 a3bb
00000160: f898 123d 46f1 c23c 54b2 d027 7ee4 da3c
00000170: 5854 a832 06f2 56aa b59e 143a 4330 24a3
00000180: 1723 8cb9 98f3 33b0 08e0 01a6 e9d1 c1bc
00000190: 924c e7bc b5b8 683a 0af0 25bb f32c ef27
000001a0: b3da 363d 767b eb3c 4737 463c 1609 2a3c
000001b0: 80f4 b93c a5d9 b4bc 2169 4d3d 5f2c ebbc
000001c0: 3f78 a3bc 41f6 58bb 9528 643d 1c89 4b3c
000001d0: 308a 8539 6a98 653c 5e45 59bd cda5 58bd
000001e0: 6f63 1e3a 2e9c 55b9 6622 df3b ee2a d4bc
000001f0: 4342 553d b4d3 31bd 09f2 0f3c 6262 233c
00000200: 8f84 2ebc 491f 373d 93bf 1c3c 560c b6bb
00000210: 13be aebb 9e86 013d bd55 95b8 8ded 9c28
00000220: 8c45 b93b 2d45 c83b 5546 06bc fa44 f83c
00000230: 88c0 003a 0f90 493a 67b6 c4bb c0f7 ab3b
00000240: 6cdf cbad d4af d33c a75f 133c d173 df3c
00000250: eac1 e12e f9ec a43c 9844 033d e5eb a837
00000260: 9c36 3c29 969e a7bc 8d26 17bc c097 603c
00000270: 5eba 89bc aebc f9bb 585c 103c 3e5e 0ebc
00000280: a517 05bd 0a86 ac37 7b6f 8c3b 61e7 41bd
00000290: 6454 3d2e 612d e2bd abbb 6e3d 461d 9b3d
000002a0: 6ebb 3c3d bff7 0b3e 7b3a ecbc d608 6cbd
000002b0: e019 0f3d 8cfc 1e3d 4389 7bbd 2971 c1bd
000002c0: 808b 35bd e03d 5e3d a819 6f3d d1c4 82bd
000002d0: 4028 f23d 95b0 5cbd fefe 43bc 2acf e73c
000002e0: 52e2 cdbd ec41 f63d e6ff 86bd 7d96 9d3d
000002f0: 81b5 bc3b e74b 9cbd 5d85 da3d 736b 7dbc
00000300: c422 9c3c abf8 fe3d e8b9 f7bd b659 d83d
00000310: 0efe 89bd 29fc 15bd 7400 473c 96f9 09ba
00000320: 46f1 0fbd afa5 f6bb a043 a23c 86ec 963b
00000330: 6926 eb28 bd42 143c a33c 8136 68d2 f4bc
00000340: 898c 0f36 6516 d63c e460 1a2b 320f da2c
00000350: d36c 663d a6d0 9eb9 7f2e 4e3d fb52 333d
00000360: 4a90 143d f8bf 2239 0359 5d39 a5bc ec38
00000370: fabc 46bd fff0 34bb 1bc5 4bbc a7d4 0930
00000380: 87ab 05bc 9cf3 49ba a9e9 bcbc 4d98 e2bc
00000390: a94d 4f3a 8e8d 633d da15 4ebb dd41 adbc
000003a0: 5e21 88ba 4ec7 0bbb ba72 62bd da99 343d
000003b0: cb9d bb3c 37b2 ee3c 78e2 17bc 9d8f adbc
000003c0: 18f6 5a3d 480f 84bc a6f1 22bd 7da5 1fbd
000003d0: b27b 043a d65b 672d e4b1 87bc 1026 283d
000003e0: 72b5 44bc 5456 5b26 3abf 033c 1815 df3b
000003f0: e07e 213d 834a bcad 4d6a 163c 7d4a 8829

lstm.weight_hh_l0_reverse f4 [200, 50]
-0.0005353556 -3.4603276e-05 -0.0378235 -0.030688249 1.19597935e-05 0.017069343 -0.00792539 -0.00078016176
0.0012141662 0.04778003 -3.0981562e-05 -0.054825712 0.024538506 -0.044667266 -0.008562391 -0.023561519
0.0056508663 0.013780104 0.050197676 -7.244835e-14 -0.022145446 0.024773305 0.027149804 0.000451949
0.00035223097 -0.030915711 -2.2508311e-05 0.0510349 4.1281507e-09 -0.05549472 0.05363794 0.02120895
0.023828039 0.011581677 0.005516496 0.050560527 0.00258432 -0.049563654 -0.008726661 0.00074466807
-0.043003943 -0.029479612 -0.030851644 -0.0195624 0.0034008916 0.02229092 -0.012835372 -0.0077697528
-2.8195946e-05 -0.0014014168 -0.034887914 -0.01304225 0.050537992 -0.055461057 8.663641e-06 -0.027504053
-0.09538623 0.00017704869 0.018239927 0.122685015 -0.009749267 1.2071554e-13 -0.1043324 -0.07296394
0.01267768 0.010520635 -4.4312674e-06 0.082908235 0.0034483396 -0.0049767834 3.770054e-05 0.03664266
0.05459903 -0.00209452 -0.05656796 0.05243896 0.061965305 0.024630126 -0.015645977 -0.055534247
-0.103062645 0.05340369 0.052458584 -0.0046214 -0.05745928 -0.09675335 0.052766565 0.02442852
-2.924945e-06 -9.610996e-15 -0.027621303 -0.00560788 -0.021395601 0.020231782 -3.357653e-06 -0.0035634784
-1.2894534e-13 0.067795746 -0.074338384 -0.023379473 0.0039392556 4.5411695e-12 0.00080453453 -0.02219217
-2.5188037e-14 -0.0072082113 0.048996273 -0.05828223 -0.008351367 -0.002729127 0.004765078 -0.005009806
-0.018358614 1.4785834e-15 -0.00074105343 0.054963764 0.01699888 0.03341735 -0.039518476 -0.00011581304
-0.031739563 0.04686381 0.015109601 -0.03352544 -0.028891183 0.007767485 -0.008636626 0.00072712137
-0.044077303 -0.035141826 -0.0011283339 -0.03342851 0.016979534 -0.03145532 -0.0008625358 -0.055822115
0.048628893 4.5449823e-08 -0.016346425 -1.692421e-05 0.00044880813 -0.0011674997 0.035140134 -3.1948228e-05
0.050792962 0.011350426 0.02548401 -3.2816373e-15 -0.00032580012 0.0039993944 0.018160656 -1.558709e-10
4.1643298e-06 0.04199197 -0.011141437 -1.3657356e-05 -1.2047354e-13 5.8432304e-12 -0.013606664 0.0007469523
2.156476e-06 -0.01614037 -2.8516242e-14 -6.445945e-12 -1.1090621e-12 0.0005517618 -0.048825134 2.3338262e-10
0.028757332 -9.157076e-15 4.5020177e-12 -0.0002036246 -4.812519e-09 5.502612e-12 -0.0073430697 -0.026366359
-2.4182105e-13 0.05741076 0.030447688 -2.5343541e-14 0.0043570763 1.786789e-05 -0.009011946 0.0016363832
0.0055725374 -3.1202437e-14 0.01538228 0.0028447986 -0.0065414705 0.00035581386 0.005549353 0.03426225
-0.02313358 -0.049170326 -0.0026174504 2.3197717e-13 -0.034142353 -7.3935655e-05 -0.028104827 -0.03073904
0.00049455557 0.0074025807 -5.6448575e-11 0.024309836 -5.230007e-05 4.3489642e-11 0.02872173 0.038459886
0.00030643385 -0.04130594 5.811706e-05 0.026995705 0.0011329373 -0.056612298 -0.0008548292 -0.008966637
-0.046592124 -0.038865432 0.019804835 -0.019279588 -0.015931092 -0.0044582277 -1.3185853e-12 0.015231036
-0.056640584 -0.005058913 -4.415864e-08 0.00023284125 -0.012043545 -0.000193253 -0.010756595 -2.3446266e-05
0.009282489 -0.0038802219 4.347057e-11 -0.020608362 0.00024715927 -0.019425493 3.5166504e-05 -0.057890918
0.0025709108 0.0016075626 -0.030910362 -4.1276094e-11 -0.015693884 -0.0067494763 0.005926937 -0.013308127
0.01279747 0.0085029965 0.11681249 -0.043141738 -0.04507775 0.019891083 -4.2182375e-05 -0.03353937
00000000: 1b57 0cba fc22 11b8 d0ec 1abd ec65 fbbc
00000010: eca6 4837 02d5 8b3c 7fd9 01bc c583 4cba
00000020: a824 9f3a feb4 433d 33f2 01b8 ed90 60bd
00000030: fa04 c93c 06f5 36bd 4549 0cbc 1604 c1bc
00000040: e72a b93b f2c5 613c 149c 4d3d a123 a3a9
00000050: 5e6a b5bc 63f1 ca3c 4469 de3c 91f3 ec39
00000060: a4ab b839 f242 fdbc 3bd0 bcb7 f909 513d
00000070: 99d7 8d31 6e4e 63bd 75b3 5b3d 64be ad3c
00000080: 0533 c33c 13c1 3d3c b9c3 b43b 8e18 4f3d
00000090: b25d 293b 4203 4bbd 45fa 0ebc d435 433a
000000a0: e724 30bd 3a7f f1bc 96bc fcbc 5441 a0bc
000000b0: 7ee1 5e3b 739b b63c 744b 52bc 6999 febb
000000c0: 5586 ecb7 bfaf b7ba a1e6 0ebd 29af 55bc
000000d0: ed00 4f3d 222b 63bd 0e5a 1137 2e50 e1bc
000000e0: db59 c3bd 25a6 3939 e66b 953c 4842 fb3d
000000f0: 64bb 1fbc e3e9 072a 3aac d5bd 1e6e 95bd
00000100: 0bb6 4f3c be5e 2c3c 4cb0 94b6 cbcb a93d
00000110: 8afd 613b 4914 a3bb a620 1e38 9d16 163d
00000120: 3ca3 5f3d 3744 09bb ceb3 67bd 3cca 563d
00000130: 55cf 7d3d 1ec5 c93c fe2b 80bc e177 63bd
00000140: 8212 d3bd d4bd 5a3d d0de 563d 1d6f 97bb
00000150: 6c5a 6bbd 9f26 c6bd c121 583d 521e c83c
00000160: 2c4a 44b6 e522 2da8 1246 e2bc 4fc2 b7bb
00000170: d445 afbc 1fbd a53c 0a54 61b6 3f89 69bb
00000180: f72d 11aa 7fd8 8a3d b93e 98bd 4f86 bfbc
00000190: df14 813b 38c7 9f2c 66e7 523a 5bcc b5bc
000001a0: a9df e2a8 dc32 ecbb 51b0 483d 59b9 6ebd
000001b0: 2cd4 08bc 27db 32bb 5f24 9c3b 4c29 a4bb
000001c0: ce64 96bc 1916 d526 4143 42ba af21 613d
000001d0: 3c41 8b3c a2e0 083d 20de 21bd a7e0 f2b8
000001e0: 5801 02bd 44f4 3f3d 438e 773c f951 09bd
000001f0: 34ad ecbc 6386 fe3b a380 0dbc 4a9c 3e3a
00000200: 678a 34bd e0f0 0fbd 9ae4 93ba 55ec 08bd
00000210: aa18 8b3c 4bd7 00bd cc1b 62ba bba5 64bd
00000220: 172f 473d 9c34 4333 f0e8 85bc 77f8 8db7
00000230: 024e eb39 ca06 99ba 1aef 0f3d 2600 06b8
00000240: 480c 503d 23f7 393c d8c3 d03c 8677 6ca7
00000250: 27d0 aab9 5a0d 833b a8c5 943c c261 2baf
00000260: 52bb 8b36 c6ff 2b3d 938a 36bc e621 65b7
00000270: 22a4 07aa 2497 cd2c 7cee 5ebc 1fcf 433a
00000280: fab7 1036 cf38 84bc fd6c 00a9 e9cb e2ac
00000290: 2c16 9cab 1ca4 103a ddfc 47bd af4d 802f
000002a0: 7f94 eb3c 8ff5 24a8 9266 9e2c 1084 55b9
000002b0: 5d5b a5b1 1f9b c12c 229e f0bb 43fe d7bc
000002c0: 1622 88aa 8c27 6b3d 6e6d f93c 3a46 e4a8
000002d0: cec5 8e3b 00e3 9537 d7a6 13bc e97b d63a
000002e0: d599 b63b f685 0ca9 f505 7c3c cd6f 3a3b
000002f0: d559 d6bb 878c ba39 59d7 b53b 9356 0c3d
00000300: a282 bdbc d366 49bd 8889 2bbb 6f97 822a
00000310: dad8 0bbd e70d 9bb8 183c e6bc 70d0 fbbc
00000320: 10a5 013a 5991 f23b 7243 78ae 6c25 c73c
00000330: c65c 5bb8 fc44 3f2e d549 eb3c 1d88 1d3d
00000340: dba8 a039 6b30 29bd b8c2 7338 1926 dd3c
00000350: 117f 943a 4ce2 67bd 9e16 60ba cde8 12bc
00000360: 62d7 3ebd 5c31 1fbd c03d a23c 3af0 9dbc
00000370: ec81 82bc 5316 92bb 0b93 b9ab 988b 793c
00000380: f5ff 67bd 3dc5 a5bb f0a8 3db3 d926 7439
00000390: 4a52 45bc f5a3 4ab9 6e3c 30bc 79ae c4b7
000003a0: 9515 183c 524b 7ebb 832f 3f2e ded2 a8bc
000003b0: 2895 8139 3622 9fbc bf7f 1338 071f 6dbd
000003c0: ba7c 283b dab4 d23a ba37 fdbc c088 35ae
000003d0: 7690 80bc b62a ddbb c036 c23b 550a 5abc
000003e0: 7bac 513c 2750 0b3c 633b ef3d 64b5 30bd
000003f0: 72a3 38bd a0f2 a23c fbec 30b8 9460 09bd

lstm.bias_ih_l0_reverse f4 [200]
-3.8474075e-11 0.05111738 -0.017495912 -0.04283104 0.05740679 0.071983665 0.00017484245 -0.024498725
0.08751599 -1.5152745e-12 4.0221294e-05 -0.016389526 -0.02774484 0.019443996 -0.048589848 -6.120427e-12
-0.022547845 -0.0064923903 -0.037304576 0.04326136 -1.9257862e-14 1.4701244e-11 0.09024802 0.05114828
0.108801775 0.015731346 -0.0074013616 0.0023903772 0.006580184 0.01152512 -0.031061713 -0.033160463
-0.05571619 0.02315933 0.043006912 0.027982267 0.024368098 -1.512712e-14 -0.006124279 0.047799718
0.02479931 2.352265e-14 -0.052465957 0.037457526 -0.011489747 -0.0014824603 0.034532376 -0.08075165
0.01834817 0.008322768 -0.0066519678 -0.053476706 -0.00021064299 -0.028061083 -0.053062994 0.051215902
-0.001661634 -0.00055751274 0.015586772 -0.0017616216 -4.1065023e-06 -0.03481877 -1.688735e-08 -0.08296421
0.013140716 -0.054165747 0.0006298289 -0.13085288 0.066245496 0.014716257 8.799517e-08 9.507352e-16
0.0012782564 0.048638556 -0.03607897 0.013048647 -4.7608053e-14 -0.00091560045 0.05102704 0.00040525346
-0.057350587 -0.035755347 0.004284454 -0.016033117 -0.034121297 -0.02987117 0.007406135 -4.598577e-05
-0.023247221 0.009346244 0.005580965 0.026080702 -3.2537258e-11 -0.019837203 4.040351e-06 8.98975e-16
0.034933884 0.006519794 -0.00866907 0.017258307 0.00037680552 -0.001017687 -3.845231e-05 -0.0025578241
0.034926757 0.005441559 -4.024893e-09 0.05121701 0.014757637 0.028445965 6.1738444e-12 8.100796e-14
-0.05845392 -0.014901151 0.015178715 -3.3536025e-09 0.004166603 -0.027148211 0.028003693 0.044718467
-0.017312752 0.055091668 0.034377 -0.0009067985 0.008589993 -0.054423276 -1.5549063e-12 -5.5669436e-12
0.04900115 0.040340688 -0.028017072 -2.24067e-14 -0.021692883 -3.5129816e-12 -0.04550465 3.2260265e-05
0.003989357 0.0012018426 0.005225882 0.049254812 5.8894425e-06 0.010370105 0.0021833947 -0.03437764
-0.039291307 0.00016788978 -6.176873e-05 4.3341802e-07 -7.305643e-05 0.0009157363 -0.045817018 1.2233996e-12
-1.5669559e-05 0.05781629 0.008072952 -5.6350563e-10 -0.017530171 -0.028511133 -0.08928144 -0.010639882
-0.046971496 0.025979353 0.13470268 -7.8562305e-05 -0.018059138 0.032109436 -0.0032440475 0.0023492188
-0.037304364 0.046215076 -1.7199973e-05 6.3008506e-06 -0.055120472 -6.146398e-15 -6.9593756e-07 -0.017443182
-0.054727368 -0.00560899 0.03605353 -4.5225945e-05 -2.1874332e-15 0.039251667 0.023722814 0.05647154
0.051412575 -3.7685535e-07 2.6535476e-05 0.054469444 -0.0074696103 5.0179346e-15 6.1869987e-10 4.7884296e-05
1.3668913e-05 -0.0056854915 0.0019739422 -4.727867e-14 -2.2855518e-13 0.0811462 0.046944164 8.991899e-14
00000000: f535 29ae 7560 513d 9653 8fbc 9a6f 2fbd
00000010: 6223 6b3d 2c6c 933d ea55 3739 8db1 c8bc
00000020: 953b b33d 8441 d5ab 49b3 2838 5443 86bc
00000030: 2649 e3bc 0449 9f3c 2606 47bd e857 d7ac
00000040: 42b6 b8bc 1ebe d4bb afcc 18bd d332 313d
00000050: 9b75 ada8 4250 812d f4d3 b83d dc80 513d
00000060: 77d3 de3d 06df 803c 1f87 f2bb e0a7 1c3b
00000070: 969e d73b dbd3 3c3c 2275 febc 44d3 07bd
00000080: a936 64bd a3b8 bd3c 0428 303d 113b e53c
00000090: 9b9f c73c c440 88a8 2dae c8bb a3c9 433d
000000a0: ec27 cb3c 8adf d328 8be6 56bd 106d 193d
000000b0: 7e3f 3cbc 1d4f c2ba d271 0d3d 1f61 a5bd
000000c0: e74e 963c 385c 083c c0f8 d9bb 640a 5bbd
000000d0: 0ce0 5cb9 5be0 e5bc 9558 59bd c4c7 513d
000000e0: 2fcb d9ba 0c26 12ba a95f 7f3c 36e6 e6ba
000000f0: 96ca 89b6 209e 0ebd ad0f 91b2 24e9 a9bd
00000100: 284c 573c e7dc 5dbd 1a1b 253a 4cfe 05be
00000110: b8ab 873d 751c 713c dbf7 bc33 f003 8926
00000120: 2b8b a73a 3939 473d 8bc7 13bd fec9 553c
00000130: 5968 56a9 e804 70ba bb01 513d 3378 d439
00000140: 73e8 6abd 3374 12bd 9b64 8c3b e257 83bc
00000150: c6c2 0bbd 62b4 f4bc 2aaf f23b d8e0 40b8
00000160: f570 bebc fd20 193c 87e0 b63b 32a7 d53c
00000170: b219 0fae a181 a2bc 5a92 8736 538e 8126
00000180: d516 0f3d ffa3 d53b b708 0ebc 4b61 8d3c
00000190: fb8d c539 e963 85ba da47 21b8 2ba1 27bb
000001a0: 5c0f 0f3d 1b4f b23b 554b 8ab1 edc8 513d
000001b0: 04ca 713c 8307 e93c 0c39 d92c e969 b629
000001c0: 616d 6fbd f523 74bc 25b0 783c 3375 66b1
000001d0: 0088 883b ed65 debc 0068 e53c b62a 373d
000001e0: 79d3 8dbc cda7 613d e6ce 0c3d 38b6 6dba
000001f0: 0bbd 0c3c f1ea 5ebd 67d5 daab 92de c3ac
00000200: 6eb5 483d 473c 253d 0f84 e5bc 55d2 c9a8
00000210: 46b5 b1bc 4034 77ac 1563 3abd 324f 0738
00000220: 27b9 823b 2587 9d3a e03d ab3b 6abf 493d
00000230: ed9d c536 5fe7 293c 4917 0f3b 91cf 0cbd
00000240: ecef 20bd 920b 3039 d689 81b8 85b0 e834
00000250: df35 99b8 060e 703a a0aa 3bbd 9e2d ac2b
00000260: 1f72 83b7 c6d0 6c3d 6a44 043c 2fe5 1ab0
00000270: 6f9b 8fbc 2e90 e9bc 30d9 b6bd e652 2ebc
00000280: 2f65 40bd a7d2 d43c 80ef 093e d1c1 a4b8
00000290: c2f0 93bc 2f85 033d 169a 54bb 5af5 193b
000002a0: 76cc 18bd 054c 3d3d a948 90b7 e56b d336
000002b0: 01c6 61bd 8472 dda7 77d0 3ab5 01e5 8ebc
000002c0: ce29 60bd 9ecb b7bb deac 133d fdb0 3db8
000002d0: 059f 1da7 5bc6 203d 5956 c23c b44e 673d
000002e0: fe95 523d 9b52 cab4 8098 de37 5a1b 5f3d
000002f0: a2c3 f4bb 47ca b427 2211 2a30 5fd7 4838
00000300: 8953 6537 5c4d babb 415d 013b 98ec 54a9
00000310: 46aa 80aa fb2f a63d 8648 403d c57a ca29

lstm.bias_hh_l0_reverse f4 [200]
-0.03556543 -0.13050477 -0.014511983 -0.0544782 0.05044238 0.0072456733 -0.03696993 -1.1133241e-06
0.025209133 -0.00016328708 -1.0866464e-06 -0.011673694 0.09072844 0.01826508 0.12805259 -1.3610444e-15
0.01389988 -0.03619053 0.004222913 -0.020555826 0.037112128 -0.026666483 -0.09338302 -0.025786933
-0.12414637 -0.050228775 -0.06237758 0.034426454 -3.3498825e-08 1.6426714e-12 0.05404842 -0.011337518
-0.00025905226 -0.030161697 0.027343504 -0.046279427 -0.0995936 -7.852782e-08 4.2609358e-08 0.022937946
-0.0001811529 -2.2519316e-11 0.0023248168 0.00633081 0.055250738 0.032455824 -0.03208179 0.06735392
0.018757746 -0.056110304 0.007534017 -0.018069498 0.0076782047 0.00014087324 -1.6751787e-11 -2.264911e-06
-0.018238818 -0.026641268 0.00018678968 0.0039533703 -0.020995872 -0.03838945 8.1655824e-05 0.057457082
0.043440416 -0.01498159 -0.0049132956 -0.073714845 0.010408398 -0.05588161 -0.048711345 -1.1665594e-05
-0.0049669836 0.015640963 -0.0029687402 -8.5088356e-14 -0.025417162 0.03681128 0.030068012 7.430149e-05
0.0021126121 -0.104782104 -0.026529204 3.334819e-15 9.834185e-15 0.0015014578 0.002139251 -3.3727788e-14
0.004968973 -1.0932024e-06 0.010783122 -0.032049302 0.015318607 0.043467067 2.191857e-15 0.011453649
-0.020229023 9.137839e-15 -0.00048053064 2.0205279e-15 -0.0015481387 0.026662271 -0.0038071955 0.00076719566
0.0112502705 0.042773567 0.03290335 -0.014925069 -1.089405e-10 0.02320317 0.00015908295 0.008161808
0.004900888 -0.051726744 0.006145004 0.03563023 0.0066526514 -0.004498487 -1.6153357e-05 -0.00150497
4.0249026e-05 0.0055638677 -0.026699333 1.2246059e-14 -4.0093423e-06 0.02107936 4.8359194e-10 -0.016141329
0.0128943715 -0.0051462953 -2.4378196e-14 -0.0002551179 0.0032916686 -1.2516644e-05 0.00076365564 -0.022588952
-4.366531e-11 0.051930424 -0.015680354 6.090224e-10 -4.1097103e-14 1.6321486e-12 -0.00306214 0.0015752425
-0.00027419423 -6.4876854e-12 0.048664324 0.04431322 -0.0003816402 -0.012210807 -0.016993593 -3.584564e-08
-1.6895355e-14 0.0004324193 -0.0017628521 0.006992767 -2.987089e-14 9.5434974e-05 0.13256021 1.168262e-15
-6.0733478e-15 -0.0001992179 0.09823783 -0.042705342 -0.052951656 -4.734124e-10 0.013555784 -0.05703368
-6.8272317e-09 -4.8383474e-05 0.042127594 0.005803913 0.04525949 -1.3537942e-06 -0.054707717 7.9828874e-13
0.02124797 2.7436367e-15 7.7463696e-08 0.054826763 -0.05064153 9.9264376e-08 0.0004872206 2.2003358e-06
-9.898131e-05 -0.004084574 0.015377446 8.245073e-05 0.00024322783 -2.6638598e-15 -0.020491986 0.004187805
-0.010862353 -0.018743731 -0.00632214 -0.037115585 -0.037055124 -0.010680234 -0.08599049 0.028086392
00000000: 0ead 11bd 0ba3 05be abc3 6dbc 8824 5fbd
00000010: ab9c 4e3d 1d6d ed3b c86d 17bd 866d 95b5
00000020: 6283 ce3c 0b38 2bb9 e3d8 91b5 0543 3fbc
00000030: d5cf b93d a6a0 953c 3820 033e ad25 c4a6
00000040: 53bc 633c 853c 14bd 5d60 8a3b b164 a8bc
00000050: e302 183d ab73 dabc 993f bfbd 1e3f d3bc
00000060: 7440 febd b0bc 4dbd a27f 7fbd c102 0d3d
00000070: 59e0 0fb3 792f e72b e061 5d3d ffc0 39bc
00000080: 68d1 87b9 aa15 f7bc 7cff df3c 7f8f 3dbd
00000090: bbf7 cbbd 20a3 a8b3 7c01 3733 5ce8 bb3c
000000a0: dcf3 3db9 fe14 c6ad f45b 183b af72 cf3b
000000b0: 994e 623d 66f0 043d 3268 03bd daf0 893d
000000c0: d8a9 993c ebd3 65bd eadf f63b 7c06 94bc
000000d0: 7399 fb3b 5fb7 1339 ac59 93ad e0fe 17b6
000000e0: 9369 95bc ca3e dabc f9dc 4339 468b 813b
000000f0: 89ff abbc 423e 1dbd a33e ab38 1e58 6b3d
00000100: 94ee 313d 5875 75bc b6ff a0bb cff7 96bd
00000110: fc87 2a3c 1de4 64bd 8c85 47bd 58b7 43b7
00000120: 14c2 a2bb 7a21 803c 328f 42bb 199a bfa9
00000130: a737 d0bc 6dc7 163d 3151 f63c 4fd2 9b38
00000140: c073 0a3b 0098 d6bd c653 d9bc 8d4c 7027
00000150: 2c28 3128 90cc c43a ad32 0c3b 7ee5 17a9
00000160: c4d2 a23b 26ba 92b5 b1ab 303c 2146 03bd
00000170: e5fa 7a3c 860a 323d a0f0 1d27 16a8 3b3c
00000180: 56b7 a5bc d89c 2428 bbef fbb9 2998 1127
00000190: eaea caba d66a da3c 2482 79bb a11d 493a
000001a0: 0e53 383c 5633 2f3d aac5 063d 4788 74bc
000001b0: 0d90 efae 9314 be3c 81cf 2639 1bb9 053c
000001c0: a197 a03b 6cdf 53bd 085c c93b 01f1 113d
000001d0: 7cfe d93b 0b68 93bb 1281 87b7 6a42 c5ba
000001e0: 10d1 2838 1b51 b63b 8fb8 dabc fb9a 5c28
000001f0: fd87 86b6 9fae ac3c c2ed 0430 d23a 84bc
00000200: ea42 533c 41a2 a8bb 4b94 dba8 58c1 85b9
00000210: 09b9 573b 94fe 51b7 1030 483a 770c b9bc
00000220: c50a 40ae ffb4 543d 1674 80bc 2468 2730
00000230: bc15 39a9 5ab4 e52b 2fae 48bb 5e78 ce3a
00000240: bac1 8fb9 e043 e4ac 3e54 473d c781 353d
00000250: e116 c8b9 d60f 48bc 2636 8bbc b3f4 19b3
00000260: 092e 98a8 56b6 e239 800f e7ba 9523 e53b
00000270: cb86 06a9 4324 c838 ddbd 073e 435d a826
00000280: bfd0 daa7 26e5 50b9 ea30 c93d cceb 2ebd
00000290: d6e3 58bd 7021 02b0 1419 5e3c 269c 69bd
000002a0: f794 eab1 5cef 4ab8 fc8d 2c3d c02e be3b
000002b0: 0462 393d 04b4 b5b5 3315 60bd c4b2 602b
000002c0: 3910 ae3c 2ab3 4527 1e5a a633 0792 603d
000002d0: 7e6d 4fbd 2b2b d533 a471 ff39 7ba9 1336
000002e0: 3094 cfb8 e4d7 85bb aff1 7b3c 66e9 ac38
000002f0: f90a 7f39 8af3 3fa7 cfde a7bc db39 893b
00000300: 03f8 31bc 748c 99bc f429 cfbb 8306 18bd
00000310: 1dc7 17bd 26fc 2ebc c81b b0bd 6f15 e63c

linear.weight f4 [1, 100]
-0.07662931 0.00012687256 0.03607372 -0.0002510262 -6.301513e-10 0.021334693 -0.15642817 -7.508088e-17
0.060741216 0.100309364 2.9078908e-06 0.086157635 -0.048218243 0.08932555 1.4489395e-12 -0.015672157
0.060401898 0.042295016 -0.014930392 0.106420174 1.0423645e-06 0.015881171 -0.02211115 0.0016172865
0.022882394 -0.05246306 0.10291097 -0.018180044 0.018262219 -0.06200541 -0.022366326 0.039383233
0.12990358 0.0026433493 0.010044534 -0.028628536 -0.0093597835 0.035952274 0.013457111 -0.010719696
-0.01552358 -0.004461668 -0.0036910807 0.06490539 -0.020635277 0.029484643 0.018198228 -0.04314964
-0.08574633 0.06824728 -0.05872252 -0.06530971 -7.9647626e-14 -0.020182228 1.5612652e-14 -0.021019135
-0.037168205 -0.022230312 -0.1436773 0.07487538 -0.0055651525 0.0012046807 0.13147718 0.07254158
0.13674635 -0.00705051 -0.010436847 0.06593587 0.06417353 0.004034646 -0.0055604964 -0.0002707749
0.17172863 0.02469173 -0.0772895 0.00041654365 -0.05232007 2.5646783e-12 -1.6909004e-14 -0.012132548
-0.0030688064 -0.03283526 0.01614132 -0.00097207667 -0.011918562 0.009724406 0.15827093 0.017137997
0.00032497253 -0.02148394 0.002312195 -6.583659e-09 -0.011066345 -0.00017491925 -0.021214047 -0.0005646145
0.00031114722 0.14804158 -0.07428424 0.032032676
00000000: d4ef 9cbd 1809 0539 09c2 133d 2b9c 83b9
00000010: f536 2db0 18c6 ae3c b52e 20be ee1f ada4
00000020: c8cb 783d ff6e cd3d 2f25 4336 6a73 b03d
00000030: 7e80 45bd 50f0 b63d 8ceb cb2b e562 80bc
00000040: fb67 773d 8a3d 2d3d 9a9e 74bc d2f2 d93d
00000050: 5fe7 8b35 3b19 823c 7122 b5bc 21fb d33a
00000060: dc73 bb3c 81e3 56bd fdc2 d23d 51ee 94bc
00000070: a69a 953c 63f9 7dbd 9639 b7bc 5050 213d
00000080: 7205 053e 0b3c 2d3b d491 243c 6486 eabc
00000090: c759 19bc b142 133d 377b 5c3c aaa1 2fbc
000000a0: 9d56 7ebc 2f33 92bb 0fe6 71bb 1eed 843d
000000b0: 500b a9bc c789 f13c 7314 953c adbd 30bd
000000c0: c69b afbd 3bc5 8b3d 0687 70bd 19c1 85bd
000000d0: bb59 b3a9 3355 a5bc 53a0 8c28 5230 acbc
000000e0: b03d 18bd 581c b6bc 2420 13be 4358 993d
000000f0: e25b b6bb 60e6 9d3a f4a1 063e ae90 943d
00000100: 3c07 0c3e f707 e7bb 4fff 2abc 6309 873d
00000110: 696d 833d 1035 843b d334 b6bb cbf6 8db9
00000120: a1d9 2f3e 5046 ca3c f549 9ebd 8b63 da39
00000130: 924d 56bd 2379 342c 824d 98a8 98c7 46bc
00000140: 071e 49bb 447e 06bd cd3a 843c f6d2 7eba
00000150: 1346 43bc 1d53 1f3c c611 223e fc64 8c3c
00000160: 1361 aa39 16ff afbc 3288 173b 7a36 e2b1
00000170: 9d4f 35bc 876a 37b9 15c9 adbc a302 14ba
00000180: 7921 a339 3698 173e 5622 98bd b234 033d
