src/model_checkpoint.pt (torch, 870803 bytes, 33 tensors)

lstm.weight_ih_l0 f4 [200, 33]
-0.03259886 0.0044155465 0.00050449895 -0.053938057 0.078716606 -0.06041498 0.05092335 -0.07457078
0.005819103 -0.047235947 -0.05395421 -0.005380504 -0.09480291 0.086627975 0.10955357 -0.08898911
0.082189605 -0.05777056 0.0014530208 -0.008405428 0.033620276 0.055627394 -0.01998531 -0.0049085915
0.0056270896 0.0602933 0.02139678 -0.058080394 -0.03386101 0.025329044 -0.015143774 -0.036083087
-0.058498204 8.732555e-06 -1.7999627e-06 -0.0026464078 -4.9183e-40 0.00017132326 0.00029742855 -0.0025867952
4.93406e-40 -8.997653e-15 0.012501213 2.823015e-09 -4.96899e-40 1.6265977e-29 0.007762016 -0.003369335
9.9997706e-08 0.00024537332 0.0009741574 9.896244e-14 -0.00568392 0.0025851047 0.01297383 0.00051086675
-9.807217e-18 -0.0012222918 -4.9072e-40 -0.0059414096 4.92397e-40 -4.90746e-40 4.2387148e-07 5.240637e-06
-2.4459915e-28 -3.1889515e-05 1.2053525e-05 0.001351425 0.0006262114 -4.326286e-06 -8.0795496e-07 -0.0018857423
0.0024906953 -0.00021266268 -4.90645e-40 -3.8680687e-06 0.0011850377 1.17680266e-08 0.00092389237 0.0015019529
-4.96756e-40 0.00201431 -0.0031063287 1.6842454e-05 -0.009587833 -4.885293e-06 -0.0126047935 -0.013365317
4.9096e-40 -0.00056631985 -0.010536972 0.00036625823 0.0013889195 4.92429e-40 -7.0322985e-06 -0.0032192238
-4.95107e-40 1.0234798e-13 -0.003908005 0.005241503 -9.204389e-06 0.0027559935 -0.0007091771 0.00020545104
-9.027383e-05 0.011142265 0.0014477884 0.012692397 1.1397011e-06 -0.014139784 0.0017923818 7.035454e-23
5.682423e-26 0.00036991018 -6.691354e-08 -0.00014129124 1.7803699e-06 -7.7388677e-07 -0.010551121 -1.31888085e-23
-0.0006541116 -1.6802468e-06 -0.008806083 -0.0027040937 -0.005008329 -4.90817e-40 -0.0027320571 -0.006722873
7.316992e-21 1.7568284e-35 0.0047986154 -0.00036447615 -1.2881642e-09 0.006020075 -3.5316066e-12 -9.70729e-05
3.5925535e-07 -0.005485574 -5.960812e-10 -5.8328055e-07 0.00046752783 -1.8809065e-12 -1.0816466e-10 -0.0007598801
-4.459256e-13 -1.9329724e-05 1.5401918e-08 2.1823945e-09 -0.00049641245 -0.00023976082 5.5201506e-14 0.00041338237
-4.9900214e-12 -0.00088507414 6.702686e-05 -2.9937758e-07 1.7531457e-08 1.9259055e-13 -0.0024985676 1.595547e-05
-2.267658e-13 0.0010555349 -6.952277e-06 0.0018259773 0.0013047655 -0.00010503451 -4.3051123e-06 -7.2538247e-23
0.0006557905 -0.0044179303 -4.955e-40 1.4464892e-09 -1.1767355e-06 0.0049100094 -0.00072317186 -0.0005898405
4.5476684e-10 -1.5856014e-23 -4.2084775e-05 0.00022123243 -0.00044101884 0.0027727333 4.92321e-40 0.007435838
0.004378971 0.002137389 -4.1914514e-14 -0.0010490518 2.4168992e-05 -0.0006819319 -0.00026450204 6.8914665e-07
-0.0060881493 -0.0005884526 8.264778e-11 -7.203334e-05 -0.0001620075 -0.0016891541 -0.0008446869 -0.00090427796
-0.003456788 0.007826695 1.7402896e-09 -0.008059897 -3.3532804e-05 -5.469452e-06 -4.0876384e-07 -1.57938e-10
-3.168472e-07 0.0033389293 -1.4564086e-10 -0.002591533 -3.642202e-07 -4.5946954e-06 7.533576e-07 -8.2003545e-08
0.00030585704 6.0731474e-16 2.1308635e-06 -0.0065179314 -2.8753737e-08 2.724561e-10 2.2269406e-09 -0.0018466498
-0.0107799545 2.6935451e-08 -0.0019537953 9.88796e-21 0.00786832 1.7778531e-05 -0.0080674635 -0.019324966
-0.13380896 -0.07003256 -0.0031728644 0.08153885 0.08040624 -0.012549302 -0.0060350737 0.00056130043
0.018526344 0.020406613 -0.017874524 0.00041621455 0.1451452 0.0040195487 -0.06476835 -0.0036056202
-0.020712916 0.0053391415 0.023652397 2.2153115e-05 2.1206879e-05 0.0045624706 -0.004542818 -0.013028479
00000000: 6286 05bd 4ab0 903b 5a40 043a 27ee 5cbd
00000010: 2c36 a13d b375 77bd 0195 503d 91b8 98bd
00000020: 2dae be3b 7b7a 41bd 17ff 5cbd f04e b0bb
00000030: 0728 c2bd 026a b13d 9f5d e03d ec3f b6bd
00000040: 0653 a83d d3a0 6cbd 4a73 be3a ecb6 09bc
00000050: 6ab5 093d 8dd9 633d 3cb8 a3bc 40d8 a0bb
00000060: 7363 b83b 1bf6 763d 4d48 af3c b5e5 6dbd
00000070: d8b1 0abd db7e cf3c 981d 78bc dccb 13bd
00000080: d09b 6fbd 0a82 1237 3f96 f1b5 5b6f 2dbb
00000090: 065b 0580 3da5 3339 2ff0 9b39 3987 29bb
000000a0: 6a5f 0500 5a16 22a8 e3d1 4c3c 01ff 4131
000000b0: 2769 0580 e4f4 a40f 8258 fe3b 10d0 5cbb
000000c0: 52be d633 73a5 8039 995e 7f3a f6d7 de29
000000d0: 2d40 babb dc6a 293b 3090 543c b0eb 053a
000000e0: 46e9 34a3 4f35 a0ba ed57 0580 28b0 c2bb
000000f0: 9a5c 0500 0058 0580 7490 e334 bbd8 af36
00000100: 7b08 9b91 1bc1 05b8 7f39 4a37 4c22 b13a
00000110: 5628 243a 842a 91b6 3ee2 58b5 032b f7ba
00000120: ef3a 233b 34fe 5eb9 b857 0580 75ca 81b6
00000130: 4453 9b3a 542c 4a32 5e31 723a 2ddd c43a
00000140: c168 0580 8402 043b 8c93 4bbb e548 8d37
00000150: 4916 1dbc 59ec a3b6 5684 4ebc 34fa 5abc
00000160: 9958 0500 1575 14ba 44a3 2cbc 5906 c039
00000170: 680c b63a b15c 0500 fcf6 ebb6 9df9 52bb
00000180: 2864 0580 9877 e629 b90e 80bb eac0 ab3b
00000190: 8d6c 1ab7 e69d 343b 12e8 39ba 586e 5739
000001a0: 6551 bdb8 0c8e 363c b8c3 bd3a c6f3 4f3c
000001b0: d5f7 9835 8daa 67bc 5aee ea3a 5a1b aa1a
000001c0: a2b0 8c15 81f0 c139 1cb2 8fb3 9427 14b9
000001d0: 0bf5 ee35 18bd 4fb5 9cde 2cbc d11b 7f99
000001e0: b078 2bba d784 e1b5 6447 10bc 2a37 31bb
000001f0: e91c a4bb 3358 0580 500c 33bb 8c4b dcbb
00000200: cd36 0a1e 6bd1 ba05 b43d 9d3b 2917 bfb9
00000210: 400b b1b0 0d44 c53b c583 78ac 9e93 cbb8
00000220: aedf c034 54c0 b3bb 7cd9 23b0 bc92 1cb5
00000230: 861e f539 665b 04ac 4adb edae b132 47ba
00000240: a708 fbaa 4426 a2b7 2d4d 8432 17f9 1531
00000250: ad21 02ba 4e68 7bb9 019b 7829 3ebb d839
00000260: 1e92 afac 5204 68ba c590 8c38 24ba a0b4
00000270: 1598 9632 72d6 582a 02bf 23bb 1cd8 8537
00000280: cb50 7faa e059 8a3a 9b47 e9b6 a255 ef3a
00000290: aa04 ab3a f945 dcb8 a274 90b6 0063 af9a
000002a0: 5be9 2b3a 49c4 90bb 4165 0580 d0cd c630
000002b0: 53f0 9db5 25e4 a03b 3e93 3dba 879f 1aba
000002c0: be02 fa2f 9759 9999 2f84 30b8 a1fa 6739
000002d0: 8c38 e7b9 bfb6 353b 645c 0500 55a8 f33b
000002e0: 797d 8f3b 7013 0c3b 25c4 3ca9 5680 89ba
000002f0: 84be ca37 adc3 32ba ddac 8ab9 ccfd 3835
00000300: 197f c7bb 6342 1aba 90be b52e 9b10 97b8
00000310: 8fe0 29b9 9b66 ddba fa6d 5dba 110d 6dba
00000320: 478b 62bb 8a3b 003c ff2e ef30 a90d 04bc
00000330: 93a5 0cb8 3c86 b7b6 1374 dbb4 98a7 2daf
00000340: 261b aab4 f0d1 5a3b 4222 20af b5d6 29bb
00000350: 0b8a c3b4 222c 9ab6 573a 4a35 ed19 b0b3
00000360: 705b a039 eb0b 2f26 f5ff 0e36 5f94 d5bb
00000370: 23fe f6b2 cac8 952f c108 1931 490b f2ba
00000380: 689e 30bc af5f e732 3f0b 00bb 3ec7 3a1e
00000390: 20ea 003c 1b23 9537 652d 04bc 644f 9ebc
000003a0: 3705 09be 3b6d 8fbd d5ef 4fbb d7fd a63d
000003b0: 07ac a43d 969b 4dbc dec1 c5bb 3c24 133a
000003c0: 8fc4 973c c52b a73c 986d 92bc 5f37 da39
000003d0: f1a0 143e 6bb6 833b 45a5 84bd 454c 6cbb
000003e0: 22ae a9bc f7f3 ae3b acc2 c13c 74d5 b937
000003f0: 6de5 b137 c780 953b ebdb 94bb 6775 55bc

lstm.weight_hh_l0 f4 [200, 50]
-0.0861973 -7.788644e-05 -0.00532025 -0.01033398 2.2622758e-06 4.91236e-40 -3.284139e-08 -0.015910055
-1.5455937e-11 -1.2269517e-26 2.2859482e-05 1.1700438e-33 -0.044921543 -4.96872e-40 1.5847899e-08 1.6608326e-05
-0.0021320735 6.2006393e-06 -0.004515949 0.016308535 0.004171657 0.0019193733 -0.0014253921 -0.0056631435
0.0024753048 0.003896151 0.050589934 -0.0012971669 0.0056649013 0.01032175 -5.240181e-06 -0.0015670786
0.005649388 -0.055534508 -0.04418328 -0.048498727 0.03056855 0.001010421 2.0617554e-09 0.015913581
-1.5299974e-28 0.011491461 -3.2885155e-12 -0.066350706 -0.013572938 -8.93161e-07 0.034694724 0.0018437823
-0.0760377 1.1170549e-06 -0.0014284034 -9.524646e-06 -0.005085329 -0.00019109229 4.5974855e-07 4.91468e-40
0.0021280008 1.5758538e-05 -4.210685e-06 -0.012965279 4.914071e-07 0.013833668 -8.24983e-05 -0.00021662486
2.0699008e-05 -0.0010035904 3.0218538e-12 -0.0005673165 1.541466e-12 -0.001350543 0.0003732742 -0.0073038866
2.4239033e-11 -0.006378045 0.010074515 8.210733e-11 -2.1575194e-28 -4.9852e-40 -0.0011303906 0.00773403
6.4001583e-06 0.0027541656 -0.0008138902 1.2699347e-12 0.0051942826 0.010571584 -5.301103e-24 -0.00026214705
-0.00047594562 -1.2372151e-05 0.00976344 0.0013717668 -0.013179109 0.0020249784 0.004363083 4.92104e-40
0.00023406922 0.00021680661 0.012556493 0.008631858 1.574682e-05 4.528303e-06 6.9874686e-16 -1.6726428e-29
-0.008216661 -0.00014715939 3.8134553e-07 -0.007819911 -4.93322e-40 0.0053919572 -0.0018047667 7.488999e-12
4.95698e-40 -0.0045200707 0.013094096 4.7213508e-08 -0.0036253224 0.012556955 4.90952e-40 0.012879356
-1.2862241e-38 1.3138864e-24 4.6798876e-05 0.012372835 -0.0005199904 -0.0021712994 -0.0025008859 -3.5567904e-05
-5.55305e-40 3.3764862e-30 -0.007336876 0.0059016896 0.00065597735 -0.00074374216 -1.0628609e-05 0.0036937725
-5.658414e-18 -3.4094118e-08 -0.0018609272 -9.5481875e-23 0.0032120906 -4.92062e-40 1.842867e-05 8.665008e-19
-0.0019348125 -0.0019489599 -7.104242e-08 4.659442e-10 -0.003383303 5.6504345e-13 4.91825e-40 0.001869621
-6.2873096e-06 0.0008823871 1.0529557e-09 -4.95785e-40 -7.5348835e-05 1.2124243e-10 -0.0013978266 2.1934818e-16
4.1374146e-34 2.926977e-05 0.00015737345 -4.97695e-40 7.532223e-05 -0.008396987 3.4521798e-07 -4.91235e-40
-0.006217838 -0.0005550218 0.00026215124 4.93306e-40 -0.0068885027 0.0011031263 -0.0096310275 -4.97104e-40
0.009283628 -0.0056202738 0.0048173354 0.001403801 -0.0014741217 -0.001149607 -0.00010460664 -4.90798e-40
0.00032330333 0.0003754266 1.2513416e-13 2.9675582e-05 4.91255e-40 -0.0033264142 1.2792692e-11 0.014427535
-6.345403e-06 -3.1989553e-23 1.9006948e-05 8.721418e-07 6.958834e-11 0.011607748 9.9977794e-17 -5.503207e-26
-5.1986837e-14 -6.487824e-13 7.7356635e-06 0.0085804155 2.2134497e-11 -0.0114160115 -7.204968e-08 -2.972173e-09
0.00069983635 2.598229e-08 0.0020988577 7.871714e-05 7.060097e-07 -4.92666e-40 7.926471e-08 -3.7891195e-07
-4.96236e-40 2.736762e-05 0.0091210045 0.0076045957 0.0018839741 5.823928e-26 8.355141e-07 -0.0034787804
-2.5070021e-06 -0.00037021577 9.883892e-13 -1.0959608e-13 0.0061285677 -5.964682e-05 1.1882564e-05 -0.0033539475
0.0034126125 5.0789655e-05 -0.0017961593 -0.002797693 -0.00035479778 0.01080878 -1.410017e-08 2.5476558e-05
-0.000677255 -0.009337357 0.004005393 -1.9334728e-13 0.0001867886 -0.0015465386 -4.3743398e-11 0.0061427485
1.1498772e-05 -0.0007016495 0.0031512117 -0.004188908 -7.934942e-17 5.047555e-33 -0.0023008105 1.2767086e-26
00000000: 3688 b0bd f756 a3b8 7e55 aebb db4f 29bc
00000010: 9ad1 1736 5e59 0500 7d0d 0db3 ce55 82bc
00000020: adf3 87ad d805 7394 5dc2 bf37 2968 c208
00000030: a7ff 37bd 1469 0580 e621 8832 1c52 8b37
00000040: 42ba 0bbb 160f d036 87fa 93bb 7a99 853c
00000050: 65b2 883b 7b93 fb3a 39d4 baba e491 b9bb
00000060: b938 223b 9156 7f3b 6437 4f3d b305 aaba
00000070: a3a0 b93b 8f1c 293c d0d4 afb6 6f66 cdba
00000080: 801e b93b 2778 63bd 87f9 34bd 9aa6 46bd
00000090: e56a fa3c 1a70 843a c9ae 0d31 335d 823c
000000a0: 41f3 4191 ae46 3c3c a168 67ac e1e2 87bd
000000b0: 0761 5ebc 8ec1 6fb5 0e1c 0e3d 11ab f13a
000000c0: a7b9 9bbd b7ed 9535 4439 bbba 0bcc 1fb7
000000d0: d5a2 a6bb f25f 48b9 5cd3 f634 035a 0500
000000e0: ee75 0b3b 3431 8437 8249 8db6 526c 54bc
000000f0: 3de9 0335 9ca6 623c f002 adb8 cb25 63b9
00000100: c8a2 ad37 e88a 83ba e1a4 542c f7b7 14ba
00000110: 2af1 d82b b404 b1ba 04b4 c339 7155 efbb
00000120: 7335 d52d ebfe d0bb 940f 253c 518e b42e
00000130: c1bf 8891 ac6d 0580 9d29 94ba bf6d fd3b
00000140: f1c0 d636 3b7f 343b 3f5b 55ba 38ba b22b
00000150: cd34 aa3b 7034 2d3c 9513 cd98 c870 89b9
00000160: 5788 f9b9 fc91 4fb7 d6f6 1f3c dbcc b33a
00000170: 31ed 57bc 80b5 043b 31f8 8e3b c95b 0500
00000180: 7a70 7539 9556 6339 c0b9 4d3c a36c 0d3c
00000190: 0a18 8437 d4f1 9736 6b66 4926 4aa0 a98f
000001a0: 2d9f 06bc cc4e 1ab9 bbbb cc34 161f 00bc
000001b0: 2e5f 0580 04af b03b ec8d ecba 74bf 032d
000001c0: ce65 0500 1a1d 94bb 9f88 563c cdc7 4a33
000001d0: d196 6dbb b0bb 4d3c 9358 0500 ef03 533c
000001e0: b20e 8c80 6750 cb17 e949 4438 6eb7 4a3c
000001f0: f74f 08ba 5c4c 0ebb e7e5 23bb bf2e 15b8
00000200: f70b 0680 70f7 880e 2d6a f0bb f662 c13b
00000210: e5f5 2b3a b1f7 42ba 8751 32b7 3813 723b
00000220: 36c2 d0a2 e16e 12b3 5bea f3ba 6bdc e69a
00000230: f081 523b ab5b 0580 4497 9a37 f3be 7f21
00000240: 8999 fdba 3e74 ffba fc8f 98b3 e913 0030
00000250: 68ba 5dbb ac0b 1f2b 025b 0500 120e f53a
00000260: 94f7 d2b6 ff4f 673a 96b7 9030 0c66 0580
00000270: 9904 9eb8 b64e 052f 4737 b7ba 28e4 7c25
00000280: 3b7d 0908 5a88 f537 9d04 2539 5f6b 0580
00000290: 50f6 9d38 8493 09bc 6656 b934 5d59 0580
000002a0: 01bf cbbb e27e 11ba 5871 8939 235f 0500
000002b0: f3b8 e1bb c796 903a 75cb 1dbc b969 0580
000002c0: 5c1a 183c 462a b8bb bdda 9d3b bfff b73a
000002d0: 5137 c1ba 69ae 96ba 4360 dbb8 2558 0580
000002e0: 0a81 a939 e8d4 c439 77e3 0c2a d4ef f837
000002f0: 6b59 0500 f8ff 59bb 2a0d 612d 7861 6c3c
00000300: 99ea d4b6 26b1 1a9a 1c71 9f37 211d 6a35
00000310: c106 992e 6d2e 3e3c 7988 e624 b840 8895
00000320: be20 6aa9 b39d 36ab 6cc8 0137 df94 0c3c
00000330: 75b2 c22d 390a 3bbc bbb9 9ab3 053f 4cb1
00000340: 3975 373a a92f df32 fd8c 093b f114 a538
00000350: 9e84 3d35 5a5d 0580 3c38 aa33 436d cbb4
00000360: 4e67 0580 8493 e537 4470 153c f92f f93b
00000370: aeef f63a 8731 9015 1748 6035 40fc 63bb
00000380: f83d 28b6 8519 c2b9 791a 8b2b d7c9 f6a9
00000390: 27d2 c83b 492d 7ab8 395b 4737 e7cd 5bbb
000003a0: 23a6 5f3b fa06 5538 1b6d ebba 8059 37bb
000003b0: 2704 bab9 4f17 313c 343d 72b2 7eb6 d537
000003c0: d089 31ba b7fb 18bc ac3f 833b 8fb0 59aa
000003d0: afdc 4339 39b5 caba b062 40ae 1c49 c93b
000003e0: daea 4037 e7ee 37ba 8f84 4e3b 1b43 89bb
000003f0: a1f7 b6a4 d0aa d109 32c9 16bb d1e0 7c14

lstm.bias_ih_l0 f4 [200]
0.07134083 1.6159096e-06 -4.8064663e-07 0.013681949 0.0017034579 6.359597e-06 -0.00013641227 0.011062913
0.000151475 -0.0033272556 3.7951853e-05 0.00041678478 -0.00026958587 -0.009390863 -0.005047603 -1.37333345e-08
0.012975362 -0.00801668 -0.00019968033 0.005335133 2.6534593e-05 0.0031694104 0.00047358617 6.231921e-06
0.0010488137 1.342522e-05 0.024811966 0.0019372235 0.0036951532 -0.10620107 -4.1264045e-10 0.0043645026
-0.00010756682 -0.008314207 0.03223821 -0.09831565 0.014286798 -6.885487e-05 -4.1272326e-08 0.0034758525
-1.2969196e-08 -0.004187917 0.00017275703 -3.568112e-20 0.001323845 0.0046082456 -2.6933314e-30 0.011238558
-0.05165428 0.009944769 0.00022744772 -0.0016185269 0.0046067154 -1.7936648e-08 -2.2828326e-05 0.0041374075
9.840301e-06 0.004196126 0.010454829 -1.8605627e-10 -0.0020794787 0.0041535934 7.095858e-10 -1.6174265e-05
0.008462084 3.2271033e-18 -0.008904612 -4.0743105e-37 8.306093e-09 1.3772126e-10 0.0034896177 -0.0003592237
-5.672995e-13 -0.003533659 -4.94783e-40 0.001909511 -0.012282621 4.6494737e-09 -0.00020172624 -7.000871e-05
-0.00017362017 0.011008099 -0.013512412 -0.00033354698 4.1766453e-09 0.037551478 8.1719134e-07 -0.00615753
-1.1569921e-15 -0.002269711 -4.4583257e-09 -1.2270321e-14 -0.008139367 0.005137078 1.7598326e-08 0.0003217952
-0.004271329 0.0014845467 -0.01406228 -4.94668e-40 0.06452537 0.0015485231 2.632213e-07 -0.09568555
0.0019737284 0.00018744596 -1.5621011e-09 -0.006273365 0.012681603 -1.8056276e-14 1.6685595e-08 0.00023840638
-0.0009973902 0.014200135 -0.011619878 0.0077137505 0.00037504203 0.0006402878 0.0015863295 0.0057925726
-0.01136749 -0.00813685 9.531493e-07 9.591557e-05 -0.014033252 -0.0027976953 0.0023216626 -0.00014659441
0.00036172033 -4.90817e-40 -1.909856e-06 -0.013922856 0.0010684114 0.0028343215 -8.530323e-06 1.13466386e-13
-4.91993e-40 -4.91641e-40 0.0025000286 2.4101354e-07 -0.00074335316 -0.0040665464 -0.008055703 0.0032081776
-3.098582e-05 -1.2229888e-31 0.002779554 -6.785838e-05 -9.065738e-06 0.00727878 0.094004735 -0.0025684338
-3.443301e-05 -0.0071789892 -0.0049998867 -0.0001836681 4.312385e-05 1.6996721e-07 -1.2489312e-32 4.388088e-06
0.006524389 0.00012752337 -0.09161967 1.6167589e-06 0.0068691717 -4.9215e-40 0.0013205444 -0.00845286
0.044824168 -0.0139183225 -6.917256e-19 0.009440887 -4.8822724e-17 6.106218e-05 -0.0018715148 0.031098386
-0.0028833416 2.5464516e-11 0.0016689905 -0.040404327 -4.419967e-09 -4.9509e-40 2.94352e-06 -0.00940787
-6.881638e-09 -0.00039686644 9.275488e-09 -1.922452e-09 0.0025147926 -6.674393e-09 -0.0014134742 0.008067293
-0.00015542618 -0.0519534 0.014038414 -3.82049e-07 0.00922762 -0.00056512543 0.12255127 -3.8446633e-09
00000000: 241b 923d 3be2 d835 c905 01b5 412a 603c
00000010: 9046 df3a 8664 d536 e409 0fb9 3841 353c
00000020: 43d5 1e39 160e 5abb 7e2e 1f38 e883 da39
00000030: 3457 8db9 22dc 19bc 5d66 a5bb d8ef 6bb2
00000040: 9d96 543c 6558 03bc 4861 51b9 57d2 ae3b
00000050: 9b96 de37 e2b5 4f3b a94b f839 cb1b d136
00000060: 5978 893a e13c 6137 7742 cb3c 6fea fd3a
00000070: 622a 723b f27f d9bd fbd9 e2af 1a04 8f3b
00000080: 7f95 e1b8 5038 08bc 370c 043d b759 c9bd
00000090: 2d13 6a3c 2d66 90b8 6743 31b3 21cb 633b
000000a0: 21cf 5eb2 cb3a 89bb 1d26 3539 d47f 289f
000000b0: de84 ad3a c400 973b 4e82 5a8e ee21 383c
000000c0: 7093 53bd 62ef 223c 087f 6e39 c024 d4ba
000000d0: eef3 963b 1b13 9ab2 757f bfb7 1793 873b
000000e0: c517 2537 a87f 893b bb4a 2b3c 2f92 4caf
000000f0: dd47 08bb de1a 883b a90c 4330 f8ad 87b7
00000100: 8ea4 0a3c 421e 6e22 a6e4 11bc 40a4 0a83
00000110: 95b2 0e32 176d 172f 12b2 643b 3056 bcb9
00000120: 3dae 1fab f694 67bb 4163 0580 8f48 fa3a
00000130: 0c3d 49bc 34c1 9f31 7a86 53b9 a4d1 92b8
00000140: cf0d 36b9 505b 343c 2a63 5dbc ebdf aeb9
00000150: 2982 8f31 94cf 193d f65c 5b35 1bc5 c9bb
00000160: 79bd a6a6 6fbf 14bb d92f 99b1 de0a 5da8
00000170: fb5a 05bc ef54 a83b 212b 9732 9fb6 a839
00000180: 81f6 8bbb 1f95 c23a 7a65 66bc ef62 0580
00000190: e125 843d d0f7 ca3a dc50 8d34 c9f6 c3bd
000001a0: ab59 013b 248d 4439 8cb1 d6b0 cd90 cdbb
000001b0: 80c6 4f3c f0a2 a2a8 0354 8f32 bafc 7939
000001c0: ddba 82ba afa7 683c 4d61 3ebc a1c3 fc3b
000001d0: 4aa1 c439 fdd8 273a 63ec cf3a 9fcf bd3b
000001e0: b53e 3abc 6c50 05bc ecdb 7f35 4826 c938
000001f0: baeb 65bc 8a59 37bb 0927 183b 23b7 19b9
00000200: 48a5 bd39 3358 0580 142b 00b6 b11c 64bc
00000210: f009 8c3a 06c0 393b 751d 0fb7 eb80 ff29
00000220: 7a5b 0580 7f5a 0580 85d7 233b a664 8134
00000230: 96dd 42ba aa40 85bb 11fc 03bc 4a40 523b
00000240: c5f6 01b8 c6c0 1e8c 2e29 363b 314f 8eb8
00000250: 0c19 18b7 d582 ee3b 8e85 c03d 2b53 28bb
00000260: 2a6c 10b8 ba3d ebbb 17d6 a3bb 0897 40b9
00000270: e2df 3438 3b80 3634 49b2 818a 643d 9336
00000280: 8bca d53b cbb7 0539 18a3 bbbd 6aff d835
00000290: ca16 e13b ea5b 0580 1e16 ad3a dd7d 0abc
000002a0: 8c99 373d ad09 64bc 4f29 4ca1 f3ad 1a3c
000002b0: b327 61a4 820e 8038 9e4d f5ba 0bc2 fe3c
000002c0: 72f6 3cbb fefc df2d 07c2 da3a 027f 25bd
000002d0: 71de 97b1 1c64 0580 4a89 4536 7723 1abc
000002e0: 8773 ecb1 8312 d0b9 075a 1f32 221c 04b1
000002f0: 38cf 243b 9554 e5b1 5344 b9ba ae2c 043c
00000300: e6f9 22b9 17cd 54bd 6001 663c 6a1c cdb4
00000310: 722f 173c ed24 14ba 29fc fa3d 041a 84b1

lstm.bias_hh_l0 f4 [200]
0.037072826 -0.0014375472 2.4689913e-05 0.0030805261 -0.0018735955 1.699125e-39 -1.2293425e-09 -0.011801279
0.0017054308 -0.00022702645 0.0067280154 0.0056694546 -0.0012349706 -0.008021221 -0.00049375906 2.7761232e-08
-0.00072012516 -4.94487e-40 -1.5035238e-07 -5.3901257e-08 -0.0038283113 4.91626e-40 -2.2365894e-05 6.617394e-06
-1.740159e-12 -5.726844e-33 0.00049350294 1.9945375e-20 0.006402537 -0.07958492 -5.5798105e-28 -3.6612494e-06
-0.00032455195 5.119544e-05 0.052400336 -0.019296043 -0.006422681 0.0038347016 0.0011614346 0.10059398
0.0038144123 -0.0031023575 -1.0268976e-15 7.377628e-33 -0.0065700016 -0.012579915 4.2940315e-05 -0.0040892824
0.044439718 -0.00047504652 6.4166384e-06 0.006133989 7.1210807e-06 -0.0009583325 -3.092893e-09 -0.0052577592
-2.5531746e-05 -4.728362e-06 8.03623e-09 -1.591287e-11 -4.693431e-17 -2.0821879e-11 2.684146e-06 0.010513484
6.332724e-05 0.007655141 -0.0001572017 -2.686132e-39 -6.630862e-05 0.0022207987 1.0178892e-09 -0.0005317762
0.012975939 -0.003520211 4.91857e-40 0.07779861 -0.008467781 1.6973096e-05 0.008663736 -0.0006661391
-2.1220571e-06 -0.00091315707 -1.8320407e-05 -0.009763591 -0.00018757791 -0.09864678 6.467471e-07 -0.013604816
-1.472821e-38 -7.014355e-10 0.0011769265 -0.00010749826 -0.0003678481 2.4564347e-11 0.014395654 7.703761e-06
-0.026638635 4.735818e-05 0.004805231 -0.005161051 0.0005933596 -3.6803522e-15 -4.92336e-40 -0.083632216
3.96343e-40 4.96414e-40 0.007379981 0.012970382 -1.3487921e-08 -0.00031378126 -0.0026237725 -4.4530975e-06
-0.0031201215 3.1568423e-05 -1.5850333e-31 -2.5121625e-14 -0.0012728821 -7.804153e-12 -0.0030583232 -1.2676617e-07
-4.9337e-40 -9.044377e-24 -1.4304814e-13 2.974486e-13 0.00927072 -2.9789032e-06 -0.0004243977 -1.25874e-39
0.00050571305 -0.0036640803 -0.005902709 0.00073523185 0.009407534 -0.004159215 -0.0065593906 -0.0017518699
-8.849113e-06 0.011189783 -2.8913503e-08 0.0007631098 2.0309684e-16 -0.0023701966 -0.0007968069 0.06429799
-2.253154e-05 0.003822217 5.6779067e-25 0.0022770327 2.0621736e-12 -0.009810405 0.023537586 -0.0056516975
-9.251303e-15 -0.020288901 -0.0001512593 0.0027446942 -0.007587835 -6.0903592e-05 0.00015063467 0.010189227
-1.9625457e-05 -4.2999854e-06 -0.029559271 6.5347584e-31 -0.005376328 -2.4611808e-08 5.6449376e-26 2.6220645e-05
-0.11224714 0.0015326532 -1.1667313e-15 -2.3385029e-16 6.5831046e-06 -2.77092e-39 -5.637078e-06 0.024988784
6.20091e-40 1.3370799e-11 0.021548048 -0.026574494 -0.0014066648 -0.00016848084 -0.00095106836 -0.009441709
4.9350652e-05 -4.92014e-40 0.01325253 -0.0035935133 0.00045124083 -6.06666e-40 -9.165642e-06 2.697186e-07
9.639647e-10 -0.09708798 1.13617425e-07 -0.0046200496 -0.0003870858 4.94323e-40 0.14568414 0.0002295702
00000000: add9 173d 146c bcba 2f1d cf37 a7e2 493b
00000010: 6f93 f5ba 7880 1200 a5f5 a8b0 275a 41bc
00000020: c388 df3a f30d 6eb9 af76 dc3b d5c6 b93b
00000030: bdde a1ba 706b 03bc 9c6f 01ba 9877 ee32
00000040: c8c6 3cba 6e62 0580 8c70 21b4 0f81 67b3
00000050: 68e4 7abb 745a 0500 649e bbb7 fb0a de36
00000060: d6e7 f4ab 40e2 ed89 6c5e 013a f560 bc1e
00000070: 60cc d13b 6bfd a2bd cdd4 3092 c9b3 75b6
00000080: a028 aab9 afba 5638 bca1 563d bc12 9ebc
00000090: 5a75 d2bb 9e4f 7b3b 473b 983a 3704 ce3d
000000a0: 38fb 793b ec50 4bbb d6fd 93a6 333a 190a
000000b0: 2b49 d7bb fd1b 4ebc d01a 3438 63ff 85bb
000000c0: 6c06 363d aa0f f9b9 814e d736 a1ff c83b
000000d0: 9ef1 ee36 9b38 7bba c08a 54b1 4849 acbb
000000e0: 022d d6b7 52a8 9eb6 b70f 0a32 99f8 8bad
000000f0: 4172 58a4 b426 b7ad 4721 3436 bf40 2c3c
00000100: 8ece 8438 fad7 fa3b 83d6 24b9 d83f 1d80
00000110: 2b0f 8bb8 d28a 113b cbe5 8b30 e666 0bba
00000120: 0899 543c 57b3 66bb 195b 0500 e154 9f3d
00000130: 73bc 0abc 7261 8e37 58f2 0d3c d79f 2eba
00000140: aa68 0eb6 ef60 6fba c6ae 99b7 78f7 1fbc
00000150: 90b0 44b9 5307 cabd 1f9c 2d35 bce6 5ebc
00000160: 4260 a080 23cf 40b0 1a43 9a3a b070 e1b8
00000170: bcdb c0b9 fe11 d82d c0db 6b3c 673f 0137
00000180: 4439 dabc 75a2 4638 3375 9d3b 091e a9bb
00000190: b08b 1b3a 4299 84a7 6f5c 0580 5e47 abbd
000001a0: d850 0400 cd67 0500 c5d3 f13b ba81 543c
000001b0: 81b8 67b2 0283 a4b9 99f3 2bbb d16b 95b6
000001c0: f47a 4cbb 5668 0438 c4bf 4d8c 8646 e2a8
000001d0: d6d6 a6ba c84a 09ad 266e 48bb 381d 08b4
000001e0: 515f 0580 96f1 2e99 d20e 21aa dc72 a72a
000001f0: 38e4 173c 2be9 47b6 b281 deb9 dbb4 0d80
00000200: d491 043a 1121 70bb 836b c1bb 93bc 403a
00000210: 0f22 1a3c 064a 88bb 28f0 d6bb 009f e5ba
00000220: a776 14b7 5a55 373c 775d f8b2 6f0b 483a
00000230: 9b27 6a25 4d55 1bbb cee0 50ba aaae 833d
00000240: 1d02 bdb7 297e 7a3b 03b9 2f17 453a 153b
00000250: d11c 112c d2bb 20bc e5d1 c03c e031 b9bb
00000260: 1ba8 26a8 e934 a6bc 5c9b 1eb9 54e0 333b
00000270: 60a3 f8bb bc72 7fb8 b0f3 1d39 b7f0 263c
00000280: 59a1 a4b7 9848 90b6 4926 f2bc a610 540d
00000290: e82b b0bb f069 d3b2 0bc3 8b15 68f4 db37
000002a0: d4e1 e5bd 4fe3 c83a ca24 a8a6 36ce 86a5
000002b0: 70e4 dc36 332c 1e80 2226 bdb6 47b5 cc3c
000002c0: 90c0 0600 ba38 6b2d 8885 b03c c1b2 d9bc
000002d0: d75f b8ba 3baa 30b9 1e51 79ba 66b1 1abc
000002e0: dcfd 4e38 895b 0580 2421 593c 2681 6bbb
000002f0: 8594 ec39 239b 0680 22c6 19b7 d8cd 9034
00000300: 7e7c 8430 10d6 c6bd d7fd f333 c963 97bb
00000310: c7f1 cab9 f961 0500 392e 153e c8b8 7039

lstm.weight_ih_l0_reverse f4 [200, 33]
-0.00027455506 -0.0012348384 0.0025366417 -0.00022953138 -0.0023235853 -0.00092807546 -0.00010381915 -2.0316766e-07
-0.013739341 -0.00036689543 0.0064648977 -0.0027733315 0.004108363 -0.00033266583 -9.638718e-07 0.0075187194
-0.0108905705 -0.003436277 5.7798126e-05 2.3259512e-08 0.00052954635 1.02811e-07 0.0018229169 3.0335396e-08
-2.216158e-08 -0.004754005 3.3615797e-06 1.5575433e-05 -0.012078598 1.3011521e-05 1.8190939e-06 3.084533e-10
-0.005970205 1.2196548e-09 1.6612496e-06 3.4852937e-11 -0.010833141 0.0143773705 -1.6026908e-06 2.7269997e-09
-0.009490295 -0.00013323862 0.0050389655 0.00054234825 0.0024636376 9.005966e-13 0.0005343478 8.991544e-10
-1.0482896e-07 -7.910404e-13 -0.011266357 0.001381304 0.0028657464 -1.4829634e-12 5.1349167e-07 6.10716e-06
0.010396433 0.005188296 -1.05208275e-13 0.0003541219 7.1220705e-14 6.7060855e-06 -0.0055279913 1.327485e-12
-0.007842679 -0.00021642957 -0.04230273 0.0034173566 -0.009709881 -0.049884014 0.003973052 0.028280007
0.07147795 -0.0006584725 -0.005363005 0.0018074173 0.00951078 0.0010729446 0.00707268 0.03901563
-0.020282773 -0.03989919 -4.445361e-05 5.0106807e-14 -0.022882337 -1.3503084e-08 1.4805725e-07 0.010752304
0.012068179 0.0009854551 1.8525038e-26 3.733829e-05 0.0056131133 0.008554364 0.0090341605 0.0025321455
0.00045662865 -0.004030493 -0.00025761282 0.03662885 -0.06674993 -0.0638309 0.06711116 0.010724989
0.0023790936 -0.055250954 0.0006677757 0.031581465 0.0008921593 -0.023173623 -0.031512674 -0.03162488
0.06346749 0.004561819 0.002406918 0.003208691 0.04653261 -6.9843914e-10 0.028852645 0.00059761346
-0.034545768 0.002430087 -0.0073169963 -0.026721407 0.0056009237 -0.028263295 0.019281236 0.0009692847
-0.014735349 0.0006016812 0.004276111 -0.0007901625 2.6475155e-08 -1.114143e-21 0.00492928 4.4340307e-08
-0.00566598 0.005312022 0.00242525 0.0003642746 4.92423e-40 1.4681721e-05 -2.6697089e-21 -0.00013850188
-0.00042960336 0.0083584245 2.1707674e-06 0.0006648534 -1.3915093e-07 -8.692387e-06 4.91507e-40 -3.7066366e-06
0.0026643076 0.01100505 6.38456e-19 4.90702e-40 1.7915118e-14 1.342089e-06 -2.6833741e-12 -0.000668341
-0.003369572 -0.0074409205 -0.0076761763 -0.002146576 -0.008297493 -4.001785e-05 0.0038878885 -0.008085665
0.0042191744 -8.679673e-06 -2.8080063e-28 -0.0059420234 -7.2209523e-09 -3.6967679e-06 3.9350336e-35 -0.0046091345
4.160587e-05 0.0020735061 3.4759757e-06 8.231168e-20 1.4490537e-06 -0.0024529046 1.7596173e-36 -1.529828e-36
0.006975388 0.002757548 0.0012532884 -0.0030425203 0.0012123791 -2.6366468e-08 -9.4450634e-08 -1.10447625e-30
-2.1518743e-05 0.011890189 0.0066494676 0.004055478 -4.93739e-40 0.008619384 0.0027171108 0.0023609872
0.014431652 0.011996718 0.010466549 0.002154367 -0.0013986628 0.0056052697 0.006007932 0.017427843
0.002375305 0.0029133842 0.007906995 0.0023226112 0.0016718039 -0.0014347394 -0.00083341124 0.00017992122
-0.012613323 -0.0013319373 -0.0013181391 -0.0036334419 -0.000866845 -0.0003920874 -0.008846892 -0.0015745295
0.0012634343 0.00076245016 0.00037962338 0.0010888943 0.010822467 0.0035112875 -3.6224485e-11 0.0046150936
-0.08292949 -3.328249e-05 -0.016706018 -8.905553e-06 0.04080058 0.0023339393 5.613956e-17 5.4929737e-12
0.002291534 0.00027794988 -0.007079521 3.5417329e-12 0.08477209 0.0003500772 0.0010592795 1.3762627e-06
-1.5252467e-33 3.2147245e-09 -0.0059075737 -6.4351627e-29 9.419896e-05 -0.0024321761 8.235343e-05 2.8340735e-34
00000000: 28f2 8fb9 4dda a1ba c93d 263b 5cae 70b9
00000010: 4b47 18bb 174a 73ba 7bb9 d9b8 4d26 5ab4
00000020: f91a 61bc df5b c0b9 7ed7 d33b c8c0 35bb
00000030: 729f 863b a769 aeb9 625e 81b5 975f f63b
00000040: 5d6e 32bc 2933 61bb 446c 7238 35cc c732
00000050: 41d1 0a3a f2c8 dc33 f1ee ee3a 1f4a 0233
00000060: d45d beb2 7cc7 9bbb 8097 6136 fda7 8237
00000070: 50e5 45bc 0f4c 5a37 9727 f435 f192 a92f
00000080: b6a1 c3bb caa0 a730 1af8 de35 eb48 192e
00000090: 7d7d 31bc 108f 6b3c 091c d7b5 e365 3b31
000000a0: 2f7d 1bbc f8b5 0bb9 e81d a53b 602c 0e3a
000000b0: fb74 213b d37e 7d2b 7913 0c3a 5e28 7730
000000c0: 551e e1b3 78a8 5eab 8796 38bc df0c b53a
000000d0: 3fcf 3b3b 63b5 d0ab e1d6 0935 1bec cc36
000000e0: cd55 2a3c 9502 aa3b 71e8 eca9 70a9 b939
000000f0: f15f a029 d604 e136 2724 b5bb b0d3 ba2b
00000100: 947e 00bc 5ff1 62b9 a145 2dbd bbf5 5f3b
00000110: 3116 1fbc 2e53 4cbd 6030 823b 79ab e73c
00000120: 0863 923d 579d 2cba 26bc afbb dce6 ec3a
00000130: 1ad3 1b3c 0ca2 8c3a f1c1 e73b dace 1f3d
00000140: 0f28 a6bc 556d 23bd b373 3ab8 37a9 6129
00000150: bd73 bbbc 31fb 67b2 abf9 1e34 6f2a 303c
00000160: 9db9 453c 632a 813a 8d76 b714 af9b 1c38
00000170: 35ee b73b 9a27 0c3c 0404 143c 5af2 253b
00000180: a967 ef39 3a12 84bb 3510 87b9 2208 163d
00000190: 30b4 88bd c6b9 82bd 9371 893d ddb7 2f3c
000001a0: 91ea 1b3b d34e 62bd ab0d 2f3a 915b 013d
000001b0: ccdf 693a 9cd6 bdbc 6f13 01bd 1789 01bd
000001c0: 3efb 813d 507b 953b 62bd 1d3b e748 523b
000001d0: fa98 3e3d 49fc 3fb0 625c ec3c 29a9 1c3a
000001e0: dd7f 0dbd 1842 1f3b 6ac3 efbb dae6 dabc
000001f0: f487 b73b 6d88 e7bc aff3 9d3c 9817 7e3a
00000200: 896c 71bc 24ba 1d3a 9e1e 8c3b e822 4fba
00000210: 7b6b e332 525d a89c cc85 a13b af70 3e33
00000220: afa9 b9bb 7810 ae3b f1f0 1e3b 1cfc be39
00000230: ad5c 0500 8351 7637 aeb7 499d d13a 11b9
00000240: 633c e1b9 c6f1 083c 80ad 1136 8e49 2e3a
00000250: 8469 15b4 85d5 11b7 1f5a 0500 88bf 78b6
00000260: aa9b 2e3b 864e 343c 5f70 3c21 e157 0500
00000270: 735d a128 d421 b435 5fd3 3cac 9b33 2fba
00000280: 0ad4 5cbb f7d2 f3bb 6f88 fbbb 92ad 0cbb
00000290: 35f2 07bc d7d8 27b8 f2cb 7e3b bd79 04bc
000002a0: 0041 8a3b e99e 11b7 82fa b191 4eb5 c2bb
000002b0: 2b1c f8b1 fd15 78b6 e738 5106 3908 97bb
000002c0: f681 2e38 a9e3 073b cf44 6936 5c5a c21f
000002d0: 1b7d c235 e9c0 20bb 12b1 1504 b424 0284
000002e0: cc91 e43b fab7 343b 6145 a43a 0565 47bb
000002f0: b1e8 9e3a 7a7c e2b2 c9d4 cab3 2636 b38d
00000300: 2683 b4b7 11cf 423c c7e3 d93b d1e3 843b
00000310: 5860 0580 5138 0d3c 8e11 323b cbba 1a3b
00000320: bc72 6c3c e28d 443c e37b 2b3c 4830 0d3b
00000330: 5653 b7ba 69ac b73b 30de c43b d6c4 8e3c
00000340: 01ab 1b3b 7aee 3e3b 578c 013c f336 183b
00000350: 6e20 db3a de0d bcba 4879 5aba 3ca9 3c39
00000360: 1ca8 4ebc 6694 aeba 69c5 acba 0a1f 6ebb
00000370: fc3c 63ba 1491 cdb9 8ef2 10bc 7160 ceba
00000380: d299 a53a 2adf 473a 3008 c739 3bb9 8e3a
00000390: b750 313c a11d 663b 2551 1fae 363a 973b
000003a0: f0d6 a9bd cd98 0bb8 0fdb 88bc 0f69 15b7
000003b0: 821e 273d 01f5 183b f272 8124 4f44 c12c
000003c0: 902d 163b cdb9 9139 54fb e7bb 303a 792c
000003d0: fd9c ad3d 918a b739 86d7 8a3a 07b8 b835
000003e0: d26c fd88 08ea 5c31 5294 c1bb 9826 a390
000003f0: ae8c c538 2565 1fbb 29b5 ac38 435b bc07

lstm.weight_hh_l0_reverse f4 [200, 50]
-5.0741273e-06 0.0012459717 0.013128115 -0.0020781728 -4.7508227e-15 5.52745e-05 2.7019214e-08 0.0029983106
-0.0049537313 -0.0019941744 0.00021364544 2.961235e-16 -4.296128e-08 0.00206757 0.0004938041 -0.0011283437
-0.002542466 0.0046594865 -1.3937544e-11 0.00043367798 1.582836e-13 0.0045632394 0.013864382 0.005507027
-0.00031525284 -6.556817e-06 -4.074011e-08 0.0057681613 -1.13736935e-35 0.0035510974 0.0032658926 4.2516398e-08
9.07937e-06 -5.2838787e-09 -1.4460114e-05 2.1061994e-07 2.0889605e-16 4.94937e-40 1.0407137e-07 -0.0014766086
7.2848898e-06 -0.0040360475 5.2369334e-13 2.0634076e-08 -0.0001688699 -1.2079564e-05 -2.0615314e-09 -0.0012873829
-3.3925962e-06 -0.0009498761 -2.6699215e-06 -9.872739e-05 1.68579e-22 -4.2215005e-13 0.010302263 0.00016132784
-3.1882517e-09 5.061483e-13 0.005979926 3.728737e-13 1.5732229e-07 1.47055e-05 -1.5238696e-06 -0.00048735342
-2.8867686e-05 -3.30983e-23 0.0005091158 0.0017378188 -0.0013853703 7.549311e-08 1.6271586e-05 3.489839e-13
-0.0060517276 -4.90543e-40 3.812198e-07 -0.00018131675 -0.003780027 0.00033594802 0.009213678 7.3088976e-19
0.012583373 -9.103758e-05 0.0029090387 -3.5755337e-30 0.002415683 -1.7328808e-15 8.838151e-05 -0.00014790635
0.0043754554 0.008325816 0.0057526305 0.00095998717 0.00069802714 -7.972213e-14 -1.1303653e-15 0.008289741
-0.011708519 -0.0050328365 6.3722063e-31 -0.0003066139 4.1330804e-08 0.005936788 -0.00016272636 0.00013785675
-0.0003342587 -1.5987424e-10 -0.00079806417 0.0009741766 -3.226079e-05 0.0005685672 4.723099e-18 -0.001520793
0.007811579 4.92879e-40 -0.009111381 -0.0016918078 2.3249147e-05 -1.081276e-09 3.0220406e-06 2.119596e-05
4.91489e-40 -1.4027089e-26 -5.111869e-13 0.0007090376 4.17598e-18 0.014324065 -1.8425606e-05 -0.013666994
2.836087e-05 -0.0033207082 -4.0110887e-24 0.00014021354 -0.0131938765 0.0032263931 0.010132058 0.0032126594
7.431386e-07 -0.0023558112 0.00673584 0.0004064215 1.1853166e-12 -1.5613308e-05 -0.0023741887 -0.0043844995
0.0065658605 0.0011190588 -3.7128703e-07 -4.420932e-07 -0.0023135487 -0.009128122 4.21019e-40 -0.00096023426
0.019386187 -1.3290106e-05 -0.016231423 -0.0028281831 -0.014231747 0.0007539333 -5.3478884e-12 0.014198061
1.261817e-38 3.2066738e-23 0.00073528703 -5.8614913e-16 0.00065101753 0.00106033 0.0026714138 0.000109648856
4.9354e-40 1.0469843e-05 -0.010190919 -0.018295407 0.007299216 0.009577877 0.00853351 -0.0072344407
0.009368064 4.9146e-40 4.4501007e-09 1.6937031e-06 2.0296213e-06 -4.96386e-40 -4.90562e-40 4.92527e-40
0.00012832969 1.4431113e-07 0.0012643635 -2.0968873e-09 0.0026063812 0.0042948197 -0.008070896 -0.015219679
-0.0012098227 1.1339758e-06 4.2046384e-05 2.842376e-05 2.9449295e-06 -5.6256493e-11 0.0070174877 -0.0025398836
0.0049839537 0.0052715135 -2.689796e-20 7.0772164e-14 -1.9598431e-13 7.666178e-27 0.0021854183 4.4779964e-18
-0.0031292709 -0.0005770624 0.00016417904 -4.92306e-40 4.91702e-40 -0.00872907 0.012320634 0.0023409026
-0.011991269 0.011571438 0.0005575929 2.3794842e-08 0.00087270536 -0.00041182528 -1.9664212e-06 0.005820696
7.85278e-35 2.6518102e-26 0.007132623 7.707688e-18 -7.010132e-05 1.03199005e-08 0.0014909325 0.01414929
0.00032253063 -0.011829762 -2.9153096e-05 -5.7514e-40 -6.9061223e-09 5.782614e-15 -3.0842524e-09 -3.3709355e-08
-0.006118712 0.00939792 -7.266339e-22 0.0065260753 3.546679e-19 1.4598995e-05 -0.00082508905 -0.0046060164
-2.720029e-30 -0.0037682315 0.0013700533 0.0122423945 4.92292e-40 -0.013633462 0.0047974545 4.953041e-37
00000000: 6c42 aab6 df4f a33a 4e17 573c f431 08bb
00000010: 9b2a aba7 8bd6 6738 e117 e832 4e7f 443b
00000020: e952 a2bb b2b0 02bb 0306 6039 1eb4 aa25
00000030: 6d84 38b3 1280 073b a272 013a efe4 93ba
00000040: 809f 26bb 9bae 983b 1e31 75ad 465f e339
00000050: 2436 322a 3a87 953b 6f27 633c 4a74 b43b
00000060: 8548 a5b9 a102 dcb6 3afa 2eb3 d802 bd3b
00000070: 47e4 7185 87b9 683b 9608 563b 469b 3633
00000080: 9953 1837 7d8d b5b1 b799 72b7 c526 6234
00000090: 3bd7 7025 af63 0500 d77d df33 c38a c1ba
000000a0: ba70 f436 d240 84bb 1568 132b d03e b132
000000b0: ab12 31b9 55a9 4ab7 d8aa 0db1 67bd a8ba
000000c0: 5cac 63b6 1b01 79ba e72c 33b6 dd0b cfb8
000000d0: accc 4b1b 3ca6 edaa d3ca 283c 1d2a 2939
000000e0: 5118 5bb1 d477 0e2b 41f3 c33b c3e8 d12a
000000f0: 6cec 2834 a4b7 7637 c387 ccb5 7883 ffb9
00000100: e228 f2b7 b60d 209a 2f76 053a 86c7 e33a
00000110: 5095 b5ba c71e a233 f77e 8837 e175 c42a
00000120: 924d c6bb 6f57 0580 73aa cc34 d81f 3eb9
00000130: 54ba 77bb 2e22 b039 f7f4 163c 78b8 5721
00000140: 7e2a 4e3c 6eeb beb8 92a5 3e3b 770a 918e
00000150: 6f50 1e3b 04bc f9a6 7659 b938 4f17 1bb9
00000160: fb5f 8f3b 0169 083c 9080 bc3b a6a7 7b3a
00000170: cffb 363a ae84 b3a9 1ee7 a2a6 b2d1 073c
00000180: 17d5 3fbc 7eea a4bb 38ca 4e0d 05c1 a0b9
00000190: b383 3133 6389 c23b 86a1 2ab9 a48d 1039
000001a0: 713f afb9 99c8 2faf 2e35 51ba e35f 7f3a
000001b0: c24f 07b8 e60b 153a 6940 ae22 5855 c7ba
000001c0: 46f8 ff3b f25d 0500 e747 15bc a6bf ddba
000001d0: 2a07 c337 049c 94b0 43ce 4a36 facd b137
000001e0: 125a 0500 e5ea 8a94 e6e2 0fab b5de 393a
000001f0: 0411 9a22 7caf 6a3c b090 9ab7 87eb 5fbc
00000200: 81e8 ed37 3da0 59bb e62b 9b98 4906 1339
00000210: 212b 58bc e571 533b ee00 263c 7b8b 523b
00000220: 197c 4735 f463 1abb 52b8 dc3b f814 d539
00000230: 88d1 a62b 53f9 82b7 4798 1bbb d9ab 8fbb
00000240: 6e26 d73b 62ad 923a 4d55 c7b4 d458 edb4
00000250: e89e 17bb 1e8e 15bc a195 0400 3bb8 7bba
00000260: c8cf 9e3c 92f8 5eb7 c3f7 84bc 0a59 39bb
00000270: 462c 69bc 9ba3 453a 7f29 bcac fc9e 683c
00000280: 5366 8900 b310 1b1a 47c0 403a 2cf2 28a6
00000290: 0ca9 2a3a c5fa 8a3a e312 2f3b 48f3 e538
000002a0: ca5f 0500 a2a7 2f37 d0f7 26bc 40e0 95bc
000002b0: 432e ef3b 87ec 1c3c 23d0 0b3c e30e edbb
000002c0: 827c 193c fe59 0500 80e7 9831 3253 e335
000002d0: a134 0836 b967 0580 7d57 0580 f75c 0500
000002e0: 3d90 0639 f1f3 1a34 00b9 a53a d518 10b1
000002f0: d2cf 2a3b 8fbb 8c3b cb3b 04bc f65b 79bc
00000300: ea92 9eba 1d33 9835 f65a 3038 8f6f ee37
00000310: 81a1 4536 2e6b 77ae f4f2 e53b 2d74 26bb
00000320: 6f50 a33b a9bc ac3b 470b fe9e 605d 9f29
00000330: a2a8 5caa 24d8 1714 3c39 0f3b 7b35 a522
00000340: 7414 4dbb 0146 17ba 7a27 2c39 595c 0580
00000350: aa5a 0500 6004 0fbc 7cdc 493c d469 193b
00000360: 0777 44bc 2196 3d3c 6d2b 123a 6965 cc32
00000370: 44c6 643a 41ea d7b9 dcf6 03b6 89bb be3b
00000380: 40c3 d006 b04f 0315 c7b8 e93b 872e 0e23
00000390: 5c03 93b8 674b 3132 656b c33a 6cd2 673c
000003a0: 5419 a939 9ed1 41bc cc8d f4b7 4243 0680
000003b0: e54a edb1 3357 d027 bef2 53b1 d4c7 10b3
000003c0: 7a7f c8bb bcf9 193c 939c 5b9c b0d8 d53b
000003d0: e65b d120 35ee 7437 ca4a 58ba 11ee 96bb
000003e0: cbac 5c8e 6ff4 76bb 5c93 b33a 5394 483c
000003f0: 4f5c 0500 e25e 5fbc f733 9d3b 138b 2803

lstm.bias_ih_l0_reverse f4 [200]
-0.00019132269 0.0010293506 3.309951e-05 -0.03640763 -4.91037e-40 0.00036441482 0.0009697426 -0.0018441853
4.90831e-40 3.6309643e-08 0.013839778 -4.9787e-40 -0.012867849 -4.8905605e-07 -3.6165417e-14 2.0548636e-07
4.572163e-17 -2.2764436e-10 -6.226441e-15 -1.7901733e-05 1.7185408e-07 0.008638612 0.0015277715 9.192949e-17
0.0003994403 1.8927143e-23 0.0014614346 1.3092713e-17 -8.929386e-09 0.00037939125 4.99283e-06 4.91392e-40
-0.014187906 -1.7062419e-08 0.0055218167 -0.011899001 -3.4480786e-07 2.043847e-12 -4.075197e-05 0.025260108
0.0036812602 4.056585e-07 0.0006427015 -0.050409846 1.914036e-19 -0.01209109 -1.1167637e-06 -9.612935e-08
1.5044056e-07 -0.0047118566 0.011680829 -4.95128e-40 0.025728052 0.008455766 -0.0049212417 0.0035972835
-4.6099794e-07 5.929162e-05 -0.0016660733 0.015568857 -0.001154746 -2.6528045e-11 1.16894704e-07 0.003977408
3.2898253e-05 0.00012178174 -9.519812e-05 -0.0057927244 -0.0019409113 7.504603e-07 -4.92356e-40 0.0108108185
0.012156167 -1.5670195e-05 -0.0071470793 -0.00021965177 -0.0068406984 0.0040285755 -0.0039397893 -0.005421709
-1.7350685e-07 -9.71112e-07 0.006061282 -0.00078637764 -2.7222393e-08 -4.90808e-40 -3.824954e-07 -4.95495e-40
-0.010707295 0.003670627 -0.002557232 -0.00040875975 2.3011776e-06 6.5855006e-06 0.00029267755 -3.7146244e-11
9.935171e-13 2.14042e-08 -4.7210273e-05 1.6687319e-26 -4.485254e-09 0.008600085 0.0014387497 -0.00037509034
-0.0075932215 -0.00018310692 1.5450594e-05 -0.0042652707 1.4970344e-11 2.44484e-05 -0.012282616 -7.51177e-05
1.6362891e-12 0.007670158 0.003780981 0.00228609 -6.689102e-06 -0.0034804568 0.007850813 -0.00074423134
-0.006614983 -0.0013677774 0.0051297434 -0.0007834253 -1.4380313e-13 8.780669e-12 -1.6554226e-05 -0.0034226915
-4.90955e-40 8.0987945e-09 -0.009159573 -3.4088268e-10 3.2964907e-15 -0.00043211124 -1.1151993e-12 -4.933794e-13
1.8711054e-07 0.0004503401 -0.05473353 -0.002665144 -0.003285845 -0.007261383 0.0056983973 0.0054571675
-2.0085563e-05 -1.0649127e-06 -1.7580681e-10 -1.2290232e-08 -0.00097071624 -0.0001890014 -4.9591995e-07 0.005181955
-0.0013692649 0.008055009 0.04123899 -0.0041647498 0.0029819924 -0.0019427818 0.005555092 -0.066847876
-0.0018802133 0.009166441 -0.0024135686 1.6781637e-06 -0.034755073 0.0008019937 -1.822511e-05 -0.0061546927
-1.9627334e-05 -0.005862004 -1.2804057e-09 -0.007533017 0.00011392558 -0.0057474975 -0.012485394 0.0050405115
0.00017282242 -0.010468636 0.0037291297 -3.1580805e-06 0.00020882674 -0.00096506975 -1.765977e-07 0.0015318594
-0.00112013 -3.718644e-19 -1.96377e-05 -4.956e-40 6.1238296e-08 -0.0116888825 -1.2859571e-05 0.08163573
0.009309352 0.014057221 1.6094244e-06 8.144182e-11 -4.5296048e-11 3.3283397e-06 0.0067701465 -0.0025041813
00000000: cb9d 48b9 46eb 863a 54d4 0a38 2b20 15bd
00000010: d058 0580 ee0e bf39 5336 7e3a 97b8 f1ba
00000020: 3d58 0500 e0f2 1b33 3cc0 623c dc6b 0580
00000030: acd3 52bc ad47 03b5 e3df 22a9 a9a3 5c34
00000040: 93da 5224 314c 7aaf c854 e0a7 ae2b 96b7
00000050: e486 3834 f788 0d3c 813f c83a 98f9 d324
00000060: f86b d139 560d b719 9c8d bf3a 9784 7123
00000070: db67 19b2 08e9 c639 1588 a736 cd59 0500
00000080: 6474 68bc a890 92b2 5bf0 b43b 07f4 42bc
00000090: 081e b9b4 add2 0f2c 18ed 2ab8 49ee ce3c
000000a0: 4c41 713b 48c9 d934 f87a 283a 8e7a 4ebd
000000b0: 30f8 6120 b519 46bc b5e3 95b5 ab6f ceb3
000000c0: c988 2134 eb65 9abb f360 3f3c 3764 0580
000000d0: a3c3 d23c 0e8a 0a3c 5e42 a1bb 67c0 6b3b
000000e0: 137f f7b4 e4af 7838 2560 daba 8514 7f3c
000000f0: d95a 97ba d957 e9ad 8b07 fb33 eb54 823b
00000100: 3bfc 0938 1365 ff38 1aa5 c7b8 e5d0 bdbb
00000110: 2d66 feba 3d73 4935 7d5c 0580 dc1f 313c
00000120: a92a 473c 7d73 83b7 0c32 eabb 5352 66b9
00000130: f027 e0bb 2402 843b 5919 81bb 97a8 b1bb
00000140: 334d 3ab4 2757 82b5 b89d c63b e924 4eba
00000150: add6 e9b2 2c58 0580 c459 cdb4 3d65 0580
00000160: a66d 2fbc e78e 703b 3c97 27bb ce4e d6b9
00000170: ee6d 1a36 05f9 dc36 8472 9939 f45e 23ae
00000180: 3ad3 8b2b 55dc b732 a503 46b8 6143 a514
00000190: b61c 9ab1 5fe7 0c3c 6e94 bc3a c6a7 c4b9
000001a0: 8fd0 f8bb 6400 40b9 e69b 8137 afc3 8bbb
000001b0: 38ae 832d 8a16 cd37 073d 49bc 8288 9db8
000001c0: 8749 e62b f355 fb3b 56ca 773b 3ad2 153b
000001d0: f372 e0b6 6018 64bb b2a0 003c 8518 43ba
000001e0: 80c2 d8bb fe46 b3ba 6817 a83b c85e 4dba
000001f0: 6ee8 21aa 9e78 1a2d eedd 8ab7 3c4f 60bb
00000200: 9558 0580 e022 0b32 0912 16bc f966 bbaf
00000210: 8589 6d27 fd8c e2b9 4af3 9cab bcdf 0aab
00000220: 8ee8 4834 a01b ec39 4430 60bd b2a9 2ebb
00000230: 5557 57bb e5f0 edbb 9fb9 ba3b 0ad2 b23b
00000240: 6b7d a8b7 1fee 8eb5 384d 41af 0325 53b2
00000250: aa77 7eba ad2e 46b9 5c1f 05b5 64cd a93b
00000260: e878 b3ba 28f9 033c 37ea 283d 7478 88bb
00000270: 886d 433b f1a4 feba 7d07 b63b 8ae7 88bd
00000280: 7d71 f6ba d72e 163c f62c 1ebb 443d e135
00000290: 565b 0ebd e33c 523a 20e2 98b7 4ead c9bb
000002a0: 61a5 a4b7 0e16 c0bb 45fa afb0 87d7 f6bb
000002b0: 54eb ee38 8155 bcbb 8a8f 4cbc e02a a53b
000002c0: aa37 3539 a484 2bbc 6a64 743b 69ef 53b6
000002d0: 80f8 5a39 bcfc 7cba ce9e 3db4 acc8 c83a
000002e0: 53d1 92ba 8f82 dba0 a4bb a4b7 8865 0580
000002f0: 1c82 8333 ba82 3fbc 70bf 57b7 a230 a73d
00000300: 4186 183c 4250 663c 6703 d835 ab17 b32e
00000310: d136 47ae 715c 5f36 1bd8 dd3b 311d 24bb

lstm.bias_hh_l0_reverse f4 [200]
-0.00023291967 4.9381892e-06 -0.0013483368 0.035524823 -0.0048152567 0.0052935327 0.00027744536 -0.0074172867
-5.144168e-09 3.156611e-07 0.001513393 4.0943246e-07 -0.00061612244 -0.0001926904 3.315428e-10 -5.269865e-08
1.6331265e-05 0.00013434792 1.1640827e-08 -6.571763e-07 -4.037494e-11 1.21484645e-08 -0.0005078845 -8.498911e-06
0.012487902 0.00052219455 0.0014240572 0.0068337824 0.01186274 -2.739501e-08 1.4869521e-19 0.0002660922
3.3739434e-06 2.699543e-10 -4.532922e-24 -0.0030691375 0.0060278745 0.004887861 5.9493834e-07 0.027757032
-0.02250827 4.427333e-07 0.0060337503 0.07746777 -0.000706679 1.1977175e-10 4.378742e-09 0.012194787
0.0014269683 3.730443e-06 -2.1054003e-13 -0.0003835789 -0.027884457 -1.2045767e-11 0.016308922 4.0861107e-38
-6.1538617e-07 0.0069508213 -0.0016345498 0.013067978 0.012753349 1.271284e-29 0.00010282341 -1.4219996e-11
0.0064787874 -4.9246e-40 0.00064999633 2.0352873e-05 1.3535459e-12 0.0015172263 0.0011352851 6.7773726e-05
1.2765506e-16 -1.745058e-07 1.0834975e-08 -4.9377e-40 -0.00012591349 4.93829e-40 0.0031055864 0.013362927
-6.2966545e-05 -0.009666853 9.1963666e-05 -1.636546e-30 4.117552e-05 0.008423875 -0.0007058928 -4.72221e-07
0.005242187 -0.0008724655 1.6289677e-20 -6.7432586e-07 -0.00039092594 0.0066555766 2.294217e-05 0.00046467464
-0.00039649176 0.0019464996 -0.00036500124 3.7400807e-09 0.0006507982 1.1902342e-37 0.04365422 -0.014525325
-0.00016872576 2.8157612e-07 -1.1116605e-05 -1.358232e-08 0.006263334 0.00064461434 -9.925747e-05 7.079017e-08
0.0001988082 2.4700813e-07 -0.09422979 -0.00016180467 0.0012525999 -4.9324877e-05 0.0038002904 -0.00026834017
-7.1521543e-12 0.0071479175 -0.00083016086 2.3474195e-06 0.006659651 -5.6821414e-06 2.2350978e-08 -3.1797772e-05
0.008243365 0.0011206452 0.0047976035 -0.009815176 -0.00012473192 -0.005999421 0.002746582 0.0037102601
-5.306163e-06 2.2455774e-06 0.030396046 -6.5552204e-06 -0.0004842105 0.13098603 -1.2109959e-08 0.019739604
1.2286753e-06 3.2143555e-06 0.0009864626 -4.038729e-18 -4.92306e-40 2.088694e-15 2.6280662e-05 -0.012388034
-0.019040635 0.0053019705 -0.030625803 -0.0015157297 0.0031709538 7.7527984e-05 0.0031018015 -0.096391
-0.020229705 -0.0020100786 1.2093383e-05 4.51324e-09 -0.04109977 -0.006246951 -1.6660344e-05 -0.010415908
-1.20581535e-05 -0.0011540873 3.6324252e-06 0.004858148 7.0760514e-08 -0.0038322557 6.8157124e-06 0.002153829
1.04368215e-17 -0.0034741417 5.4788325e-09 -5.2372275e-06 0.0018787041 3.6160102e-13 -1.9104618e-28 -0.005738544
4.95784e-40 0.0003229535 0.0002857598 -0.00011305935 6.3514194e-09 -0.01438298 0.007013316 -0.08107305
-0.0025003485 -0.11630341 0.0019252776 0.01033357 0.010698063 0.00041278705 -0.00031291434 1.052702e-23
00000000: e63b 74b9 b9b2 a536 adba b0ba 7a82 113d
00000010: 4dc9 9dbb 5f75 ad3b 1676 9139 b60c f3bb
00000020: 95c0 b0b1 2278 a934 0b5d c63a f8cf db34
00000030: 4783 21ba ef0c 4ab9 8044 b62f c756 62b3
00000040: 20ff 8837 bfdf 0c39 e6fc 4732 d068 30b5
00000050: 2492 31ae 83b5 5032 8d23 05ba 8b96 0eb7
00000060: 0f9a 4c3c e2e3 083a 6ea7 ba3a eced df3b
00000070: f05b 423c 4452 ebb2 5f8c 2f20 4a82 8b39
00000080: e86b 6236 b168 942f e35b af98 9523 49bb
00000090: 7a85 c53b 5a2a a03b dab3 1f35 b762 e33c
000000a0: 4363 b8bc cdb0 ed34 c4b6 c53b 6ca7 9e3d
000000b0: 6d40 39ba c0b0 032f d273 9631 a5cc 473c
000000c0: 1c09 bb3a 8658 7a36 080c 6daa 171b c9b9
000000d0: f26d e4bc 50e9 53ad 4a9a 853c 1278 5e01
000000e0: 0431 25b5 b7c3 e33b 643e d6ba 131b 563c
000000f0: 6cf3 503c 6bec 800f e6a2 d738 2b29 7aad
00000100: 024c d43b c75c 0580 8464 2a3a 76bb aa37
00000110: a17e be2b abdd c63a d9cd 943a be21 8e38
00000120: 202d 1325 ca5f 3bb4 b924 3a32 6e60 0580
00000130: a507 04b9 9860 0500 1887 4b3b 2ef0 5a3c
00000140: e80c 84b8 b861 1ebc 9edc c038 bbc5 048e
00000150: e1b3 2c38 4b04 0a3c aa0b 39ba 8f85 fdb4
00000160: a7c6 ab3b 2bb6 64ba 06da 991e 5203 35b5
00000170: 31f5 ccb9 0617 da3b ef73 c037 939f f339
00000180: 39e0 cfb9 b021 ff3a a35d bfb9 1982 8031
00000190: 549a 2a3a 9c01 2202 c4ce 323d a1fb 6dbc
000001a0: faeb 30b9 872b 9734 7481 3ab7 ad57 69b2
000001b0: a73c cd3b 56fb 283a 7328 d0b8 4f05 9833
000001c0: 2b77 5039 8a9c 8434 8cfb c0bd 1caa 29b9
000001d0: 472e a43a 2fe2 4eb8 4b0e 793b 02b0 8cb9
000001e0: e1a4 fbac 1439 ea3b 279f 59ba 5c88 1d36
000001f0: 3439 da3b 39a9 beb6 52fe bf32 995e 05b8
00000200: 2e0f 073c 9de2 923a 3735 9d3b d5cf 20bc
00000210: 78ca 02b9 ca96 c4bb 0000 343b d627 733b
00000220: 980b b2b6 bab2 1636 2101 f93c eaf4 dbb6
00000230: a2dd fdb9 3421 063e 2a0c 50b2 f3b4 a13c
00000240: f6e8 a435 35b6 5736 314c 813a b800 95a2
00000250: 595c 0580 9b81 1627 4b75 dc37 2ef7 4abc
00000260: 1bfb 9bbc 27bc ad3b f7e2 fabc 73ab c6ba
00000270: c7cf 4f3b 8596 a238 9847 4b3b a568 c5bd
00000280: c4b8 a5bc 86bb 03bb afe4 4a37 e112 9b31
00000290: 3c58 28bd 39b3 ccbb d1c1 8bb7 7ca7 2abc
000002a0: 604d 4ab7 be44 97ba 97c4 7336 1931 9f3b
000002b0: 01f5 9733 9526 7bbb 86b2 e436 4127 0d3b
000002c0: 7f86 4023 6dae 63bb 5240 bc31 71bb afb6
000002d0: d93e f63a 3390 cb2a 082e 7291 650a bcbb
000002e0: 0b66 0500 1652 a939 08d2 9539 471a edb8
000002f0: ad3b da31 97a6 6bbc f5cf e53b a109 a6bd
00000300: e3dc 23bb 7b30 eebd 9959 fc3a 224e 293c
00000310: ee46 2f3c 576b d839 a70e a4b9 479f 4b19
