src/model_checkpoint.pt (torch, 626771 bytes, 25 tensors)

lstm.weight_ih_l0 f4 [200, 33]
0.00031362992 0.00076587487 1.2901121e-06 4.1971216e-06 7.237836e-06 0.0012822713 -0.00052526203 0.0010201487
0.00015273968 9.672341e-07 1.00229545e-05 -6.552415e-05 8.7181796e-08 0.00033008432 1.4694212e-06 3.2123502e-05
-0.0010178735 1.0044197e-09 -4.615079e-09 4.120936e-08 -1.9905279e-07 -2.015603e-07 0.00010816836 1.0906163e-08
-9.434e-10 3.9892132e-07 0.00021564086 -4.0222874e-09 5.310461e-06 2.1920594e-06 1.6905737e-07 -2.6701036e-06
0.00015463794 -7.31244e-05 -7.38658e-05 -1.2611196e-07 -1.19057475e-07 8.7823815e-07 -3.8180075e-05 -1.5355535e-07
0.00012736314 0.0005504775 -5.3881872e-09 -2.9792698e-06 0.0009067373 8.171131e-05 -3.6863956e-05 -5.015922e-08
-1.3600645e-05 0.0005107979 -2.6711793e-09 0.0012955208 8.266808e-10 -9.43055e-10 -3.5874595e-10 0.00044835854
2.5408233e-05 1.659559e-08 0.00021490263 4.999223e-09 4.2253348e-10 -1.3264312e-09 5.558841e-10 8.550468e-05
0.0011797845 -3.7404402e-10 -0.007985871 0.12110401 -0.062245015 0.05355823 -0.018884191 -0.08654527
0.11071373 0.06544083 -0.011355894 0.1217674 0.12049835 -0.038155586 0.0001279233 -0.007028367
-0.08027064 0.057314247 -0.05981801 -0.035088114 -0.107807755 -0.12344777 0.092639476 0.079724334
-0.09105116 0.062184058 0.057270523 -0.09233624 0.0379815 -0.061263014 -0.031116791 -0.08796539
0.0019268116 -0.10114749 0.073297694 0.0036908884 -0.004396925 9.384514e-10 -0.0048658177 3.6230465e-18
0.0024589584 -2.4094748e-05 1.5199734e-07 -1.0154057e-05 0.0005974882 0.001024102 -6.750691e-19 -3.0475486e-20
0.008290831 -0.00024157618 1.2657279e-07 -0.00074595405 -1.4532519e-19 -6.498447e-11 1.808255e-14 -0.00056429376
-1.4191127e-11 0.001343039 -0.0009344653 1.7469884e-12 2.40156e-09 -0.00027042534 -3.7200272e-13 -1.5235115e-12
2.0894767e-07 3.0792476e-12 -0.0006767876 5.377642e-06 -0.0001472798 4.2396565e-05 -2.4482497e-07 -1.0893182e-06
0.0004615334 -8.896089e-05 -0.00015077124 -2.8340457e-06 -0.00061832136 -1.4119293e-07 -5.8708654e-08 -1.5040962e-07
-0.0014897927 -0.00012886379 -4.460391e-07 0.0001514619 2.266462e-08 0.0013704058 -1.7429738e-05 1.5376802e-09
2.463733e-08 2.8243022e-08 -6.6025495e-05 -2.4216216e-09 -5.0948366e-09 2.9005721e-05 -6.5397128e-09 -0.0015780126
-5.830933e-09 -0.0008619289 0.00030117045 -6.255536e-09 -2.4474789e-09 0.0012179025 -0.00086102984 0.008584436
0.00045986188 -0.00065606454 0.0012249788 0.0008522679 0.0051628305 -0.0040244344 0.00087224535 0.00082229346
0.00081807363 0.0008264223 0.0013418974 -0.0006719999 -0.00384278 -0.00075535954 1.5327845e-05 0.0006747872
-0.000472186 -0.00066557276 -0.004027125 0.0006860549 0.0006497815 0.0055063353 -2.3145032e-05 -0.000469529
0.0038010364 0.000698228 -0.00067679305 -0.0025902179 8.978258e-06 0.00073366484 0.0025715248 0.00038856955
0.00038220102 0.0030520014 0.0024302844 9.082219e-05 0.005615559 0.00026138287 0.00017549946 0.0016619244
0.00041351176 0.00037078114 0.00032222588 0.00046011969 -0.0067884717 0.0002914041 -0.00025326206 0.0004029727
-1.3397244e-10 -0.00012941356 -0.0019713277 0.00039466814 0.004710912 0.00020249416 0.0015078634 -0.000304702
0.00010714069 -0.00014911681 0.00024651532 -7.2743824e-06 0.00025294928 -1.6846384e-11 -0.0018092153 -2.3852036e-07
-0.00019679073 -4.5174185e-14 6.2787143e-07 0.0005968397 -2.4965205e-11 4.6377783e-13 0.00015417137 0.0004134685
0.0006846057 -5.811563e-15 9.954194e-07 -0.00023803898 0.001159931 -0.0001573279 -1.7145465e-08 -3.6365616e-10
0.0014219529 9.666678e-08 3.7883566e-14 7.585747e-09 8.560942e-12 2.9709456e-15 -7.62062e-15 0.0014533744
00000000: b26e a439 fec4 483a ea27 ad35 00d5 8c36
00000010: 8adc f236 e311 a83a bdb1 09ba 83b6 853a
00000020: bf28 2039 e9d1 8135 4328 2837 036a 89b8
00000030: b338 bb33 2b0f ad39 ee38 c535 59bc 0638
00000040: 2b6a 85ba e00b 8a30 aa92 9eb1 2cfe 3033
00000050: 37bb 55b4 796c 58b4 72d8 e238 d05d 3b32
00000060: f0a8 81b0 542b d634 a71d 6239 6a34 8ab1
00000070: 8330 b236 4b1b 1336 2386 3534 0830 33b6
00000080: 4e26 2239 5d5a 99b8 66e8 9ab8 6469 07b4
00000090: 8aac ffb3 11c0 6b35 8b23 20b8 f9e0 24b4
000000a0: c88c 0539 eb4d 103a ff22 b9b1 77ef 47b6
000000b0: 1cb2 6d3a 6d5c ab38 5f9e 1ab8 a56e 57b3
000000c0: 532e 64b7 11e7 053a e28f 37b1 77ce a93a
000000d0: 7d3c 6330 cc9c 81b0 0139 c5af aa11 eb39
000000e0: c423 d537 178e 8e32 7c57 6139 a1c5 ab31
000000f0: 4d4a e82f a64d b6b0 decc 1830 fa50 b338
00000100: 00a3 9a3a 04a2 cdaf 2cd7 02bc 6105 f83d
00000110: a1f4 7ebd e05f 5b3d 05b3 9abc a63e b1bd
00000120: e1bd e23d d805 863d 120e 3abc 3061 f93d
00000130: d7c7 f63d 0849 1cbd 2623 0639 374e e6bb
00000140: ef64 a4bd 58c2 6a3d bb03 75bd 8eb8 0fbd
00000150: 50ca dcbd 2fd2 fcbd c4b9 bd3d 8346 a33d
00000160: 0879 babd b6b4 7e3d 7f94 6a3d c81a bdbd
00000170: 7d92 1b3d edee 7abd a4e8 febc 3327 b4bd
00000180: 128d fc3a 6a26 cfbd 1a1d 963d d5e2 713b
00000190: 1514 90bb d3fa 8030 7071 9fbb b5aa 8522
000001a0: 7a26 213b 141f cab7 b634 2334 585b 2ab7
000001b0: c1a0 1c3a 293b 863a c73e 47a1 9aea 0f9f
000001c0: 44d6 073c 9d4f 7db9 10e8 0734 218c 43ba
000001d0: d891 2ba0 01e7 8eae 86df a228 1ded 13ba
000001e0: 27a7 79ad e908 b03a e8f6 74ba e4dd f52b
000001f0: b108 2531 e0c7 8db9 3e6b d1aa 496a d6ab
00000200: 195b 6034 cbae 582c 726a 31ba 9871 b436
00000210: 1f6f 1ab9 f7d2 3138 7d70 83b4 b034 92b5
00000220: f7f9 f139 8490 bab8 5918 1eb9 8930 3eb6
00000230: d816 22ba d19a 17b4 d926 7cb3 4880 21b4
00000240: 2645 c3ba 9c1f 07b9 2677 efb4 bfd1 1e39
00000250: 07b0 c232 309f b33a 1436 92b7 5056 d330
00000260: 10a2 d332 109b f232 2b77 8ab8 9e69 26b1
00000270: a80e afb1 5051 f337 ecb3 e0b1 51d5 ceba
00000280: 6e59 c8b1 12f3 61ba 6ae6 9d39 47f0 d6b1
00000290: 8130 28b1 07a2 9f3a bcb6 61ba bca5 0c3c
000002a0: 9e19 f139 bffb 2bba 788f a03a bb6a 5f3a
000002b0: f62c a93b 67df 83bb 65a7 643a 2e8f 573a
000002c0: fe73 563a 43a4 583a 9be2 af3a 2629 30ba
000002d0: 26d7 7bbb 5203 46ba 4c94 8037 34e4 303a
000002e0: bb8f f7b9 d579 2eba f9f5 83bb 5dd8 333a
000002f0: 1956 2a3a 7d6e b43b 9427 c2b7 1e2b f6b9
00000300: cf1a 793b 4a09 373a d06a 31ba a5c0 29bb
00000310: 53a1 1637 6a53 403a 0787 283b ecb8 cb39
00000320: 2762 c839 1604 483b 6845 1f3b cb77 be38
00000330: b902 b83b 370a 8939 4706 3839 eed4 d93a
00000340: 9ccc d839 6765 c239 6df0 a839 383c f139
00000350: d471 debb 99c7 9839 42c8 84b9 1546 d339
00000360: e44d 13af 30b3 07b9 6431 01bb 76eb ce39
00000370: fe5d 9a3b 9d54 5439 80a3 c53a 69c0 9fb9
00000380: b8b0 e038 3d5c 1cb9 ba3e 8139 7816 f4b6
00000390: 479e 8439 af2e 94ad 3123 edba fd0d 80b4
000003a0: 9c59 4eb9 4a72 4ba9 ff8a 2835 3c75 1c3a
000003b0: a598 dbad b78a 022b 10a9 2139 cdc6 d839
000003c0: 1c77 333a 3562 d1a7 5a9a 8535 1a9a 79b9
000003d0: d308 983a 63f8 24b9 4747 93b2 0eec c7af
000003e0: d260 ba3a 2097 cf33 c79c 2a29 7852 0232
000003f0: 0e9b 162d 4614 5627 e847 09a8 277f be3a

lstm.weight_hh_l0 f4 [200, 50]
1.05836125e-05 0.0012735218 -4.174886e-08 -6.0838094e-05 4.934717e-07 7.747721e-08 0.00026643212 -1.5196053e-06
-2.1675224e-07 -0.0002373435 -6.4749176e-05 -4.6563926e-08 6.1126265e-08 1.0078713e-12 9.983685e-05 -6.382467e-05
3.0377922e-28 9.938104e-11 1.60639e-05 -1.3381765e-06 -7.327574e-08 0.0007709189 8.1037e-08 5.0788954e-06
2.9785479e-06 -0.00030702527 5.4666293e-12 -8.19406e-05 -1.7170803e-11 5.4419003e-09 0.00027182806 4.1518376e-08
-0.00056915596 -1.885579e-05 -3.688385e-09 -5.8293557e-05 -1.43597845e-05 0.0006482731 2.9125626e-11 0.00010263487
-6.258057e-08 4.7348644e-07 -2.2855987e-05 -0.0005698205 3.906385e-09 1.2368663e-37 3.190074e-12 5.4824723e-05
-1.4487875e-14 1.8248635e-07 9.134826e-09 2.0896182e-10 -0.00011461251 -1.4804544e-06 1.8192493e-11 -0.00021494279
-3.3330853e-06 5.561322e-16 0.00074195466 -2.2686113e-07 -1.2124717e-18 -0.0009445816 6.448491e-09 -0.0007750226
1.0569987e-05 -0.0006825462 -4.96605e-40 1.567625e-07 -2.149851e-07 -4.4118846e-14 -4.566208e-05 -3.093523e-09
0.0005339659 1.4425569e-05 -7.2526273e-06 1.8442256e-06 1.6716556e-05 0.0011152107 3.7707726e-09 -1.7841156e-17
1.4003514e-05 4.5224683e-06 -1.4327552e-10 -3.1520824e-09 -0.00023998736 0.00018444708 1.4188305e-06 -0.00051559246
2.219623e-08 -1.6947181e-09 8.4204305e-10 -7.539792e-09 3.8101639e-10 -0.0011594405 0.001239169 -1.659533e-29
2.4075896e-17 -2.3517957e-06 0.0005043188 -2.4098632e-05 0.12727684 0.00019849394 0.05694289 0.10686859
-0.0008534042 -0.0014961628 -0.02584244 -0.00076994067 0.00047620124 9.541751e-11 1.1839684e-07 -0.11017051
-0.00058710814 8.964974e-06 0.0028247323 -0.08581051 -0.0026118453 1.542214e-05 -9.476807e-07 0.0005210099
0.001114457 -0.022821683 0.11563881 -0.0005741394 -0.009319069 0.018883787 2.2138712e-08 0.060283843
0.00061582966 -0.00019198099 -0.0041078916 -0.028172232 1.4489878e-05 0.029250475 0.0002814758 0.07916363
-0.12249718 0.0009770769 -0.00018976974 -0.011199716 0.007590643 -0.035059724 0.0019917018 -2.8914113e-10
-5.6216703e-07 0.00031100243 6.830258e-08 -0.022475336 0.0015895009 0.005163584 3.5983497e-10 0.0004498568
0.00037985004 -4.2474795e-21 -6.6468836e-10 8.561334e-05 5.2241137e-21 1.6772976e-05 -0.00035838076 -5.6425184e-21
6.4860277e-15 4.614469e-21 -7.996514e-13 -2.2097623e-13 -1.2154164e-25 -4.404258e-21 -1.0616817e-35 -5.564899e-07
1.1581862e-08 -4.3235644e-24 5.47532e-21 0.00089928386 0.00053990335 -7.045978e-14 0.0008802534 -5.6598828e-21
0.0011708388 0.0004839906 -6.110787e-07 0.0012215666 3.7462283e-21 0.0001458524 5.556801e-06 -5.5413843e-21
-1.8420295e-06 -2.2753827e-10 -4.613826e-21 5.779669e-21 -1.5364172e-07 -6.937847e-10 4.2931344e-21 -0.000108440254
0.0011374241 1.8586161e-14 -3.055715e-34 1.8638649e-06 1.9136824e-28 2.0934942e-17 2.0124851e-34 -1.3095e-05
-3.577335e-06 -1.60283e-12 -0.0007154456 -2.014614e-08 -3.510544e-14 -2.9941844e-05 0.00026509093 -5.708283e-11
1.3355961e-08 -0.0006085576 0.00044563148 0.00036076937 -4.53783e-05 -0.0002503426 -5.2356052e-14 -1.8785062e-08
5.11009e-40 4.2578104e-11 -0.00042931223 0.00043256392 -4.0832892e-05 9.435713e-06 -2.1244988e-08 -3.4079597e-12
0.0001659117 -2.0265448e-08 0.00012818405 1.31627e-08 6.604257e-11 -0.00053254125 3.5678456e-06 -1.5052336e-08
2.8183458e-12 -1.0493343e-05 2.0050105e-23 -1.1214065e-08 0.00066375645 0.0005698723 3.9253794e-07 1.5784087e-06
-1.4542047e-05 0.00033359614 -1.13890955e-07 0.00038718455 6.363458e-11 -0.0004192548 -0.0015625019 1.5018834e-08
4.5238426e-16 2.0515623e-08 -0.00074211945 -4.2570042e-10 0.001007328 0.00044949318 -0.00015398924 -0.0005106533
00000000: 4590 3137 4dec a63a 5b4f 33b3 682c 7fb8
00000010: 1e77 0435 8c61 a633 eaaf 8b39 3ef5 cbb5
00000020: 67bc 68b4 69df 78b9 f3c9 87b8 94fd 47b3
00000030: 8544 8333 64d8 8d2b 805f d138 9cd9 85b8
00000040: ff8a c011 8d8a da2e f6c0 8637 659b b3b5
00000050: c45b 9db3 7e17 4a3a 9006 ae33 616b aa36
00000060: 10e3 4736 3cf8 a0b9 0557 c02c 86d7 abb8
00000070: 3609 97ad 76fb ba31 2584 8e39 f051 3233
00000080: 6933 15ba 802c 9eb7 c176 7db1 3b80 74b8
00000090: ceea 70b7 dff0 293a 8a18 002e ad3d d738
000000a0: 0864 86b3 7b33 fe34 dcba bfb7 0260 15ba
000000b0: ed38 8631 805a 2802 447b 602c 99f3 6538
000000c0: c47e 82a8 77f1 4334 64ef 1c32 86c1 652f
000000d0: 1f5c f0b8 07b4 c6b5 da05 a02d 4462 61b9
000000e0: f8ad 5fb6 504b 2026 bc7f 423a 1d97 73b4
000000f0: e3ed b2a1 cc9d 77ba 8791 dd31 e32a 4bba
00000100: c055 3137 e6ec 32ba 5568 0580 8c52 2834
00000110: a8d6 66b4 91b1 46a9 4985 3fb8 d595 54b1
00000120: d8f9 0b3a 5905 7237 985b f3b6 1c87 f735
00000130: 883a 8c37 432c 923a 1190 8131 3d8e a4a3
00000140: a2f0 6a37 b5bf 9736 7988 1daf 059c 58b1
00000150: 1ea5 7bb9 2368 4139 a56e be35 d328 07ba
00000160: 07aa be32 98eb e8b0 8375 6730 5b88 01b2
00000170: 4a77 d12f 5ef8 97ba 9d6b a23a f14b a88f
00000180: 9a0f de23 8bd3 1db6 4334 043a 6b27 cab7
00000190: dc54 023e d022 5039 f33c 693d ebdd da3d
000001a0: fdb6 5fba e51a c4ba 86b3 d3bc d8d5 49ba
000001b0: a6aa f939 48d3 d12e 5a41 fe33 14a1 e1bd
000001c0: 29e8 19ba 4568 1637 251f 393b 6cbd afbd
000001d0: 7e2b 2bbb cb5e 8137 1f64 7eb5 6294 083a
000001e0: f912 923a 8af4 babc 0ad4 ec3d d881 16ba
000001f0: 02af 18bc 2cb2 9a3c 8b2b be32 31ec 763d
00000200: a16f 213a 814e 49b9 7e9b 86bb 74c9 e6bc
00000210: 8d19 7337 b19e ef3c 0b93 9339 8b20 a23d
00000220: cddf fabd 4311 803a edfc 46b9 037f 37bc
00000230: eeba f83b c99a 0fbd 3687 023b fff4 9eaf
00000240: d3e7 16b5 0a0e a339 bead 9233 321e b8bc
00000250: cd56 d03a 4833 a93b 45d2 c52f c2da eb39
00000260: 9c26 c739 1a77 a09d 49b5 36b0 508b b338
00000270: 875c c51d b1b3 8c37 0de5 bbb9 172b d59d
00000280: 0caf e927 6854 ae1d f514 61ab 10cc 78aa
00000290: 1576 1696 5f63 a69d 73cb 6185 b261 15b5
000002a0: 91f9 4632 8242 a798 0cda ce1d ebbd 6b3a
000002b0: 4d88 0d3a 4ca9 9ea9 cec0 663a 07d3 d59d
000002c0: d576 993a 1ec0 fd39 0209 24b5 f91c a03a
000002d0: 4c87 8d1d f5ef 1839 8f74 ba36 fb58 d19d
000002e0: a73b f7b5 542e 7aaf 304e ae9d 8759 da1d
000002f0: b7f8 24b4 c2b4 3eb0 a630 a21d 6b6a e3b8
00000300: 9f15 953a c568 a728 4c16 cb87 e929 fa35
00000310: 8b96 7211 3c17 c123 a9c0 8507 99b2 5bb7
00000320: 2612 70b6 0994 e1ab be8c 3bba d50d adb2
00000330: d119 1ea9 9f2b fbb7 e7fb 8a39 8e0d 7bae
00000340: 2374 6532 9c87 1fba a5a3 e939 a525 bd39
00000350: 9454 3eb8 6a40 83b9 6bca 6ba9 ca5c a1b2
00000360: 7c90 0500 af42 3b2e 5015 e1b9 bfc9 e239
00000370: fc43 2bb8 144e 1e37 397e b6b2 58d0 6fac
00000380: 95f8 2d39 3114 aeb2 2569 0639 2b22 6232
00000390: a93a 912e 3d9a 0bba 1f6f 6f36 704c 81b2
000003a0: ce52 462c 910c 30b7 a8e9 c119 fba7 40b2
000003b0: f1ff 2d3a 7c63 153a 01be d234 b6d9 d335
000003c0: 9ef9 73b7 84e6 ae39 3794 f4b3 08ff ca39
000003d0: 15ef 8b2e 6dcf dbb9 ddcc ccba c402 8132
000003e0: 1164 0226 553a b032 cb8a 42ba 0208 eaaf
000003f0: 5208 843a f4a9 eb39 2c78 21b9 5ddd 05ba

lstm.bias_ih_l0 f4 [200]
0.0004183014 0.00016405711 0.07427772 8.100936e-06 -1.5702948e-08 0.00075121096 0.0040449835 -1.1412345e-06
5.2581703e-09 4.785495e-10 -4.0629637e-08 1.1030344e-15 0.00026754625 6.898651e-05 0.0035213144 -0.00045128292
-1.3959498e-06 4.354213e-06 -1.6384516e-06 -0.00014413774 8.494496e-09 1.568117e-05 0.002155309 0.00022345007
3.5865263e-08 1.0309446e-12 4.4897646e-05 2.419245e-06 -9.287878e-10 1.0577098e-10 0.0005013371 -6.871213e-27
4.0544386e-09 -1.713966e-05 -2.2643208e-05 -0.0002381963 6.7389415e-13 0.002812113 -0.00016497353 2.8384354e-06
0.000103710874 6.568924e-23 0.0069319634 7.604066e-09 -6.638456e-09 0.003722722 0.00011912092 -0.034035638
-2.8938507e-08 0.00203972 -0.0002199223 2.3442888e-07 -1.1002316e-05 -0.008039054 -1.1749891e-08 -0.0005072116
-0.00022299314 -1.4265552e-08 0.00018540987 2.456387e-06 -8.573483e-09 0.003041774 -0.0002678009 3.8840483e-07
0.015283014 2.9500257e-05 2.3582273e-27 -8.580507e-16 -0.00041754442 -0.002022805 1.2255452e-10 -0.0060300827
-0.04903191 6.6877726e-07 0.00030504217 4.768108e-12 0.00029000745 -0.0049740183 -3.153472e-11 1.3464269e-07
-0.0005776838 0.0005649436 1.3337175e-05 -0.09172132 -1.72634e-16 0.0014337698 0.00023919865 -0.00018455849
-0.00015865457 -0.000710345 -8.382578e-05 -9.683089e-08 1.2180028e-14 0.0009346682 -2.7882443e-09 -2.1245779e-22
5.146264e-07 -0.00032336888 0.0015593827 0.00011359694 -0.062612034 6.495786e-06 -0.00026085498 -0.0004264394
-6.0771767e-06 4.954568e-08 -3.5632098e-08 -1.0199071e-05 -5.8785795e-06 1.0698353e-11 -9.661902e-08 8.273054e-05
1.4759272e-06 3.536716e-08 -4.8051298e-08 6.998919e-10 4.6029795e-06 3.8373096e-09 -2.3644937e-08 -0.00041344998
5.7359243e-06 0.0023594154 -2.5408636e-15 -4.7619585e-13 3.6539157e-07 -0.000114679104 -0.00017177439 -0.0026621318
-4.235872e-05 -0.00031255218 -8.099235e-05 0.005686832 -4.2835808e-14 6.346008e-08 1.0958921e-13 2.0547894e-09
-2.3351486e-05 -1.8410288e-14 -7.0549035e-08 -0.00010599421 1.6227585e-26 -8.7046385e-05 -8.6227635e-07 2.3727237e-10
-1.2217146e-11 -5.018532e-17 -1.8180644e-11 -0.12097168 0.00020727572 3.736238e-06 -0.00019664035 -6.626055e-05
0.0014450005 -0.00017748395 -2.4929017e-08 1.1840438e-06 1.1665692e-07 6.498843e-05 0.0013040988 -0.0069613964
-4.038664e-08 -0.03423132 0.00075523235 0.00011179441 0.030607952 0.00012797152 -0.0018774038 0.00015397763
-2.338328e-06 4.051384e-05 6.768216e-07 4.3260014e-05 4.90983e-40 0.0026626273 -0.11888944 0.0008336363
-0.00031988198 -0.00077689864 -4.6583686e-08 0.001182458 0.0012845177 -0.06481619 -0.006920295 0.011865852
-1.1358433e-09 0.07556379 -0.0001830199 -0.0006118276 -4.5510817e-05 3.1742245e-10 0.00021727898 -0.048860453
2.6518278e-12 -2.5881077e-11 -6.12321e-09 -0.0029552793 -5.0532684e-08 0.1000832 -2.8058677e-08 0.00047442556
00000000: 774f db39 bf06 2c39 eb1e 983d 41e9 0737
00000010: 26e3 86b2 eaec 443a c88b 843b 852c 99b5
00000020: 5bab b431 ed8a 0330 c280 2eb3 c9f6 9e26
00000030: 7345 8c39 daac 9038 dac5 663b 2b9a ecb9
00000040: 785c bbb5 681a 9236 c5e8 dbb5 ae23 17b9
00000050: 30ef 1132 0e8b 8337 1640 0d3b ec4d 6a39
00000060: 460a 1a33 b217 912b 7b50 3c38 505a 2236
00000070: a24d 7fb0 c597 e82e 2a6c 033a 3019 0894
00000080: 384f 8b31 24c7 8fb7 ebf1 bdb7 55c4 79b9
00000090: 31af 3d2b 6d4b 383b bffc 2cb9 f37b 3e36
000000a0: 5a7f d938 acd3 9e1a 8625 e33b 09a3 0232
000000b0: 7a18 e4b1 e9f8 733b 8fd0 f938 f468 0bbd
000000c0: 7394 f8b2 d3ac 053b f19a 66b9 52b7 7b34
000000d0: 9696 38b7 3db6 03bc 91dc 49b2 65f6 04ba
000000e0: 44d3 69b9 9014 75b2 956a 4239 68d8 2436
000000f0: 944a 13b2 8058 473b a167 8cb9 f485 d034
00000100: 9b65 7a3c 5277 f737 88d6 3a13 f750 77a6
00000110: dde9 dab9 0991 04bb 08c0 062f 0098 c5bb
00000120: afd5 48bd 0686 3335 11ee 9f39 4cc3 a72c
00000130: 240c 9839 17fd a2bb f0b0 0aae 4d92 1034
00000140: b46f 17ba b918 143a bbc2 5f37 63d8 bbbd
00000150: 9008 47a5 55ed bb3a 66d1 7a39 0b86 41b9
00000160: 835c 26b9 7236 3aba 9fcb afb8 58f1 cfb3
00000170: 776a 5b28 8504 753a 509b 3fb1 406c 809b
00000180: db24 0a35 d689 a9b9 3364 cc3a e53a ee38
00000190: bd3a 80bd 60f6 d936 5dc3 88b9 ba93 dfb9
000001a0: 8dea cbb6 0dcc 5433 e809 19b3 ad1c 2bb7
000001b0: 9d40 c5b6 1935 3c2d de7c cfb3 9f7f ad38
000001c0: 7918 c635 9be6 1733 f660 4eb3 8462 4030
000001d0: 4b73 9a36 55d9 8331 c41b cbb2 51c4 d8b9
000001e0: 3777 c036 6ca0 1a3b a916 37a7 8709 06ab
000001f0: 092b c434 e07f f0b8 561e 34b9 2977 2ebb
00000200: 54aa 31b8 0bde a3b9 70da a9b8 9b58 ba3b
00000210: 53ea 40a9 8c47 8833 e1c5 f629 3d34 0d31
00000220: efe2 c3b7 3cd3 a5a8 be80 97b3 3549 deb8
00000230: d1b5 a014 ac8c b6b8 2e77 67b5 1e71 822f
00000240: 22ed 56ad 5e70 67a4 2ceb 9fad 00c0 f7bd
00000250: 2758 5939 15bc 7a36 3e31 4eb9 5df5 8ab8
00000260: 2c66 bd3a fc1a 3ab9 7d23 d6b2 6feb 9e35
00000270: d284 fa33 664a 8838 4bee aa3a 6d1c e4bb
00000280: 9575 2db3 2436 0cbd c9fa 453a 2b73 ea38
00000290: 87bd fa3c 1830 0639 3813 f6ba 0e75 2139
000002a0: 2bec 1cb6 68ed 2938 d4ae 3535 1672 3538
000002b0: a958 0500 797f 2e3b 4f7c f3bd 6388 5a3a
000002c0: d5b5 a7b9 c9a8 4bba 4e13 48b3 b5fc 9a3a
000002d0: 435d a83a 5abe 84bd a4c3 e2bb fe68 423c
000002e0: ef1b 9cb0 30c1 9a3d 08e9 3fb9 0e63 20ba
000002f0: dee2 3eb8 3d81 ae2f 62d5 6339 e621 48bd
00000300: 159b 3a2c 01a7 e3ad 5364 d2b1 5cad 41bb
00000310: 4609 59b3 6cf8 cc3d af05 f1b2 52bc f839

lstm.bias_hh_l0 f4 [200]
-4.4361027e-06 -3.3507757e-05 -0.05872834 5.725866e-07 -2.1300163e-08 0.0007605533 0.004014406 -6.191037e-08
9.238043e-07 2.7753184e-05 -3.8648746e-08 -0.00019741325 1.9656367e-10 -0.0010068254 0.045483142 -1.4048e-10
6.3581414e-05 5.0868287e-08 -2.3915345e-06 -0.00015729941 -0.00023875787 5.5782402e-05 0.0008949535 -0.009743232
3.579338e-08 -6.3412576e-06 5.45344e-06 0.0010853724 -7.460294e-11 0.00044163238 0.00049196096 4.7394902e-23
4.6197908e-09 -0.0005224358 -0.00025739914 -0.00010425094 -3.634042e-14 0.0006674381 0.00016301122 -7.877633e-06
0.00011130951 6.3728576e-23 0.0006894446 -2.2257123e-10 2.8764163e-07 0.0029030645 -5.0400317e-08 -0.013891958
-0.00040579675 -0.0025143623 0.0002632252 -4.1221294e-11 -1.1048957e-07 0.0018415403 -1.1765515e-08 -0.00021846169
-1.06150516e-07 -1.5209497e-15 0.00018651829 9.460555e-09 -0.0004959376 -0.0019212794 1.27305855e-08 3.8013928e-07
0.0007180331 -0.0010008367 -0.0008347979 -2.3169554e-05 7.389789e-09 -7.911184e-05 4.1630585e-05 0.000247078
-0.002953123 1.4199293e-06 -0.0005216656 1.00584945e-08 -0.0008177129 -0.005204021 -9.418719e-10 -1.1552941e-05
-3.7667696e-06 0.00060842995 -0.00033950817 -0.0512408 -8.091503e-05 0.0031954537 0.00017003615 -0.001859262
-0.00024190306 -1.1389974e-07 -9.4263214e-08 -9.815027e-08 -5.3282083e-06 -1.5053968e-05 -0.0009374633 1.9370435e-07
2.106394e-09 -1.7555781e-09 -0.0006034401 0.00011427057 0.03401034 1.8144035e-05 -0.0003590712 3.897501e-05
0.00016420223 0.00024179794 -3.7051578e-08 -1.5551589e-13 0.00041264333 -4.2168318e-07 -1.9634493e-07 0.00039569303
8.286325e-05 -1.447379e-07 -3.475989e-08 0.00010801601 0.0013248232 -1.02206986e-16 -0.0001201938 6.9026975e-09
-8.39152e-16 0.00017846361 4.2380303e-05 0.00043451515 -0.0012672103 2.386024e-05 0.00012870609 0.0011891434
-1.6167379e-10 2.7489257e-08 0.00044343862 0.002642324 8.06128e-15 -0.0006788849 -4.6361083e-06 2.04482e-09
-1.5634856e-05 -1.8197957e-08 2.0988067e-07 -1.5973283e-09 -0.00022515826 -9.44525e-05 -9.5340043e-17 0.000110583125
-7.076469e-14 4.96945e-40 5.226471e-08 -0.10021419 -0.0006398692 0.0011076534 7.745426e-08 -6.673809e-05
0.00011010209 -0.00017587758 -2.39252e-08 2.8103287e-07 1.2467012e-06 4.268264e-05 0.00056934473 0.0003203929
0.0010199564 -0.06626188 0.000732685 5.302813e-08 -0.03475925 0.00014404279 -0.0015516059 9.543249e-06
-2.6254804e-06 1.2969107e-05 1.12658135e-07 1.2225436e-07 -1.2507648e-05 -2.3164735e-06 0.07524925 -5.5666163e-07
-3.149164e-30 -1.3244183e-06 0.00064320327 0.00011872967 0.0095158415 -0.035143457 0.0006557398 0.09802933
-1.8911543e-08 0.14815657 3.0070876e-07 -9.573269e-06 8.333406e-05 8.862079e-08 0.00022228593 0.009245942
3.7170328e-16 -7.0526956e-05 -9.744733e-05 -0.0041795606 -4.998384e-08 0.0155737 -2.0609583e-05 0.00047194317
00000000: d5d9 94b6 ae8a 0cb8 218d 70bd dab3 1935
00000010: 8ef7 b6b2 de5f 473a 478b 833b 96f3 84b3
00000020: 59fb 7735 82cf e837 bffe 25b3 b700 4fb9
00000030: c11f 582f 74f7 83ba 884c 3a3d 9b75 1aaf
00000040: 0357 8538 467a 5a33 407e 20b6 bdf0 24b9
00000050: 145b 7ab9 e6f7 6938 509b 6a3a 14a2 1fbc
00000060: 3dbb 1933 fdc6 d4b6 b1fc b636 0e43 8e3a
00000070: b90d a4ae e58a e739 f1f6 003a 0c30 651a
00000080: 1cbc 9e31 13f4 08ba 87f3 86b9 4ca1 dab8
00000090: a7a9 23a9 03f7 2e3a feed 2a39 2d2a 04b7
000000a0: d76e e938 1416 9a1a d8bb 343a 3bb8 74af
000000b0: 2a6d 9a34 5741 3e3b bc77 58b3 189b 63bc
000000c0: 1ec1 d4b9 00c8 24bb 7d01 8a39 0d4b 35ae
000000d0: 4946 edb3 d75f f13a 4821 4ab2 dd12 65b9
000000e0: ddf4 e3b3 2431 dba6 1f94 4339 f687 2232
000000f0: cf01 02ba 70d3 fbba b5b5 5a32 f215 cc34
00000100: 633a 3c3a 822e 83ba 57d6 5aba 3d5c c2b7
00000110: 45e9 fd31 d8e8 a5b8 809c 2e38 3f8a 8139
00000120: 2f89 41bb 6694 be35 63c0 08ba bacd 2c32
00000130: c95b 56ba 7e86 aabb 2c73 81b0 81d3 41b7
00000140: 9cc8 7cb6 0b7f 1f3a 0400 b2b9 e0e1 51bd
00000150: edb0 a9b8 d16a 513b bb4b 3239 7bb2 f3ba
00000160: 5ca7 7db9 0b99 f4b3 c06d cab3 aec6 d2b3
00000170: f6c8 b2b6 4d90 7cb7 19c0 75ba 0cfd 4f34
00000180: 13c0 1031 ea48 f1b0 2e30 1eba 8ca4 ef38
00000190: 6d4e 0b3d 0534 9837 b841 bcb9 1979 2338
000001a0: b32d 2c39 248b 7d39 a422 1fb3 6718 2faa
000001b0: 0d58 d839 b263 e2b4 e2d2 52b4 0575 cf39
000001c0: dec6 ad38 4069 1bb4 e74a 15b3 a786 e238
000001d0: b1a5 ad3a 5bac eba4 8e10 fcb8 c52c ed31
000001e0: 7dde 71a6 f621 3b39 81c1 3138 a3cf e339
000001f0: 8618 a6ba 7a27 c837 47f5 0639 08dd 9b3a
00000200: 20c3 31af 8421 ec32 537d e839 d72a 2d3b
00000210: 1838 1128 32f7 31ba de8f 9bb6 db84 0c31
00000220: 9927 83b7 bb51 9cb2 8f5b 6134 fe88 dbb0
00000230: 7618 6cb9 cd14 c6b8 d4d6 dba4 dde8 e738
00000240: 1159 9fa9 4869 0500 a879 6033 193d cdbd
00000250: e5bc 27ba ae2e 913a ee54 a633 bdf5 8bb8
00000260: 9ce6 e638 c76b 38b9 1284 cdb2 dde0 9634
00000270: 5454 a735 2306 3338 1440 153a 68fa a739
00000280: 0fb0 853a 4fb4 87bd a811 403a 0cc1 6333
00000290: b75f 0ebd 310a 1739 415f cbba f11b 2037
000002a0: 6931 30b6 e495 5937 77ee f133 0645 0334
000002b0: f0d7 51b7 b674 1bb6 471c 9a3d 7f6d 15b5
000002c0: 947d 7f8e abc2 b1b5 a49c 283a 82fe f838
000002d0: 55e8 1b3c 96f2 0fbd f4e5 2b3a 9ac3 c83d
000002e0: ec72 a2b2 5bb6 173e 1971 a134 e19c 20b7
000002f0: a2c3 ae38 cb4f be33 6d15 6939 4b7c 173c
00000300: b945 d625 dfe7 93b8 a35c ccb8 b2f4 88bb
00000310: d0ad 56b3 d528 7f3c bee2 acb7 246f f739

lstm.weight_ih_l0_reverse f4 [200, 33]
6.141211e-05 -0.00022796128 -6.294749e-05 -9.686039e-05 0.00025701232 -0.0015194635 -3.5022233e-05 -8.608751e-05
0.002242702 -5.511623e-05 -2.0035146e-05 -7.05092e-05 -3.6178528e-05 8.388465e-05 -5.5126904e-05 -6.2708445e-05
-1.9916927e-06 4.1144604e-06 0.0006688794 1.3826797e-05 7.538083e-07 0.00014764235 0.000134069 6.9755487e-07
6.006114e-06 6.802181e-06 0.00014395294 -4.8080465e-06 1.1161449e-05 2.5713896e-06 1.25649085e-05 2.4191388e-05
2.6270272e-05 0.0017069753 0.0016789405 -0.0035808552 0.0019544512 -0.012264724 0.001965015 0.0025851426
0.002176057 0.009099134 0.0022758818 -0.0067199194 0.014537077 0.0019204114 0.0023950255 0.0022473428
0.0018166907 -0.00256983 -0.000728386 -7.19164e-05 -1.8226923e-05 -0.010147562 0.009369813 -0.0044636787
0.0022395668 -0.0007988739 -0.012881775 0.0056124507 -0.0023712134 -0.0029933632 -0.0021880195 0.010552631
0.000104013474 0.002233254 6.9942077e-12 6.1431515e-12 1.5505578e-14 2.3754669e-07 -1.1968695e-13 0.00063711184
2.0730877e-15 -0.0002084166 3.3246066e-05 2.5897349e-12 1.1115444e-07 -0.0005008107 3.2406326e-15 0.0012899442
0.0012363045 2.6344692e-13 1.3973724e-07 -3.862207e-16 -6.953911e-05 -0.0015198871 -3.373834e-11 3.8080648e-06
2.0248144e-16 0.00010324086 -1.08506235e-08 1.5950238e-07 9.153075e-10 0.001390922 -2.2655022e-09 -0.00010457362
2.1768555e-14 -0.0004887273 5.128867e-09 -0.10190225 0.07507573 0.04464256 0.07664496 0.0021928498
0.02018749 0.06528554 -0.0689946 -0.02112126 -0.018584188 0.032357886 0.004387287 -0.0058890837
0.0066709523 0.012439717 -0.018732307 0.010957325 0.007804654 -0.00515141 -0.025266318 0.03510066
-0.0020468244 0.0019483323 0.004199283 -0.04520687 -0.049532253 -0.033478547 -0.014269429 0.0097731585
0.026725415 0.075775094 0.051447053 0.0025600693 0.00042615764 0.0010786109 3.1007626e-17 9.089929e-25
3.9713344e-16 0.0029600514 1.8169276e-06 4.702791e-10 0.0002883552 2.1158581e-07 7.624529e-16 1.2556715e-19
6.2990703e-38 0.0010512404 -1.355663e-06 2.090593e-06 -6.539406e-09 -0.00020835752 0.00073376746 8.165984e-29
-2.3009687e-14 -5.904511e-16 -4.90533e-40 0.0003904296 -4.92987e-40 -2.6355954e-22 -1.5705313e-08 -4.274153e-10
0.00089688523 2.2494735e-23 -0.0012662045 -1.2476536e-06 1.4146974e-29 0.0008600761 0.00056317745 2.7868127e-06
5.39638e-06 6.410076e-06 0.00064951566 -4.0265364e-05 3.769752e-05 0.00021478691 1.283389e-06 0.0010614244
5.13235e-07 1.6800067e-07 0.0006521834 0.0010604487 3.1471875e-05 -2.2692215e-07 -8.2792405e-07 -4.777761e-06
-6.70113e-08 -2.424367e-07 8.662201e-05 0.00073213514 8.204214e-08 -0.0008344395 -0.0015200902 4.568816e-08
0.0008510901 7.4406024e-08 -4.6944546e-08 -6.325271e-06 -1.8581979e-08 0.00067435834 -0.039614283 -0.024555715
0.014110287 -0.044377822 -0.016663956 0.058839954 -0.039860018 -0.08383944 -0.088268384 -0.07681426
-0.058060538 0.03604914 0.06050142 -0.009920515 -0.031748265 0.10381813 -0.0011236102 -0.009070031
0.016454926 -0.08592485 -0.0035442123 0.016572794 0.0015756505 -0.04703816 -0.013745695 0.04172977
-0.056816168 0.03349922 -0.03754432 -0.00074686087 0.004674662 0.014249371 0.0035573614 -0.0017674281
0.0010973717 0.0005724338 0.0008295276 -0.0013134076 0.0010362981 0.0004772038 0.0009118906 0.00094548817
0.0007828174 0.00092425535 0.00066289835 0.00065637135 0.0010050114 0.0007029649 0.0007222827 -0.002980446
-0.0014937903 3.2660006e-05 -0.001008244 -0.000737046 -0.00038951167 0.0005077945 0.0008818126 0.0010951777
00000000: 60ca 8038 e408 6fb9 ad02 84b8 8721 cbb8
00000010: 9cbf 8639 bc28 c7ba d6e4 12b8 e189 b4b8
00000020: 4cfa 123b 9a2c 67b8 2611 a8b7 57de 93b8
00000030: 66be 17b8 3beb af38 1038 67b8 5782 83b8
00000040: 05a9 05b6 f20e 8a36 bd57 2f3a a4f9 6737
00000050: 5059 4a35 71d0 1a39 e094 0c39 9b3f 3b35
00000060: 2088 c936 4a3e e436 13f2 1639 ce54 a1b6
00000070: 0f42 3b37 2390 2c36 dfcd 5237 9cee ca37
00000080: fb5e dc37 96bc df3a e50f dc3a c8ac 6abb
00000090: 4016 003b fbf1 48bc 7bc7 003b 7f6b 293b
000000a0: 2e9c 0e3b 8914 153c f626 153b c532 dcbb
000000b0: ec2c 6e3c 50b6 fb3a dcf5 1c3b 2848 133b
000000c0: 061e ee3a 986a 28bb 28f1 3eba d3d1 96b8
000000d0: 05e6 98b7 f641 26bc d883 193c 0d44 92bb
000000e0: b2c5 123b 856b 51ba 150e 53bc a6e8 b73b
000000f0: 5c66 1bbb 4d2c 44bb e064 0fbb f1e4 2c3c
00000100: cf21 da38 c95b 123b 3916 f62c 9724 d82c
00000110: 6ea9 8b28 5610 7f34 6ac1 06aa da03 273a
00000120: b861 1527 688a 5ab9 b171 0b38 843c 362c
00000130: cdb3 ee33 d648 03ba 1f83 6927 5813 a93a
00000140: 7f0b a23a b44e 942a ae0a 1634 1ea4 dea5
00000150: 87d5 91b8 f336 c7ba fe61 14ae 0e8e 7f36
00000160: f971 6925 0483 d838 8c69 3ab2 ae43 2b34
00000170: 0a99 7b30 994f b63a 23af 1bb1 894e dbb8
00000180: df12 c428 ef1d 00ba fe39 b031 20b2 d0bd
00000190: 4ec1 993d 1edb 363d 08f8 9c3d eab5 0f3b
000001a0: 3c60 a53c 6db4 853d 0a4d 8dbd 7e06 adbc
000001b0: de3d 98bc b489 043d 3bc3 8f3b 37f9 c0bb
000001c0: 0198 da3b f4cf 4b3c 7f74 99bc 5a86 333c
000001d0: 2fbe ff3b 29cd a8bb 4ffb cebc b6c5 0f3d
000001e0: 0424 06bb 2f5f ff3a 249a 893b d72a 39bd
000001f0: 55e2 4abd cd20 09bd 53ca 69bc 991f 203c
00000200: 42ef da3c f92f 9b3d 25ba 523d d6c6 273b
00000210: e96d df39 2d60 8d3a 58ff 0e24 eba8 8c17
00000220: 8dee e425 6cfd 413b 28dd f335 f344 0130
00000230: 612e 9739 4430 6334 18c3 5b26 583e 1420
00000240: 1d7a ab01 c6c9 893a 3af4 b5b5 1d4c 0c36
00000250: 39b1 e0b1 8c7a 5ab9 4d5a 403a 4408 cf10
00000260: ba40 cfa8 9a2f 2aa6 6857 0580 93b2 cc39
00000270: 3f5e 0580 dd4f 9f9b 59e8 86b2 5bf9 eaaf
00000280: f31c 6b3a 448e d919 c6f6 a5ba 0d75 a7b5
00000290: a577 8f0f bb76 613a 33a2 133a 1405 3b36
000002a0: 8d12 b536 2216 d736 4244 2a3a 9be2 28b8
000002b0: 671d 1e38 6c38 6139 e940 ac35 7e1f 8b3a
000002c0: 3ec5 0935 ac63 3434 49f7 2a3a c1fe 8a3a
000002d0: ab00 0438 e3a7 73b4 823e 5eb5 a850 a0b6
000002e0: dae7 8fb3 3f28 82b4 d6a8 b538 c2ec 3f3a
000002f0: 252f b033 49be 5aba c33d c7ba aa3a 4433
00000300: b11b 5f3a 25c9 9f33 13a0 49b3 aa3d d4b6
00000310: 349e 9fb2 6cc7 303a 9642 22bd 1129 c9bc
00000320: d52e 673c 85c5 35bd d982 88bc 2a02 713d
00000330: 4244 23bd 03b4 abbd 0ec6 b4bd cb50 9dbd
00000340: e3d0 6dbd 43a8 133d 56d0 773d a889 22bc
00000350: 780a 02bd 9a9e d43d 1a46 93ba 789a 14bc
00000360: 7bcc 863c 5ef9 afbd 0446 68bb abc3 873c
00000370: 0f86 ce3a 16ab 40bd a035 61bc d6ec 2a3d
00000380: 12b8 68bd 7a36 093d 13c8 19bd fcc8 43ba
00000390: e82d 993b 3276 693c 9f22 693b 0ca9 e7ba
000003a0: afd5 8f3a 620f 163a a874 593a a526 acba
000003b0: 65d4 873a 3631 fa39 f10b 6f3a a3da 773a
000003c0: fd35 4d3a ba49 723a 5bc6 2d3a 5610 2c3a
000003d0: 96ba 833a 2d47 383a 9257 3d3a 9653 43bb
000003e0: 49cb c3ba 6afc 0838 0e27 84ba 5236 41ba
000003f0: 5f37 ccb9 831d 053a 7129 673a 118c 8f3a

lstm.weight_hh_l0_reverse f4 [200, 50]
-6.1279775e-07 5.4401407e-06 -3.913551e-15 -1.2224383e-06 -8.491737e-06 -0.0008601599 -2.3316086e-14 -8.152024e-06
6.8237564e-06 -3.3741488e-15 -0.00028887956 -1.0399315e-09 -0.0005597639 -7.879055e-17 9.9919806e-20 -5.415945e-06
6.9327226e-12 -2.5617733e-06 -2.0631432e-09 0.00040817657 1.4722684e-05 -8.463601e-06 8.470671e-06 -1.1701686e-05
-1.0760892e-05 0.00035717746 -0.00015012038 -4.4660223e-06 -5.9770036e-06 -1.9818108e-05 -1.4471497e-06 9.291547e-06
0.000607722 0.0005267144 0.00056279014 9.636989e-05 1.6008902e-05 1.1669382e-06 -4.54794e-06 -4.2649577e-25
-4.1935207e-05 0.0009345276 -6.385267e-14 -8.545244e-06 0.0013818423 2.116825e-12 0.0015819833 -4.063869e-07
-3.782572e-10 -1.213988e-05 2.1609688e-25 0.01053412 -1.643299e-17 -4.93072e-40 0.0067415144 -0.002294403
0.000118514065 1.3489861e-06 3.8253071e-07 4.91644e-40 0.0006384596 1.1765678e-12 0.0002466846 -1.21451295e-11
0.0014631136 0.0005109073 1.9986449e-07 -2.3955878e-21 -0.00039094235 4.0685238e-05 -4.859806e-08 -0.0018488544
-0.002307384 -3.1754973e-06 -0.00031228215 3.4291063e-17 5.6006336e-19 3.3614023e-07 0.0027082616 -0.00057196076
-0.0111653805 -4.90572e-40 -0.00030398567 0.00064190116 3.0189605e-05 0.0022447621 -2.1199425e-05 -0.00045472418
-0.004679268 4.9129e-40 -1.2383637e-06 1.7833608e-14 0.0001082882 -1.9074651e-13 0.0005436021 0.00014032517
6.4984586e-25 -4.3693322e-07 -4.3254064e-13 -0.010920213 -0.0012796698 4.4639995e-07 -6.625655e-24 2.3865405e-05
8.96355e-16 -8.935929e-16 -4.602162e-08 -0.0001022591 1.8747745e-05 -0.0013328255 8.774552e-26 -0.0010658455
0.00050638587 5.1700223e-05 0.0013830481 9.767665e-05 -0.00046101148 -8.110142e-08 -0.000105237516 9.580307e-16
7.383824e-26 0.0005142793 1.3384429e-05 1.0447461e-15 -1.5850839e-06 -6.4558975e-05 -4.879061e-06 -5.479303e-07
-1.0283867e-05 9.8062294e-11 9.583671e-07 8.704201e-09 -9.636534e-08 1.8482805e-08 1.5866172e-07 1.0236566e-15
0.000971615 1.665589e-05 0.0005099235 3.3374312e-09 4.997116e-05 2.097056e-05 1.9948754e-06 9.288767e-07
-2.921105e-06 4.9313673e-21 -1.6425996e-07 4.134529e-05 -0.0009128831 6.5364507e-06 1.9791719e-06 0.02567063
7.907886e-05 -0.0049997456 0.0056441985 0.020971656 0.0030743321 0.0016832978 -0.0076418724 -3.3355423e-09
-2.7186184e-10 0.05229666 0.034601666 8.020268e-08 -0.0009413727 0.004979577 0.00062555185 -0.00013653855
0.00046000132 0.00035671826 6.0615736e-07 -0.006287655 -0.00031377916 0.0007606204 0.0055518746 0.0050211763
0.00022706705 0.00012735909 0.0004011707 0.013234593 -0.023832107 -0.0043365634 -0.00033057533 0.02165624
-0.00017161072 0.005428784 -0.00082866056 0.06805757 -0.001424388 0.0005043463 0.0014524194 0.0016242173
-7.1060042e-09 0.0007957832 0.000992903 0.0012735926 -0.0015309491 -0.00036694092 7.656055e-07 0.005251531
5.325287e-23 -0.0015229998 -5.6207293e-05 -2.5775026e-13 0.00074929965 -5.3668366e-05 8.043082e-36 3.2701894e-07
-1.737928e-20 -8.009009e-36 -4.93439e-40 4.7644424e-36 -4.8782663e-13 -1.0807291e-05 -5.674721e-05 -7.81827e-05
2.510625e-22 0.0009129303 -0.0008928746 -0.001597674 -0.00041667128 0.0012922868 7.9053536e-10 -2.1927407e-21
2.1834335e-16 4.0939426e-07 1.825273e-25 -5.27885e-40 -4.4183048e-14 -6.4638094e-08 1.8385517e-08 -2.4862766e-07
3.5910828e-09 0.001159253 0.00015797964 -7.1405804e-05 1.14434854e-07 -4.8060722e-11 2.4186329e-05 -5.7178957e-05
-1.3974719e-05 3.660491e-08 -4.546146e-10 5.02003e-40 -4.7849488e-05 8.9800084e-10 6.459243e-39 0.00039244926
2.5482973e-25 3.9773503e-14 7.1482464e-10 -0.0009869541 -9.272463e-12 -3.6556474e-12 -1.8208526e-05 -8.735625e-08
00000000: 247f 24b5 748a b636 2300 8da7 a912 a4b5
00000010: bc77 0eb7 5b7c 61ba 3c03 d2a8 adc4 08b7
00000020: 9ff7 e436 0f22 73a7 c274 97b9 56ed 8eb0
00000030: 1fbd 12ba bbad b5a4 d1ed eb1f 9dba b5b6
00000040: 6aec f32c eeea 2bb6 33c7 0db1 8800 d639
00000050: 7201 7737 e4fe 0db7 411d 0e37 5c52 44b7
00000060: ae89 34b7 8c43 bb39 a269 1db9 d7da 95b6
00000070: 128e c8b6 103f a6b7 af3b c2b5 e4e2 1b37
00000080: 884f 1f3a 3413 0a3a 3588 133a 311a ca38
00000090: db4a 8637 b19f 9c35 829a 98b6 7afe 0397
000000a0: 96e3 2fb8 16fb 743a 8fc8 8fa9 8b5d 0fb7
000000b0: ef1e b53a 54f5 142c 8d5a cf3a 642d dab4
000000c0: f8f2 cfaf 63ac 4bb7 ebc1 8516 4d97 2c3c
000000d0: 4d91 97a3 7c5e 0580 ece7 dc3b b25d 16bb
000000e0: c18a f838 cf0e b535 9f5e cd34 815a 0500
000000f0: 4c5e 273a 5396 a52b 7255 8139 cda8 55ad
00000100: f2c5 bf3a 69ee 053a 559a 5634 6801 359d
00000110: 65f7 ccb9 71a5 2a38 22ba 50b3 4255 f2ba
00000120: 7b37 17bb a11a 55b6 cdb9 a3b9 be23 1e24
00000130: 314d 2521 c376 b434 177d 313b a3ef 15ba
00000140: 00ef 36bc 8457 0580 4460 9fb9 4245 283a
00000150: af3f fd37 dc1c 133b 6bd5 b1b7 0c68 eeb9
00000160: 8c54 99bb 8459 0500 da35 a6b5 80a1 a028
00000170: c918 e338 f0c2 56aa 8580 0e3a 4024 1339
00000180: 181e 4917 a593 eab4 ad7f f3aa b1ea 32bc
00000190: 98ba a7ba bea8 ef34 a828 0099 9132 c837
000001a0: aa2d 8126 c2c7 80a6 4ea9 45b3 f073 d6b8
000001b0: 7a44 9d37 34b2 aeba 553f d915 d7b3 8bba
000001c0: fbbe 043a b1d8 5838 6547 b53a c1d7 cc38
000001d0: eab3 f1b9 fa29 aeb3 f6b2 dcb8 1811 8a26
000001e0: 8bd0 b615 b3d0 063a af8d 6037 5490 9626
000001f0: 11bf d4b5 d663 87b8 d1b6 a3b6 7c15 13b5
00000200: df88 2cb7 2aa4 d72e 3ea1 8035 7b89 1532
00000210: 68f1 ceb3 1ec4 9e32 9a5c 2a34 4386 9326
00000220: fbb3 7e3a 40b8 8b37 63ac 053a b658 6531
00000230: 2098 5138 efe9 af37 b3df 0536 ec57 7935
00000240: 3408 44b6 424d ba1d 6f5f 30b4 2b6a 2d38
00000250: 8c4e 6fba af53 db36 ead1 0436 374b d23c
00000260: 24d7 a538 e8d4 a3bb f8f2 b83b c0cc ab3c
00000270: bc7a 493b 1aa2 dc3a ac68 fabb 7b37 65b1
00000280: 2775 95af 0635 563d 7aba 0d3d e43b ac33
00000290: 74c6 76ba b82b a33b 13fc 233a ca2b 0fb9
000002a0: 552c f139 ea05 bb39 d1b6 2235 ac08 cebb
000002b0: ba82 a4b9 5f64 473a 80ec b53b ae88 a43b
000002c0: d918 6e39 b28b 0539 3854 d239 e8d5 583c
000002d0: 8d3b c3bc bb19 8ebb 1251 adb9 6d68 b13c
000002e0: 67f2 33b9 f1e3 b13b 783a 59ba c461 8b3d
000002f0: 88b2 baba 1b36 043a 1c5f be3a b0e3 d43a
00000300: 1329 f4b1 1b9c 503a 4c24 823a adee a63a
00000310: 21aa c8ba fa61 c0b9 0284 4d35 0915 ac3b
00000320: eec1 801a 659f c7ba 1fc0 6bb8 ba19 91aa
00000330: a66c 443a f819 61b8 b40e 2b05 2491 af34
00000340: 8524 a49e 3155 2a85 825f 0580 2fa8 ca04
00000350: 9d4f 09ab f650 35b7 da03 6eb8 04f6 a3b8
00000360: 0ac2 971b b751 6f3a cd0f 6aba 0b69 d1ba
00000370: ac74 dab9 f361 a93a fb4c 5930 c6ad 259d
00000380: 95bb 7b25 b8ca db34 36f5 6116 87bf 0580
00000390: 96fb 46a9 2bcf 8ab3 2eee 9d32 207b 85b4
000003a0: ffc6 7631 13f2 973a 56a7 2539 b3bf 95b8
000003b0: 3abf f533 905f 53ae bfe3 ca37 70d3 6fb8
000003c0: f674 6ab7 8637 1d33 51ed f9af 6177 0500
000003d0: ffb1 48b8 31d7 7630 be55 4600 a6c1 cd39
000003e0: 62bb 9d16 ba1f 3329 507d 4430 af5c 81ba
000003f0: 761f 23ad 259f 80ac 83be 98b7 9b98 bbb3

lstm.bias_ih_l0_reverse f4 [200]
-7.546908e-06 -0.0018895286 1.0298562e-08 -0.011949472 5.3767644e-06 1.1810622e-07 -0.05845484 0.00069041084
0.0011997806 -7.765398e-06 0.00087640015 0.040328626 -0.014551547 -9.67377e-05 -5.6542153e-09 3.293455e-12
-0.00015352044 9.3715644e-05 -0.0003120906 0.0006163959 -1.2968039e-08 0.0012318052 0.120803334 -0.0004615783
0.005429703 -0.0013740754 -0.00038100913 8.334409e-08 1.1495774e-08 -0.0010374803 -0.07238256 0.0007812994
1.8472787e-06 1.1091634e-07 -0.001704162 0.00302772 0.00034386673 0.0020186491 0.012837752 0.00045154366
-0.0010307061 0.00045769758 -4.4852077e-06 0.0007074696 0.0003643501 1.5847851e-08 0.000862324 -0.000404964
0.00011386605 0.0028006283 -0.00027380302 0.0017739565 -1.2509536e-05 3.7980108e-08 -2.7747214e-05 -0.002953817
2.6425936e-31 0.00014361273 -0.00025454548 -0.0008681987 1.932378e-09 0.00036371534 3.041458e-32 2.2592783e-10
-1.8955058e-13 -0.00016370282 5.085477e-09 -5.094677e-05 2.489108e-07 0.0005227854 4.2256927e-11 0.0010573282
2.0041753e-08 0.0004885288 0.0018898019 0.00040705237 -6.911021e-11 -7.625548e-09 0.0008036927 -2.9732648e-06
9.955412e-07 2.306493e-05 0.00035153053 4.773463e-05 -0.00010282354 0.00440042 0.00027500742 -7.2042394e-06
-9.066377e-05 -0.0003993508 -2.3092367e-10 0.00042922018 1.9836038e-05 1.3659292e-07 5.635336e-05 1.3063705e-08
-0.00016896191 3.0537391e-12 0.0011646333 -0.0012609308 1.08128795e-08 5.681679e-05 -0.0008263185 -6.843669e-09
2.4459956e-19 5.53855e-08 0.00043063294 1.6323165e-05 -0.00040726186 -0.0006107363 -2.5381776e-12 6.5786054e-25
-3.058981e-39 0.0014224086 9.41612e-22 -0.00011154934 1.0460485e-21 -1.1696295e-07 0.00036019998 3.1640486e-08
-0.00015414582 -0.06637818 -1.7247817e-08 5.651581e-08 -0.0025904388 -0.00051921577 3.3066483e-10 -4.90747e-40
8.753533e-05 -2.3113949e-38 0.07541229 -0.00017796626 -5.1594645e-05 0.0017880937 4.3911257e-07 0.000512252
1.463756e-08 6.478109e-06 0.0013617618 0.0010820817 -3.1738875e-06 3.116577e-21 -3.2428125e-05 0.00052984286
-1.6326455e-08 1.4415046e-08 -9.714094e-05 4.6186397e-05 -1.2247651e-12 2.4802585e-08 -9.845097e-06 1.0231479e-07
-0.00012442369 -0.00016267982 -0.000403395 0.0006730948 -1.01105015e-05 -0.0003316428 -0.00014753855 1.9032284e-10
-0.0005298229 -0.010046915 -0.003839835 1.6917494e-10 -0.007823419 0.0013865861 0.0013332454 0.0001863454
-0.000230573 1.275146e-07 2.2075259e-05 -0.019644195 8.5650896e-08 9.934047e-08 8.29777e-06 0.05810929
-2.4426862e-08 -0.0011363367 -0.06824249 -0.002869777 0.00035487453 -0.0010401701 -3.9534953e-05 8.090143e-08
5.320738e-05 6.3353e-05 -1.2527016e-07 -6.530354e-05 0.0212713 -3.0947487e-07 -6.813369e-08 1.3672872e-07
4.224666e-10 -0.00041436782 0.090255536 -8.8458284e-05 -5.8112714e-06 3.476809e-11 1.3723196e-11 -1.6905357e-21
00000000: 723b fdb6 0faa f7ba 8eed 3032 b8c7 43bc
00000010: 0e6a b436 95a1 fd33 586e 6fbd b0fc 343a
00000020: f541 9d3a 2148 02b7 38be 653a a12f 253d
00000030: 9d69 6ebc a8df cab8 0147 c2b1 9cc1 672c
00000040: 54fa 20b9 3489 c438 17a0 a3b9 a195 213a
00000050: 0aca 5eb2 8674 a13a bd67 f73d feff f1b9
00000060: a6eb b13b 521a b4ba 2ec2 c7b9 e6fa b233
00000070: f37e 4532 10fc 87ba 4f3d 94bd 1dd0 4c3a
00000080: 03f0 f735 e730 ee33 305e dfba b66c 463b
00000090: 0349 b439 504b 043b 6f55 523c 2abd ec39
000000a0: c218 87ba 21f7 ef39 a47f 96b6 7b75 393a
000000b0: 3e06 bf39 cb21 8832 960d 623a 5951 d4b9
000000c0: 5fcb ee38 bf8a 373b 388d 8fb9 1a84 e83a
000000d0: 0ce0 51b7 921f 2333 b0c2 e8b7 d394 41bb
000000e0: 9e83 ab0c c096 1639 8474 85b9 d497 63ba
000000f0: c1ca 0431 0cb1 be39 e9eb 1d0b 0869 782f
00000100: 3c6a 55aa a4a7 2bb9 54bc ae31 aeaf 55b8
00000110: 0aa2 8534 890b 093a 12d9 392e 0c96 8a3a
00000120: 4828 ac32 9d10 003a 3bb3 f73a a569 d539
00000130: 97f9 97ae 8401 03b2 e7ae 523a 4d88 47b6
00000140: 899e 8535 8f7b c137 a14d b839 ab36 4838
00000150: f8a2 d7b8 6631 903b df2e 9039 f2bb f1b6
00000160: be22 beb8 f55f d1b9 3ce7 7daf f508 e139
00000170: 9165 a637 60aa 1234 f65c 6c38 c86e 6032
00000180: 5e2b 31b9 46e3 562c 9ca6 983a d145 a5ba
00000190: 8cc3 3932 904e 6e38 4c9d 58ba 8d25 ebb1
000001a0: d762 9020 00e1 6d33 93c6 e139 bbed 8837
000001b0: c385 d5b9 d219 20ba be9b 32ac 1599 4b17
000001c0: 324f 2180 1d70 ba3a da4a 8e1c 99ef e9b8
000001d0: 0b13 9e1c 102d fbb3 39d9 bc39 15e5 0733
000001e0: 34a2 21b9 49f1 87bd 5a28 94b2 cabb 7233
000001f0: 5ac4 29bb fb1b 08ba f0c8 b52f 0158 0580
00000200: 2c93 b738 49b0 fb80 c271 9a3d 749c 3ab9
00000210: 5467 58b8 785e ea3a 2cbf eb34 a648 063a
00000220: ab78 7b32 885e d936 257d b23a a3d4 8d3a
00000230: f9fe 54b6 5e7b 6b1d 6f03 08b8 27e5 0a3a
00000240: 413e 8cb2 0ba6 7732 25b8 cbb8 44b8 4138
00000250: d05e acab 760d d532 5f2c 25b7 27b8 db33
00000260: bb77 02b9 0895 2ab9 c37e d3b9 a172 303a
00000270: 46a0 29b7 58e0 adb9 94b4 1ab9 1e43 512f
00000280: d0e3 0aba d19b 24bc bea5 7bbb 8302 3a2f
00000290: cc2d 00bc 1cbe b53a 4bc0 ae3a b665 4339
000002a0: f8c5 71b9 f2ea 0834 422e b937 ddec a0bc
000002b0: 14ef b733 0055 d533 a736 0b37 0204 6e3d
000002c0: 3dd3 d1b2 22f1 94ba b8c2 8bbd de12 3cbb
000002d0: 740e ba39 5156 88ba 55d2 25b8 08bc ad33
000002e0: fd2a 5f38 62dc 8438 0082 06b4 92f3 88b8
000002f0: 2641 ae3c e725 a6b4 e450 92b3 b4cf 1234
00000300: e340 e82f 823f d9b9 e5d7 b83d ae82 b9b8
00000310: 71fe c2b6 64e9 182e c86b 712d 6f77 ff9c

lstm.bias_hh_l0_reverse f4 [200]
8.256911e-06 0.0022319132 1.1512616e-09 0.0018868297 -0.0005228432 2.4443138e-05 -0.034896735 0.00067800144
0.0011999516 6.853303e-06 -0.00015966134 0.007107122 -0.08487847 0.00037590528 -5.3095532e-09 -0.000949581
-0.00019376035 8.310328e-05 -0.00023200076 0.00021892341 2.8620352e-07 3.680136e-14 0.12182268 0.00041370062
0.002881896 -0.0028376332 -0.0018318603 -3.137642e-10 0.00014331935 -0.0002792459 0.017838795 0.00075627794
4.56946e-06 -0.00064705685 -7.35188e-05 0.0013559954 0.0004174447 -0.10628785 0.013330009 -1.7602424e-06
-3.844126e-10 0.0025469894 -2.9424867e-13 0.0007210125 -5.364219e-05 0.0006244512 -0.0011825381 -0.00035155448
0.012275042 0.0015675174 0.0004208194 -0.0078123864 1.02390046e-14 2.0535833e-06 -0.010078864 -0.015162872
0.0007812102 -3.132037e-05 3.8162316e-06 1.1737522e-09 2.4309258e-11 7.6154676e-05 3.8131432e-11 4.8444977e-09
-2.936461e-06 0.00020500032 1.1551007e-09 -4.204311e-05 -3.2239383e-05 -4.2645082e-05 1.6372782e-05 -1.2847778e-05
2.4890303e-08 0.00048578056 -0.004540413 0.00031194292 -2.3237712e-08 -0.0006074966 -3.7633905e-05 7.351088e-05
-1.2372395e-07 2.3241775e-05 0.00041373432 6.115487e-08 -0.000103453654 0.0042911293 0.00028289945 0.0007081902
-0.003781577 5.384838e-20 -1.9993414e-10 0.00053717016 0.0001421397 2.3150447e-07 7.854129e-05 1.22340165e-08
-2.1313564e-09 3.272995e-12 3.880959e-16 -0.00017832634 -2.7178885e-05 -9.242029e-08 -3.383855e-06 5.1907868e-05
1.4293582e-07 7.985285e-09 -6.148273e-09 1.9957179e-05 -0.00027950457 -0.0012419347 -0.0005517005 6.2068205e-13
-0.0014095416 -5.125663e-11 1.6669299e-10 -0.00011611633 8.497505e-22 -0.0009664116 -2.6628475e-05 -1.2068945e-05
0.00011645836 0.05349825 -1.5209473e-08 0.0008994985 -0.00042419255 -6.371561e-07 0.000427906 8.398831e-05
9.422834e-05 -1.0114485e-30 0.09742836 -0.00017561858 -7.295815e-05 0.0015393116 -0.0010027068 -0.001320147
3.0636e-07 2.3357417e-08 1.9647994e-05 -3.8080438e-05 0.0008782296 1.7149717e-06 -1.6090314e-15 5.4917926e-08
3.1103023e-06 1.2948714e-08 6.24227e-07 -0.00017773802 1.5933905e-05 3.056111e-08 8.5993e-05 7.683538e-08
-0.0005000858 7.170053e-08 -0.017626481 8.216744e-08 -5.1874497e-07 -9.912203e-08 -0.00014881283 -1.7691051e-09
0.0003134099 -0.0032523926 0.005398591 -1.2830375e-06 -0.00026685276 0.002798056 -0.0001349201 2.5883037e-07
-0.0002874157 -0.0002324654 5.7984537e-11 0.0033528798 9.0817565e-08 -0.0002723987 2.231108e-11 0.04128184
-2.6483394e-07 -8.5892296e-08 -0.08553564 -0.0028312122 0.00035475893 0.0009921072 0.0003562613 2.3408095e-06
6.0009792e-05 6.2123705e-05 0.00086381583 -8.896758e-05 -0.027328923 -6.1388996e-09 -9.316657e-06 1.4883705e-07
2.1583267e-06 1.6516387e-07 0.034824137 -8.614329e-05 -2.4523114e-08 2.1861845e-16 -2.1106835e-15 1.4229981e-07
00000000: 2a87 0a37 4a45 123b 6b3a 9e30 804f f73a
00000010: 6a0f 09ba 3d0b cd37 e1ef 0ebd e8bb 313a
00000020: b247 9d3a 6df5 e536 c46a 27b9 dce2 e83b
00000030: c3d4 adbd 2715 c539 536f b6b1 4ded 78ba
00000040: 262c 4bb9 bc47 ae38 3b45 73b9 ce8e 6539
00000050: 83a7 9934 14bd 2529 2b7e f93d f5e5 d839
00000060: 31de 3c3b 96f7 39bb 081b f0ba 637e acaf
00000070: ff47 1639 c067 92b9 aa22 923c f440 463a
00000080: 5d53 9936 409f 29ba 1b2e 9ab8 a8bb b13a
00000090: 7bdc da39 72ad d9bd 1c66 5a3c 7841 ecb5
000000a0: 4455 d3af 64eb 263b b4a5 a5aa 5402 3d3a
000000b0: ddfd 60b8 36b2 233a 65ff 9aba d850 b8b9
000000c0: 421d 493c 2875 cd3a 6ca1 dc39 0cff ffbb
000000d0: 1373 3828 4bd0 0936 d221 25bc b26d 78bc
000000e0: 21ca 4c3a fe5d 03b8 2e0d 8036 bc51 a130
000000f0: 95d3 d52d 3bb5 9f38 2db4 272e a774 a631
00000100: 0410 45b6 5bf5 5639 7ec1 9e30 7257 30b8
00000110: c638 07b8 cfdd 32b8 4858 8937 c98c 57b7
00000120: 5bce d532 5db0 fe39 bfc7 94bb 458c a339
00000130: 459c c7b2 6840 1fba 19d9 1db8 da29 9a38
00000140: fbd8 04b4 55f7 c237 7bea d839 3f54 8333
00000150: 42f5 d8b8 9a9c 8c3b 1f52 9439 d7a5 393a
00000160: 56d4 77bb b24a 7e1f 75d4 5baf e1d0 0c3a
00000170: 560b 1539 7793 7834 89b6 a438 c62d 5232
00000180: 3877 12b1 0951 662c d9b8 df25 1dfd 3ab9
00000190: 36fe e3b7 9778 c6b3 3016 63b6 a6b7 5938
000001a0: e679 1934 a82f 0932 c840 d3b1 b769 a737
000001b0: 788a 92b9 6ac8 a2ba fe9f 10ba dbb4 2e2b
000001c0: 5ec0 b8ba d66d 61ae e847 372f 7b83 f3b8
000001d0: 2169 801c c956 7dba 3760 dfb7 b97b 4ab7
000001e0: 1b3b f438 fb20 5b3d fca5 82b2 53cc 6b3a
000001f0: 2966 deb9 0909 2bb5 9258 e039 e122 b038
00000200: 749c c538 ed1d a48d 8588 c73d 4126 38b9
00000210: 1c01 99b8 bac2 c93a 426d 83ba c808 adba
00000220: cc79 a434 81a3 c832 bfd1 a437 8fb8 1fb8
00000230: fe38 663a fb2d e635 c8e2 e7a6 e6de 6b33
00000240: 96ba 5036 0c75 5e32 8e90 2735 305f 3ab9
00000250: cda9 8537 4c42 0333 2457 b438 b200 a533
00000260: 3118 03ba c9f9 9933 6965 90bc 0774 b033
00000270: e23f 0bb5 eadc d4b3 a40a 1cb9 da24 f3b0
00000280: 2a51 a439 1826 55bb aae6 b03b d534 acb5
00000290: 5fe8 8bb9 975f 373b 5779 0db9 60f5 8a34
000002a0: 48b0 96b9 f5c1 73b9 c904 7f2e fdbb 5b3b
000002b0: 7c07 c333 bcd0 8eb9 1640 c42d 2617 293d
000002c0: 802e 8eb4 ca73 b8b3 4f2d afbd dc8b 39bb
000002d0: f0fe b939 9809 823a 95c8 ba39 cd16 1d36
000002e0: 06b3 7b38 6948 8238 b371 623a 1b94 bab8
000002f0: e8e0 dfbc 55ee d2b1 bd4e 1cb7 04d0 1f34
00000300: c5d7 1036 e657 3134 c1a3 0e3d d4a7 b4b8
00000310: e6a6 d2b2 c70c 7c25 3d17 18a7 13cb 1834
