src/model_checkpoint.pth (torch, 138963 bytes, 9 tensors)

lstm.weight_ih_l0 f4 [200, 33]
000000 73 b9 b2 bc 13 b0 cd 3b ca e1 a6 bd ab 21 50 bd
       -0.021816945 0.006277093 -0.081485346 -0.05081336
000010 9b 15 e9 3c 1a f2 4e 3d 07 98 7d b3 14 96 de bc
       0.028452685 0.050523855 -5.904442e-08 -0.027171172
000020 27 eb c1 3c 9c 5f 3d 3d 31 2e bd bd 92 fd d1 ba
       0.0236717 0.04623376 -0.09237326 -0.0016021004
000030 31 99 af bd a6 18 b7 b3 17 f8 86 3d f3 5c aa bd
       -0.08574141 -8.526085e-08 0.06590288 -0.0831851
000040 5c 3f 5c bd 2b eb 15 b9 3c 88 0b 3c 00 bc bb 3d
       -0.05377136 -0.00014297354 0.0085163675 0.091667175
000050 eb 93 9a 3c 80 c0 44 3d 3f 9f 9e 3d 62 72 2a 3d
       0.01886936 0.048035145 0.077452175 0.04161299
000060 c0 fd 17 bd 90 e9 2a bd 9c 4c 47 3d 03 98 d9 ba
       -0.03710723 -0.04172665 0.048657045 -0.0016601089
000070 a8 dc 9b bd a0 23 9d 3b 78 b4 86 bd 5d b8 77 3b
       -0.07610446 0.0047955066 -0.065773904 0.0037799098
000080 80 d8 ba 3d 83 e6 fb 3d 88 52 28 3b 5b c4 86 3c
       0.09123325 0.12299826 0.0025683958 0.016451051
000090 07 af 0b 3d b3 b7 3c bd 81 aa a0 bd c4 cc 10 3e
       0.034102466 -0.046073627 -0.07845021 0.14140612
0000a0 7b 8a 00 be 37 09 e5 3c dc 12 51 bd 85 3d 7f 3d
       -0.12552826 0.027958496 -0.051043376 0.06231453
0000b0 77 82 8c bd 9c a5 90 3d 74 aa ad bd 42 8b 83 bd
       -0.06860822 0.070628375 -0.08479777 -0.06423046
0000c0 62 ec f2 3d d0 20 99 3c ee 84 fd 3d 5f bc ab bd
       0.11861493 0.018692404 0.1237887 -0.08385538
0000d0 12 d9 c4 3d 2f dd d6 3c ba 31 f3 3d 3f 14 0b bd
       0.096117154 0.026228515 0.11874719 -0.033954855
0000e0 93 cf f1 ba 29 31 ba 3b 5c d4 9a bd 9b 49 5e 3c
       -0.0018448703 0.00568213 -0.075600356 0.013567354
0000f0 f0 05 a0 bd bf bc 8a 3d f9 ca fe 3d c3 b1 14 bd
       -0.078136325 0.06774282 0.12441058 -0.03630234
000100 37 14 a8 bc 26 ef 24 3d c8 6f 66 30 52 93 f9 32
       -0.020517452 0.040267132 8.3832363e-10 2.9054409e-08
000110 df 3a d7 bb c9 dd 81 3d ce c0 db ba ad e0 a4 3d
       -0.0065682973 0.0634113 -0.0016765834 0.08050666
000120 98 c0 14 3d 9d cb 6b 3d 29 2d 05 3a 39 1b 1f bc
       0.036316484 0.057567228 0.0005080277 -0.00971108
000130 a8 55 1d bd f7 98 a5 3d 56 31 64 bd 63 c5 a2 b2
       -0.038411766 0.08085816 -0.055711113 -1.8949043e-08
000140 26 55 85 bd 40 99 b9 bd 79 10 26 33 4a 1d e8 bc
       -0.065103814 -0.09062433 3.866487e-08 -0.028334279
000150 a0 58 63 bd 48 54 16 bd 44 7b b6 3d e3 14 02 30
       -0.05550444 -0.03670147 0.0891023 4.7323406e-10
000160 a9 eb f8 3a 79 c3 4d bd 17 5b 2a bc 7a 5b 62 3d
       0.0018991131 -0.050235245 -0.010397694 0.05526302
000170 d2 11 8a 3d 2d fd f7 ae b6 a6 a8 bd 65 1d b4 3d
       0.0674168 -1.12772326e-10 -0.082349226 0.08794669
000180 20 e6 45 bd 75 dc f5 bc 01 0b 6a 3d a8 ee 28 3c
       -0.048315167 -0.030012349 0.0571394 0.010310806
000190 a5 9c 86 b1 81 34 19 3d bc 43 9f 3c ec 87 bd 3d
       -3.9177217e-09 0.037403587 0.019441478 0.09254441
0001a0 d8 04 9f 3d ec 4d 8a 3b 71 62 99 3d 6a ac b9 bd
       0.07764596 0.004220715 0.07489479 -0.090660885
0001b0 55 06 35 bd 68 95 64 bd ba a1 1f bb bb d8 ae 3d
       -0.04419549 -0.055806547 -0.002435787 0.08537432
0001c0 75 e8 de 39 42 e4 e5 32 18 0d d8 b3 34 4e 8b bc
       0.00042516334 2.6762908e-08 -1.00606655e-07 -0.017005064
0001d0 77 56 38 bc d3 6e a2 3d 7d 74 32 bd bb 4b f6 3b
       -0.011251084 0.07931294 -0.043568123 0.007516352
0001e0 ef c6 ef b2 dd f8 b6 3d 48 0f f2 bc 83 cd a3 bb
       -2.7913726e-08 0.08934186 -0.029548302 -0.004998864
0001f0 14 29 1d bd 80 f9 a2 b9 03 53 3e bd 24 54 31 bd
       -0.038369253 -0.0003108494 -0.046465885 -0.043293133
000200 d9 bb 1b 35 22 de c9 37 7f 5c bc 3c 2d fb b8 3b
       5.8015354e-07 2.4064506e-05 0.022993324 0.005645177
000210 ed 07 1e bd c8 9a bb bd 74 36 ad bd 08 53 ad b2
       -0.038581777 -0.091603816 -0.08457652 -2.0177609e-08
000220 4f 2a 01 34 88 fd 8d 3d 04 1e af 3d d1 bf c1 3d
       1.2029453e-07 0.06933123 0.08550647 0.09460414
000230 65 52 99 3d f6 20 90 3d 1f 53 5d b1 e5 55 c9 3c
       0.07486419 0.07037537 -3.2206982e-09 0.02457709
000240 0f 22 26 33 36 e7 8f bd 13 68 3a 3c be 33 b9 3d
       3.8680863e-08 -0.07026522 0.011377352 0.09043072
000250 72 a3 ca bc 94 9f 8c 3d e6 01 23 bd 03 8a 54 bd
       -0.02473614 0.068663746 -0.039796732 -0.05188943
000260 a9 21 6f 3d 38 06 95 bd c3 1e 24 3c 81 16 e0 3c
       0.05838171 -0.07276577 0.0100171 0.02735448
000270 16 95 61 3d 7a 8c 4d bc 65 a5 9a bd cf d8 bd 3d
       0.05507382 -0.012545699 -0.07551078 0.092698686
000280 1d 10 db b7 6d bf e3 3c 0f 82 9f 2f 8b 85 2f bd
       -2.6114338e-05 0.02780124 2.9014344e-10 -0.042851966
000290 92 5e bb bd 9b bc 95 3d 60 e5 bf bd 85 d4 4e bd
       -0.09148897 0.07311364 -0.09369922 -0.050495643
0002a0 89 de 65 3d d8 79 53 39 27 04 ec b1 00 92 59 bd
       0.05612043 0.00020167918 -6.868976e-09 -0.053117752
0002b0 4d 16 bc bd cf 9b 18 bb 71 7c e3 3c 2e 8c 84 3c
       -0.09183941 -0.0023286229 0.0277693 0.016180124
0002c0 13 5a ab 3c f3 b0 87 3d 8b 74 b1 37 cf cb 20 ba
       0.020916974 0.06625547 2.1154314e-05 -0.00061338855
0002d0 c9 4b 46 bd c8 ce d9 b0 0d fa c3 3c a6 9f 9e 3b
       -0.048412118 -1.5847599e-09 0.023922944 0.004840809
0002e0 ed 24 88 3d 2a 4a a5 3d 21 59 88 3c ca ff a9 bd
       0.06647668 0.08070786 0.016644062 -0.08300741
0002f0 2a fa aa bc 7d eb a1 3c 55 7b 93 3d 85 fd 65 b1
       -0.02087124 0.01976561 0.07201258 -3.3467995e-09
000300 b4 66 2b bd 9f f5 30 3c 8b bd ac 2e ac 11 c2 bc
       -0.041845992 0.010800748 7.855324e-11 -0.023690067
000310 ca b3 a1 3d 6a a7 97 32 d8 9c c2 3d 2a 48 3d bc
       0.0789562 1.7654845e-08 0.09502572 -0.01155285
000320 dd 0e 49 3d fd 85 8f 30 cf 8d 85 bc 39 e1 7b 3d
       0.04908644 1.0442701e-09 -0.016302971 0.061494086
000330 7f 93 9b bd fa a9 98 b3 7e 6b 03 3b 5b 4a c7 b8
       -0.07596492 -7.10897e-08 0.0020053084 -9.502909e-05
000340 40 9f 11 bd c7 02 88 bb e7 b5 4a 3d 40 4c 1a 35
       -0.035552263 -0.0041507217 0.04948988 5.748043e-07
000350 9a bf 90 bc 97 8b 73 bc 2b 9c 75 bd 90 b9 33 3d
       -0.017669488 -0.014864824 -0.059963387 0.043878138
000360 40 af ac bd 15 3f a4 bc f2 4b 1e 3a b8 2f ab 3d
       -0.08431864 -0.020049611 0.00060385384 0.08358711
000370 47 8a 90 bd 1d 4b 04 39 8d 0f 62 bd 99 a7 6c 3d
       -0.07057624 0.00012616483 -0.05519061 0.05777702
000380 d4 67 7c 3d 4c 99 35 3d b7 88 b4 bc e5 66 83 bd
       0.061622456 0.04433565 -0.022037847 -0.0641611
000390 b4 53 1e bd 39 53 33 bc 2c 56 c2 3c 9a b6 39 b9
       -0.038654044 -0.010945135 0.02372273 -0.00017710999
0003a0 26 b4 9d 3d 99 d4 b2 bd 11 81 44 38 e1 4d 99 bd
       0.07700376 -0.08731956 4.6850244e-05 -0.07485557
0003b0 85 d7 b3 bd a0 6f 6a bd fe bd 4b 36 2d ae ac bd
       -0.087813415 -0.05723536 3.0359947e-06 -0.08431659
0003c0 69 84 b7 b7 dc a6 b8 bc db b5 0f bd 4a 86 9f 3d
       -2.1876958e-05 -0.022540502 -0.03508554 0.077892855
0003d0 f8 ba 7b bc 38 09 b8 bd 96 f5 59 3d 8f 6c c2 bd
       -0.015364401 -0.08986133 0.053212725 -0.09493362
0003e0 2e 63 22 33 07 2d 82 bd 9c 84 f2 3c 5f 7e 52 3c
       3.7808768e-08 -0.063562445 0.029604249 0.012847512
0003f0 c9 8e 12 b7 45 a2 e3 bb d3 9b 67 bd df a6 5e bd
       -8.735523e-06 -0.0069468343 -0.05654509 -0.05435836

lstm.weight_hh_l0 f4 [200, 50]
000000 7a eb 2b 3a 7e 0b 73 bc 2a 36 1e 3d 29 43 68 3d
       0.0006558221 -0.014834283 0.038625874 0.056704674
000010 99 21 ce bc 35 9f f3 39 a8 5f b8 3d dd 4d 6e bc
       -0.025162505 0.0004646719 0.0900262 -0.014544931
000020 d6 c4 b8 3c 48 7a 4f 3a 46 bf 5a 3d 79 a6 f8 3c
       0.022554796 0.00079146447 0.05340507 0.030352818
000030 89 85 81 3c 32 1c 26 3d 85 5b 07 3d e0 7b 79 3d
       0.015810745 0.040554233 0.033046264 0.060909152
000040 ab 8e 8f bd 2d e1 c4 bb 66 af 40 3d 96 ed ab bc
       -0.07009634 -0.0060082884 0.047042273 -0.020987313
000050 c2 13 83 34 e1 79 8b 3c 87 37 ba 3d d8 4c 93 38
       2.4415027e-07 0.01702589 0.09092622 7.0238195e-05
000060 bc d3 8c 3d d7 d1 b7 bd 1b d1 e3 bb c6 47 e9 3b
       0.068763226 -0.08975571 -0.0069524175 0.0071191518
000070 4b 20 2c bc ed 4a ba bd 42 0f 89 bc 61 20 9e 37
       -0.010505746 -0.09096322 -0.016730908 1.8850145e-05
000080 8c 1d 50 bc f7 7d c7 b2 50 43 42 3c b2 69 f6 bc
       -0.012702357 -2.3223931e-08 0.011856869 -0.030079696
000090 35 a0 ea 3c 46 ef 7e bc 8f c2 34 3c ec b0 15 39
       0.028640846 -0.015559977 0.0110327145 0.00014275656
0000a0 de b5 bb bd 5a 90 8e 33 a2 8a bb 3d ee 48 92 3d
       -0.09165548 6.638648e-08 0.091573015 0.071428165
0000b0 52 bc a1 bd d5 c5 1e bd ac bd 3c 3d d4 bf a0 3d
       -0.078972474 -0.038762886 0.046079323 0.07849088
0000c0 65 56 e3 bc a7 ee 06 bc 6a da 36 bd 06 33 ad 3d
       -0.027751157 -0.00823561 -0.04464189 0.084569976
0000d0 33 2c 5e 3c e3 82 fe 3d 43 6e 71 bd bb 02 d1 b4
       0.013560343 0.124273084 -0.058943044 -3.893127e-07
0000e0 64 a3 23 3d 24 1e 20 35 e2 14 6f 3b ae 6f a7 bc
       0.039950743 5.9648505e-07 0.0036480953 -0.020438995
0000f0 b3 97 d3 3d 26 b7 93 bd 5f 5e 9c 3d 41 a0 ca 3c
       0.10331669 -0.07212667 0.07635187 0.024734618
000100 6d 87 3b bd 93 ab ac bd d4 43 ad 3d 17 62 86 ba
       -0.04578345 -0.08431163 0.08460203 -0.0010252622
000110 9c 12 03 be 4e 62 dd 3d a5 49 93 3d ac 2e 5b 3d
       -0.12800068 0.10809766 0.07191781 0.053511307
000120 59 61 ab 3d 8f 1c 54 3d 77 8b bb bd 98 0f 8b 3c
       0.08368177 0.051785048 -0.0915746 0.01697521
000130 f3 30 b7 3d 9c bd 37 3d 56 75 3a 3d fd ae 91 bb
       0.08944883 0.04485856 0.045522057 -0.004445909
000140 b1 54 ec bd 83 3c 0b 3c 0d 76 9d bd cb cf 8c bd
       -0.11539591 0.008498314 -0.07688532 -0.06875571
000150 c4 80 cc bd 3a b8 a5 3c 12 08 f0 bc f0 42 e8 3c
       -0.099854976 0.020229448 -0.029300723 0.02835223
000160 5e b9 8e 3d b2 09 13 b1 96 cf 17 bb bd fe 14 3b
       0.0696895 -2.1396827e-09 -0.0023164502 0.0022734844
000170 1d 19 14 b5 5f 04 ff bc 0b 76 f8 bd 8d c6 9d 3d
       -5.517084e-07 -0.031130014 -0.1213189 0.07703886
000180 af 2e 86 3d 86 91 eb 38 f2 7e df 3a 1c d4 b7 3d
       0.06551873 0.00011232779 0.0017051382 0.089760035
000190 fe 5d 02 b5 33 73 45 bd eb 12 ae 3d 66 cd 3c bd
       -4.856555e-07 -0.048205566 0.08499702 -0.04609432
0001a0 61 71 a8 3d 7e 1d 31 37 9c 1a b9 32 7f 09 4e 3d
       0.0822475 1.0556889e-05 2.1548935e-08 0.050302025
0001b0 61 47 6e 3d 0c 15 03 3d a7 19 c7 b1 13 14 d2 bc
       0.05817354 0.032002494 -5.7945786e-09 -0.025644338
0001c0 9c a0 75 bd 53 f7 0a bd 54 af 28 3c 78 8d d8 3a
       -0.059967622 -0.033927273 0.010295708 0.0016521653
0001d0 32 49 96 3b ba b2 12 bc ec 1d a4 bd 67 e4 ee 3c
       0.0045863623 -0.008953745 -0.0801352 0.029161645
0001e0 f1 ae bb bb 89 c8 59 bc 90 99 be 3d 27 84 f3 bc
       -0.0057276418 -0.01329244 0.093066335 -0.029726101
0001f0 b6 63 31 3c 61 7e c8 3c 0f d3 08 3d 30 0b 7e bd
       0.010826996 0.024474325 0.033404406 -0.062022388
000200 ef 25 8c 2e 5d 02 a8 bc d0 2b 78 3d 2c e9 9f 3d
       6.373201e-11 -0.02050894 0.060588658 0.07808146
000210 9a 69 75 3d 72 66 a7 3d 59 c6 71 bd 74 e0 00 bc
       0.059915163 0.08173837 -0.05902705 -0.007866014
000220 72 cd 08 35 35 a1 d0 bc 1c 44 14 3d f1 06 16 bd
       5.096291e-07 -0.025467495 0.036197767 -0.036627714
000230 9f 87 e0 bc ce ed 13 bd 33 2c 85 3d 3b b2 44 3d
       -0.02740842 -0.03611546 0.06502571 0.048021536
000240 eb 96 3c bd 14 9f fd 3c ca 52 2f 30 00 eb 0c 3d
       -0.046042364 0.030959643 6.378228e-10 0.0344038
000250 bb ec 00 b4 4d 0a 8b 3d 24 1c 1d bb 39 3c 21 3d
       -1.2007051e-07 0.06789074 -0.0023973072 0.039364073
000260 5f cf bb bd 0c 52 cb b4 a5 0a 36 bd 8e cd a7 3d
       -0.09170412 -3.7871393e-07 -0.044443745 0.08193503
000270 69 01 9c bc f6 de ba b9 61 3d c2 3d 9b 55 b0 3d
       -0.019043641 -0.00035642803 0.09484363 0.08610078
000280 1d 04 3f bd de a1 b0 bd 02 8e 69 3d 70 4c 92 3d
       -0.046634782 -0.08624624 0.057020195 0.071434855
000290 cd c9 d3 3c b1 ab ba 31 11 37 9c 3d 9e 39 f2 34
       0.025853062 5.4328315e-09 0.076276906 4.5117935e-07
0002a0 84 da a5 bc 50 09 00 3b 69 60 fd b8 c8 98 a6 bd
       -0.020245798 0.00195368 -0.00012081938 -0.081346095
0002b0 69 42 09 3d 53 2b 01 34 06 d2 06 32 30 fc c5 bc
       0.0335106 1.2029822e-07 7.84758e-09 -0.024168104
0002c0 11 f7 d4 bc 96 03 05 3c 62 68 c3 3c 80 2c 05 3d
       -0.025996717 0.008118531 0.023853485 0.03251314
0002d0 8b a6 c8 3c 5f be 11 bd dc bf b8 3d fc 65 3d bc
       0.024493476 -0.035581943 0.09020969 -0.0115599595
0002e0 73 bf 15 bd 20 57 6a 3c 99 64 32 35 67 d2 df bc
       -0.036559533 0.014302999 6.6456556e-07 -0.027322007
0002f0 3b ea 42 bd 01 c0 bf bd 8f 4c 90 bd 32 3d a7 bd
       -0.04758666 -0.09362794 -0.070458524 -0.08165969
000300 27 c8 52 bd ca 3c c2 bd 80 a0 49 b8 32 9f 1d b2
       -0.05146041 -0.09484251 -4.807161e-05 -9.1748e-09
000310 e3 3a 3f 3d 87 ea bd bd 6f fa d8 bc 99 6f bf bd
       0.046687018 -0.09273248 -0.026486604 -0.093474574
000320 3f 65 cb bc c7 6e e9 b6 d7 62 a8 bd a0 6f 26 3c
       -0.024828551 -6.9568373e-06 -0.08221977 0.010158449
000330 7b 85 73 bd 0f 0d 2e bd 89 53 b2 bc e8 5e 4e 3d
       -0.05945347 -0.042492922 -0.021768348 0.05038348
000340 1d 63 4f 3c 32 5d a4 bc 3c b1 1f bd ab 6f ab bd
       0.012657908 -0.02006397 -0.038987383 -0.08370908
000350 d9 96 01 3c ce 28 75 3d fa c1 8c 39 13 9c b2 bd
       0.0079095 0.059853368 0.00026847405 -0.08721175
000360 34 45 2a 3c 2d ee fd bc f8 80 ad bc 54 ed 25 3d
       0.010392476 -0.03099736 -0.021179661 0.040509537
000370 f2 c0 17 3d 04 78 14 bc 84 04 20 b3 6d aa 3d bd
       0.03704924 -0.009061817 -3.725701e-08 -0.04630511
000380 fe 2b a1 bd fe b3 49 bd 4c 0d 14 3d 7f 2a 29 39
       -0.07869719 -0.04924392 0.036145493 0.00016132927
000390 ac f0 4f bb 75 ff bb 3c 82 ed 19 bd f5 a0 bc bb
       -0.0031729145 0.02294896 -0.03758002 -0.0057564923
0003a0 c0 24 b3 bd a8 97 24 3c 0f dd d0 3b a9 b2 e5 bc
       -0.08747244 0.010045923 0.0063740085 -0.028039293
0003b0 21 b4 91 3d 70 ac 5e bc 48 00 e5 2f eb 8a 39 bd
       0.07114435 -0.013590917 4.1655057e-10 -0.045298498
0003c0 ea 94 95 bb 9b ac 81 2f a6 53 18 3c 76 31 be bd
       -0.004564871 2.3587607e-10 0.009297287 -0.09286778
0003d0 32 b4 55 3d d0 df 11 bd 6c 59 82 bd d2 36 02 bc
       0.0521738 -0.035613835 -0.06364712 -0.0079476405
0003e0 0c 11 01 b4 be 2c ae bd 13 a2 06 32 60 dd 50 bb
       -1.2020263e-07 -0.08504628 7.836678e-09 -0.003187023
0003f0 08 bd 36 3a 34 f8 70 b1 c8 05 3d 32 bb 4b 9c 3b
       0.0006970917 -3.5065684e-09 1.1002562e-08 0.00476977

lstm.bias_ih_l0 f4 [200]
000000 5a 89 a2 bd 6b 9f 35 3d c2 ae 8a 3d 9a e0 b4 3c
       -0.07936354 0.044341486 0.06771614 0.022079755
000010 11 da e3 bc 2d a7 98 3d 96 db bf bd 1d a1 94 3d
       -0.027813943 0.07453761 -0.093680546 0.072572924
000020 86 ef 5d bc ed a9 af 39 12 15 16 ba 03 3b 4d bc
       -0.013545876 0.00033505206 -0.00057251856 -0.0125262765
000030 11 03 d7 bc 7b 39 7a 3b 2a b7 fa 3c 1f c4 c7 36
       -0.02624658 0.0038181234 0.030604918 5.9534937e-06
000040 20 99 bd 3d 48 a3 28 35 28 af b6 bd 02 3a a0 bd
       0.09257722 6.282248e-07 -0.08920127 -0.07823564
000050 59 9e 7f 3d ee 04 98 bd e6 a8 f4 3c b8 2f 22 bd
       0.06240687 -0.07422815 0.029865693 -0.03959629
000060 86 d3 4e bd 8e fb 97 39 66 4b 80 3d 10 a0 fd bd
       -0.050494693 0.00028988387 0.06264381 -0.12384045
000070 eb 37 49 3d 50 5b c1 bd b6 3b c1 ba a2 f1 d4 bb
       0.049125593 -0.094412446 -0.0014742527 -0.0064985314
000080 31 40 65 bd b6 63 84 bd e7 a4 a0 bc 7d 64 8b bd
       -0.05596942 -0.06464331 -0.019609882 -0.06806276
000090 d7 af ba 3b b1 40 4f bd 6b 38 ce bc 05 fa ee bc
       0.0056972313 -0.050598804 -0.025173387 -0.029171953
0000a0 33 44 f1 3b 5b 24 de bb 9d 0c 21 3d 82 0a 30 3d
       0.0073628663 -0.0067792363 0.03931867 0.04297877
0000b0 a4 fa 73 bd 5d 2e 05 ba 04 d9 c1 bd 0d 07 5c 3d
       -0.0595652 -0.0005080456 -0.094652206 0.05371766
0000c0 66 9f 10 bb 94 b5 95 3b eb 58 2c 3c 50 20 a3 3d
       -0.0022067665 0.004568765 0.010519247 0.079651475
0000d0 7b 80 31 35 8d 77 e3 bc da fe b2 3d 9a d8 dc b3
       6.61246e-07 -0.027766967 0.08740015 -1.0283948e-07
0000e0 2a e1 5d 3a 50 93 2c b5 4f ae 05 bd d2 e8 1e 3d
       0.0008464033 -6.428936e-07 -0.032636937 0.038796254
0000f0 e3 a3 92 bd f3 23 63 3d 1f 4e e3 3c 8f 06 47 3d
       -0.07160165 0.055454206 0.027747212 0.04859024
000100 6e c0 63 bd 8b 52 61 3d 96 6e ad 3d 4d 80 47 3b
       -0.055603437 0.05501036 0.08468358 0.0030441463
000110 18 c3 be bd 6c fc c1 3b 2c bd 40 38 da de 9f bd
       -0.09314555 0.0059199836 4.5952547e-05 -0.078061774
000120 a5 fd cb 32 73 bf 2d bc 37 ac a8 bd de 36 45 3d
       2.3747655e-08 -0.010604727 -0.082359724 0.04814803
000130 21 a1 a2 3b 1e ce a8 bc 09 f3 a8 3d b6 53 8c 32
       0.0049630557 -0.020606097 0.0824948 1.6336212e-08
000140 d8 73 0a 3c e5 12 9a 37 c2 73 92 bd 72 65 a5 bc
       0.008450471 1.8367029e-05 -0.07150985 -0.020189974
000150 32 6b 83 38 d4 e2 6d bc 94 38 02 3d 8e 7c aa b1
       6.2665335e-05 -0.014519412 0.03179224 -4.9618114e-09
000160 34 58 fa 3a f0 c8 b9 3d 2d ca ab bc 51 63 82 b8
       0.0019099773 0.09071529 -0.020970428 -6.217382e-05
000170 c3 08 24 bd 22 f2 9f bd 6c d9 13 3d 0b 73 66 3d
       -0.04004742 -0.07809855 0.03609602 0.056262057
000180 41 74 3a 3c 4f 6b 87 bd d9 0b 44 3d ff 80 aa bd
       0.011380256 -0.06612264 0.04786286 -0.08325385
000190 11 38 60 bd aa a3 a9 3d 96 20 c8 bc a0 3f 03 bd
       -0.05474097 0.082831696 -0.0244296 -0.0320431
0001a0 c5 86 9f bc 35 56 dc bc f2 4a cd 3b fa a0 05 bd
       -0.019473443 -0.026896575 0.0062650377 -0.032624222
0001b0 fa 7c be bd 37 52 04 bc 23 3e 23 b5 09 67 26 b3
       -0.09301181 -0.008076242 -6.081265e-07 -3.8743597e-08
0001c0 9c c1 49 3c f3 b7 01 be 55 2e d0 bb f5 2b 18 bd
       0.0123142265 -0.12667827 -0.0063531795 -0.037151296
0001d0 74 f3 62 bb 03 f0 16 bd dc 32 d4 b1 f6 28 51 ba
       -0.0034629973 -0.036849987 -6.175794e-09 -0.0007978821
0001e0 f9 38 ad bd 26 ec bb 3c f2 ff 11 3c bb c3 9d 3b
       -0.08458132 0.022939753 0.00891112 0.0048145927
0001f0 1b 07 7b 3c 5e 4c 33 b2 53 e5 93 3a 66 6c 0e be
       0.015321518 -1.0436535e-08 0.0011283554 -0.13908538
000200 0f 82 b7 3d 00 39 88 3d f2 cb 8e bc ed 91 94 3d
       0.089603536 0.06651497 -0.017431233 0.07254396
000210 6a 5c 08 bc db a4 94 3c c6 43 76 bc 38 1b 16 bd
       -0.0083228145 0.018145015 -0.015030807 -0.03664705
000220 7b 71 00 bd 2d 67 55 3d f9 6a 0d bc ca fb 86 bd
       -0.031358223 0.05210035 -0.008631461 -0.06590994
000230 65 bb 2e 37 e0 fb 35 bd 66 3f 3a bd f7 3a 15 bd
       1.0414839e-05 -0.04442966 -0.045470618 -0.036433186
000240 71 29 31 bd 61 b3 40 bd fe 62 7b 3c aa bc 53 bc
       -0.043252412 -0.04704607 0.015343426 -0.012923399
000250 22 a0 62 3b d9 7a 99 3d 03 ef 6a 3b 6e 11 be 3d
       0.003458031 0.074941345 0.0035848028 0.09280668
000260 1b fb 94 3d 83 6a fb bb 7a f7 d0 3c 67 4d b7 3d
       0.07274457 -0.0076726093 0.025508631 0.0895031
000270 38 d9 b2 bd 81 5a 3a bd eb d9 6a 3d 69 f0 f6 3c
       -0.087328374 -0.045496468 0.05733673 0.030143933
000280 e0 ec 14 3d 2a 7e d1 3c 71 43 1a bd ca 81 78 3c
       0.036358714 0.025572855 -0.037661973 0.015167663
000290 09 0e ef b3 ba d3 3e b2 48 77 a5 3d 33 56 9f 3d
       -1.1131858e-07 -1.1107597e-08 0.08079392 0.07780113
0002a0 ff f6 91 39 a4 78 31 bb 4f bc 33 bd 6c 11 4b 3d
       0.00027840582 -0.0027079964 -0.043880757 0.04957716
0002b0 14 3e b6 3d 60 16 fa bc fc 59 5c bd a9 f0 47 3d
       0.08898559 -0.030528247 -0.053796753 0.048813496
0002c0 34 5b 9e bd ee 6f aa 3d 0d 1c 9d 3c f0 27 9f 3d
       -0.07732239 0.0832213 0.019178415 0.07771289
0002d0 cd 0d 92 33 c8 50 f2 3b 1d 27 b1 bd 3c 0c 64 b9
       6.801165e-08 0.007394884 -0.086500384 -0.00021748332
0002e0 5b b0 78 3d 65 d4 8d bc cf a8 fd 3d 23 dc 2f b9
       0.06071506 -0.017313192 0.12385713 -0.00016771308
0002f0 72 33 f7 bc 9d f7 e9 bc 3d fc 84 bd 59 32 f9 3b
       -0.030175898 -0.028560454 -0.06493423 0.007604879
000300 8a 1a 12 bd ca 2b 9e 3c 45 a0 bc bb a2 49 17 3d
       -0.03566984 0.01930799 -0.0057564103 0.036935456
000310 9a ed 65 3d d6 c9 72 bd 6f a4 2a bd cd 99 52 3d
       0.056134798 -0.059274517 -0.041660722 0.051416207

lstm.bias_hh_l0 f4 [200]
000000 d1 34 bb bb 01 e8 e1 bd 93 b6 1e bd 39 b0 b6 bd
       -0.0057130833 -0.11030579 -0.038748335 -0.089203306
000010 25 c2 3a bd f1 58 b4 ac b4 7d 64 3d 64 b3 6b 3a
       -0.045595307 -5.125782e-12 0.055783942 0.000899127
000020 ea 1d fd b4 9c e5 95 39 0e 55 a8 bd ab 30 84 3d
       -4.7146688e-07 0.00028590567 -0.08219348 0.06454595
000030 e6 61 ba 3d 31 18 2a 3c 1b 9e e8 3d a5 1d bc 3d
       0.09100704 0.010381744 0.11358281 0.09185342
000040 20 86 65 36 72 35 10 bd 02 fa c4 3d e2 5c 2b b5
       3.420173e-06 -0.03520722 0.09617998 -6.3837626e-07
000050 37 e0 be ba 2a d4 23 bc cf 65 7c 38 ca bc d7 bc
       -0.0014562671 -0.009999314 6.01763e-05 -0.026335139
000060 31 2e 2e 3d 7f 43 80 bd 03 94 f1 33 b0 c3 0a be
       0.04252452 -0.06262874 1.124936e-07 -0.13551211
000070 d8 47 86 3c e8 27 d3 bc 41 7b b4 b3 10 ca 83 3d
       0.01639168 -0.025775865 -8.404323e-08 0.06435025
000080 48 27 1f 3a 78 c1 25 31 58 c4 90 3c 38 80 de b2
       0.0006071222 2.4120634e-09 0.017671749 -2.5902509e-08
000090 dc 2d 57 3d 82 28 01 34 ad 29 3e 3d 9d ad 4a 3d
       0.05253397 1.2028798e-07 0.046426464 0.049481977
0000a0 51 7b 48 b9 ff ed 93 3d 32 58 4b 3a b9 3a 71 3d
       -0.00019119425 0.072231285 0.00077569776 0.058893893
0000b0 91 b9 b2 bd 19 d1 b1 bd fd 15 bc 3b f6 16 01 3d
       -0.087268 -0.0868246 0.005739926 0.031516038
0000c0 ba 45 69 bc 25 4d 95 bb fc be 6f 3b 68 ef a3 3d
       -0.0142378155 -0.0045563155 0.0036582341 0.080046475
0000d0 32 55 1e 3b 94 1b b2 3d d2 28 a0 3d 08 59 02 3c
       0.0024159667 0.08696666 0.07820286 0.007955797
0000e0 cd c5 76 33 cb 3d ae bb c8 41 6a bd b5 44 14 3d
       5.7456237e-08 -0.005317425 -0.05719164 0.036198337
0000f0 77 82 01 34 2d b9 0d bd 23 01 84 bb 74 e5 20 bd
       1.2061524e-07 -0.034600426 -0.004028456 -0.039281324
000100 06 78 b8 b3 d7 ae 1b 3d f5 2a 8d 3d f8 8c a7 bd
       -8.59e-08 0.038008537 0.06892959 -0.081811845
000110 f4 bd 43 3a 71 4b 0d bd 7d 99 b8 bd b7 a0 15 3d
       0.0007466965 -0.034495775 -0.090136506 0.036530223
000120 08 51 8b 3d 10 30 97 3d 7e 54 9b 3d 4f 00 50 bc
       0.06802565 0.07382214 0.07584475 -0.012695386
000130 57 49 0d 3b eb 2e 3b 3c 6c 30 5c bd 72 2c a4 3d
       0.0021558607 0.01142476 -0.053757116 0.0801629
000140 7c 47 b5 bd f7 76 db 31 28 d2 1a bc 2a 99 b7 3c
       -0.08851525 6.3872636e-09 -0.009449519 0.022411902
000150 60 e4 82 3d f5 3f 27 b5 2f 68 ca bc 4a 3a 84 3d
       0.06391215 -6.230542e-07 -0.024707882 0.0645643
000160 06 32 bc bd ce 1e 33 b3 46 09 a7 bd 30 3a c7 31
       -0.09189229 -4.1704702e-08 -0.08156066 5.7982774e-09
000170 e7 84 70 3d 27 65 cb 3c f6 50 80 bd b8 87 ef bc
       0.058720496 0.024828507 -0.06265442 -0.02923952
000180 de a5 35 3c fb 06 33 bd f7 97 98 bd 75 36 87 3d
       0.011086909 -0.04370783 -0.0745086 0.06602184
000190 71 de e7 3b f4 5a 81 bd 44 4e ac bd a7 ef 3c 3c
       0.0070760776 -0.06316176 -0.084133655 0.011531747
0001a0 a9 c2 0d bc 0d 7b 07 bd e0 6a c0 3d 08 d7 ed 3c
       -0.008652368 -0.033076335 0.09395385 0.029033199
0001b0 3b 8f 81 3d 86 70 b1 39 e0 0f 6b 31 ff ef 47 bd
       0.06326147 0.00033843907 3.4206025e-09 -0.048812862
0001c0 91 f7 89 3d ba 4c 04 bd 6a 95 06 35 3b f4 bf 32
       0.06736673 -0.032299735 5.0136316e-07 2.234639e-08
0001d0 56 fd 7c 3d 93 84 72 3c d4 ce bd bd d7 2b e0 2f
       0.061765037 0.014802116 -0.09267965 4.0776513e-10
0001e0 60 aa 7b 3d b3 60 03 31 f7 44 96 3d 48 c9 a9 bc
       0.06144178 1.9117976e-09 0.07337373 -0.020725861
0001f0 71 6f 72 bd 95 1b a9 3d c9 d9 56 bc 1a 32 d2 3d
       -0.05918831 0.08257214 -0.013113447 0.10263462
000200 a8 f0 d5 3d ee bd 4b bd 1e 75 a6 bd 26 44 21 b7
       0.10446292 -0.049741678 -0.08127807 -9.612215e-06
000210 1f d5 15 bd 20 1b 71 3d 14 70 0d 3d da 97 98 3d
       -0.0365802 0.05886376 0.034530714 0.074508384
000220 6d 61 c3 bc f3 41 93 3a fd a1 76 b1 ef 2a 72 bd
       -0.023850167 0.0011234864 -3.5889791e-09 -0.059122976
000230 2e cc e4 bc 76 63 ca 3c 2d 16 e7 33 95 c7 a2 3d
       -0.027929392 0.02470563 1.07608095e-07 0.079482235
000240 56 7d cb 33 c3 4f f0 3b d5 13 58 3c de f2 50 bd
       9.4757226e-08 0.007333727 0.013188322 -0.051012866
000250 c6 8b 7b bd 94 b5 3b bd c0 76 5a bc 29 a7 1a 3c
       -0.061412595 -0.045827463 -0.013333976 0.009439268
000260 19 d4 26 bd 44 f8 a0 bd 03 aa ee bb ba 32 99 bd
       -0.040729616 -0.07859853 -0.0072834506 -0.074803784
000270 03 15 6b bb 23 5f b2 bd c2 c5 80 b7 bc cf 83 bd
       -0.0035870678 -0.08709552 -1.5350877e-05 -0.064361066
000280 93 85 f5 bd aa 9d cb 3d 20 1c bb 3d 3f 66 60 bd
       -0.11988368 0.099421814 0.09136224 -0.05478501
000290 ce 37 9c 39 31 cf 95 bd 2f 40 5e bd ae e6 f1 bd
       0.00029796216 -0.07314909 -0.05426043 -0.11811577
0002a0 c9 45 70 bd 46 56 ba 3d 5f 26 8f 3b 47 3f 5a 3d
       -0.058660302 0.090984866 0.004368588 0.053283002
0002b0 3f 79 22 bd ea e6 9c 3c 10 63 54 3c d3 5b 1d 3c
       -0.03966641 0.019153077 0.012963071 0.009604412
0002c0 ee cc 8e b2 dc 42 e0 bc dc b5 4b 3d d6 66 88 3d
       -1.6624167e-08 -0.027375631 0.04973398 0.066602394
0002d0 4f 61 91 ba 02 10 95 3d f2 1c 32 3a c3 b2 4b 3b
       -0.0011091622 0.07278444 0.00067944743 0.0031081892
0002e0 a7 30 59 3d b0 b2 64 b8 85 36 1c 3d a1 73 89 ba
       0.053024914 -5.452585e-05 0.03813793 -0.0010486731
0002f0 86 1c 92 bd 33 bd 15 b5 ae d7 b4 3b 2e 4d be 32
       -0.07134347 -5.5782147e-07 0.005518875 2.2154008e-08
000300 cf 13 3b 3b 14 5a 23 bb 49 8e 8a 3d 10 b4 99 bd
       0.0028545742 -0.0024925517 0.0676542 -0.07505047
000310 06 45 80 ad a6 59 a8 3a f7 be 5e 3c 71 bf 23 bc
       -1.4582568e-11 0.00128441 0.013595334 -0.009994374

lstm.weight_ih_l0_reverse f4 [200, 33]
000000 2f 18 81 3a c7 24 92 bd e4 b7 6d 3c e0 81 1a bc
       0.0009849126 -0.07135921 0.014509175 -0.009430379
000010 c9 af 5b 3d c9 d5 9e 3d 9e be a1 3d 98 e7 1f bd
       0.05363444 0.0775562 0.078976855 -0.039039224
000020 0f 33 cf 3c 3f 42 cc bc 3a 19 ae 39 5e 91 77 3c
       0.025292901 -0.024933932 0.00033206661 0.015110342
000030 d7 cb 9b bd e5 fb b2 bd ee e8 d7 33 eb be e2 36
       -0.07607239 -0.08739451 1.0054087e-07 6.7575506e-06
000040 ee 31 41 bd c9 81 e6 3c 80 90 38 3d c8 85 e6 b9
       -0.047166757 0.028138058 0.04505968 -0.00043968693
000050 a5 bf a8 bd e0 18 b2 3b 81 19 0f bd fe 69 17 35
       -0.08239678 0.0054350942 -0.03493643 5.640612e-07
000060 8a 30 fc ba df 46 04 3d 4c 6d b0 3b 75 07 5f bd
       -0.001924054 0.03229415 0.005384123 -0.05445047
000070 25 2b a2 bd 35 4d 06 bd f2 9e bd bd 08 0d 70 b0
       -0.079183854 -0.032788474 -0.09258832 -8.733001e-10
000080 2e 6a c0 bc fb a3 3f bc 54 56 a8 bd 91 76 90 3d
       -0.02348813 -0.011696811 -0.08219591 0.07053865
000090 8b 13 31 bd 78 7f 41 bc 3e 87 5f 3d 31 c9 c7 b9
       -0.04323153 -0.011810176 0.054572336 -0.00038106137
0000a0 9c 85 07 bb f0 29 e4 3c 50 f6 8d bc b2 5a 64 3d
       -0.0020679003 0.027852029 -0.017329365 0.055750556
0000b0 35 cd a0 32 7c c4 00 3d d4 17 3b b3 60 a9 c1 bc
       1.8719769e-08 0.031437382 -4.3561002e-08 -0.023640335
0000c0 c7 18 ce bc 58 d4 68 b2 53 03 b7 bb c5 34 34 3d
       -0.0251583 -1.3552459e-08 -0.005585113 0.043995637
0000d0 8b ca 2b 3d e4 29 07 bd ef a3 1d bd f4 15 e3 b9
       0.041941207 -0.032998934 -0.038486417 -0.0004331317
0000e0 ca 31 8a 3d 07 a8 f2 ae 60 cc 8b 3d 4b 77 f8 3b
       0.06747778 -1.10347335e-10 0.06826091 0.00758258
0000f0 7f b3 82 af 75 b5 8d bd 57 16 c5 b1 71 ac 4a bd
       -2.3774402e-10 -0.06919376 -5.7359943e-09 -0.04948086
000100 1e e4 fc bc fb ad f7 3c 51 53 23 bd 53 71 02 bd
       -0.030870494 0.030234328 -0.03987438 -0.031846356
000110 e1 79 89 3d b1 40 a3 bc 45 14 7a bd 61 27 a5 bb
       0.067127 -0.019928308 -0.061054487 -0.0050400947
000120 9a 9e 49 31 b8 d0 9b bd 3f 5f b7 bd b1 f6 9f bd
       2.9339504e-09 -0.07608169 -0.089537136 -0.078107245
000130 bf 64 3a 2f f1 a3 fb 33 0b d0 b1 bd b6 40 48 bd
       1.6952394e-10 1.1717919e-07 -0.08682259 -0.04888984
000140 ad cd c2 b0 b2 e9 a2 bd 6e 05 1b bd c2 09 5f bc
       -1.4173814e-09 -0.0795473 -0.037846975 -0.013613166
000150 47 f5 b8 bd 86 55 8d b9 dc c9 33 bc 5a 7e 23 3a
       -0.09031158 -0.00026957336 -0.01097342 0.00062367844
000160 9a 90 40 b2 cd 77 c9 3c a6 6f 02 bc 24 53 d1 bc
       -1.12087495e-08 0.024593258 -0.007961189 -0.02555234
000170 ab 91 2d bd c7 bf 95 3d 6e 56 77 bd 22 84 1e ba
       -0.042375248 0.07311969 -0.06038516 -0.0006046911
000180 a0 6d d6 bc b7 ad 03 3b 0d 0e 70 bd 20 74 57 bd
       -0.02617532 0.0020092556 -0.05860715 -0.05260098
000190 1c f6 47 3d 3c cf a5 bd 76 2c ba b0 db 46 fa 3b
       0.048818693 -0.080961674 -1.3545918e-09 0.007637841
0001a0 e1 3a be bd 8e 50 e4 3c f3 e7 19 bd e0 c3 2d b3
       -0.09288574 0.027870443 -0.03757472 -4.045785e-08
0001b0 32 3a b9 bd d0 57 24 3d 91 63 b6 3d 5e 3c c2 3d
       -0.09044303 0.040122807 0.089057095 0.094841704
0001c0 9e 4f 06 bd d8 a5 d1 b9 7a a6 8f 3d c8 a0 4f b1
       -0.032790773 -0.0003998715 0.07014175 -3.0213858e-09
0001d0 f6 92 04 3d 3f 1b 7a 3d 6d 42 8a bd 99 a2 71 bd
       0.032366715 0.06106114 -0.06750951 -0.058992956
0001e0 09 1f 99 3d fe aa 71 bc 74 cc 3b bd b9 7a 2f 3c
       0.074766226 -0.01475024 -0.04584928 0.010710412
0001f0 4e 22 a2 b2 93 b4 47 bc 17 b2 6a bd 5c 12 33 3a
       -1.8874882e-08 -0.012189048 -0.057298746 0.0006831044
000200 7a 56 55 bb ef fe 78 bd 69 29 30 35 db b9 58 b7
       -0.0032552765 -0.06079 6.562537e-07 -1.2917876e-05
000210 30 89 af bd 44 06 67 3d 14 3f 9e bd 0b 05 26 b2
       -0.08571088 0.05640246 -0.07726875 -9.663618e-09
000220 9f 4a 93 39 a6 5f 81 bb c5 6d 3c bd 99 52 f1 ba
       0.00028093622 -0.0039481698 -0.046003122 -0.0018411457
000230 be 80 89 32 e1 78 0e b2 e6 bf 0c bb b5 7d c0 3c
       1.6007444e-08 -8.2929725e-09 -0.0021476685 0.023497442
000240 12 a0 f2 3b ad 76 ab bd 75 64 2a bd 26 e6 56 bc
       0.007404336 -0.08372245 -0.04159971 -0.013116395
000250 64 f6 4f 3b 14 98 f9 bc d4 4f 87 3d a4 7a be 3b
       0.0031732554 -0.030468024 0.06607023 0.0058129597
000260 fe 40 52 3d 9e 0d c5 3b de 76 25 3a 11 5d 37 3c
       0.051331513 0.006013586 0.0006311963 0.011191622
000270 1e 79 b6 bb e4 73 83 b1 a6 d3 9a ba 7d 44 8a 3d
       -0.0055686375 -3.825777e-09 -0.0011812344 0.06751344
000280 c9 3d 87 3c 8c b6 1e ba e1 51 8b 3d 84 dc 89 bd
       0.016508954 -0.0006054423 0.068027265 -0.06731513
000290 a3 f7 57 bd 83 89 ff bb b0 da c7 3c c5 96 27 3a
       -0.0527264 -0.007798375 0.02439627 0.0006393011
0002a0 63 50 d2 bc 4f a0 99 3d 65 f8 12 b1 b4 73 90 3c
       -0.025673097 0.075012796 -2.1386992e-09 0.017633297
0002b0 4a e6 c6 b8 7d ea 2a bb 9c e2 20 bb c2 c9 7b bd
       -9.4842704e-05 -0.0026079707 -0.0024549132 -0.061471708
0002c0 d4 69 ff 3c 29 c7 af bb 94 7c 17 3d ba ca 1d bd
       0.031178392 -0.005364318 0.03698404 -0.038523413
0002d0 c5 b7 7e bd 8e 70 1b bd 3d 0b c9 3a b7 3b db 3a
       -0.062186975 -0.037949137 0.0015338432 0.001672617
0002e0 b9 38 2c bd de 6e 6c 3d 06 05 4c 3d 9f 12 0d bc
       -0.042046282 0.05772292 0.04980948 -0.008610397
0002f0 a3 43 ba 3d 1e 89 5a bc 40 b5 a8 3d 11 8d a5 bd
       0.09094932 -0.013338355 0.08237696 -0.08083547
000300 0c 77 b1 3d 0b c9 a3 3d c6 4d 57 3c 4f b1 59 3d
       0.086652845 0.0799733 0.013141101 0.05314761
000310 0c 81 fb bc 3b 49 95 3d 93 57 5d 3c 44 77 de 3c
       -0.030701183 0.07289358 0.013509649 0.02715648
000320 e3 76 9e 3d 0c 73 9d bd b8 7e 6a 3c 53 b7 14 3a
       0.077375196 -0.07687959 0.014312439 0.00056730694
000330 6b a5 7c 3d 19 d6 11 3b 4b ec 53 34 0e 5b 7b 3d
       0.061681192 0.0022252856 1.9736869e-07 0.061366133
000340 96 b4 11 3d 80 a7 9b 3b e1 6d 30 bc 75 29 5c 3d
       0.03557261 0.004750192 -0.010768385 0.053750474
000350 e9 c4 b9 bc cc 0d a8 33 cd 7d ba 3d 08 56 c4 3c
       -0.022676902 7.825619e-08 0.09106026 0.023966804
000360 3a 0a be 39 c1 b4 c1 3d c5 1b df bb e6 6a 47 3d
       0.00036247243 0.09458304 -0.0068087303 0.04868593
000370 33 37 84 bc c8 a4 6e 3d 3b 59 13 3d 6b f9 cc ba
       -0.016139602 0.058262616 0.03597377 -0.0015638297
000380 60 e3 a8 bd 02 72 72 3d 24 80 c0 bd 72 86 34 b2
       -0.08246493 0.059190758 -0.09399441 -1.0507948e-08
000390 d9 e8 13 33 85 9c 94 bd b0 b6 39 b3 db 44 6e bd
       3.443788e-08 -0.07256416 -4.3239822e-08 -0.058171134
0003a0 02 34 21 bc 28 b9 b7 3d dc 50 92 37 b3 1d 85 3c
       -0.00983906 0.089708626 1.744221e-05 0.016249513
0003b0 8c c2 1b bd 16 29 b8 3c 79 29 a8 3d f3 f0 c3 31
       -0.03802733 0.022480529 0.08211035 5.7026397e-09
0003c0 7f 87 ca bc fa 21 c8 3c 71 7b 7b 3c d9 3a b9 bd
       -0.024722813 0.024430264 0.015349255 -0.090444274
0003d0 90 62 c8 bc 01 fd e1 ba 29 5f 0a bd 96 29 b3 bd
       -0.02446106 -0.0017241539 -0.033782158 -0.08748166
0003e0 4c fa d2 33 8d 7c 84 bc ca de 04 3a 72 bd 10 bc
       9.824416e-08 -0.016172672 0.00050685985 -0.00883423
0003f0 64 d8 89 3d 30 84 d0 b3 4b c0 4b 3b c0 e0 86 bd
       0.06730726 -9.7097995e-08 0.0031089957 -0.065858364

lstm.weight_hh_l0_reverse f4 [200, 50]
000000 34 98 3a b9 72 0a 42 3d f2 0d 63 3c bd b5 eb 3c
       -0.00017795042 0.047373243 0.013858305 0.028773183
000010 a8 8d da bb b1 73 54 3d 70 c6 a9 3d bc 07 61 3d
       -0.006669719 0.051868144 0.08289802 0.054939017
000020 2a 5d dc bc cd 65 c3 34 69 1a 88 bd 70 09 8f 38
       -0.026899893 3.639565e-07 -0.06645662 6.820529e-05
000030 02 23 0c 3c 4c 64 a0 3d 78 4c 92 bd c8 1e 1f 3c
       0.008553268 0.0783163 -0.071434915 0.009711929
000040 e6 34 84 3b 6e a9 0e bd d8 e9 b3 33 4a b2 23 bd
       0.0040346263 -0.03482955 8.377873e-08 -0.03996495
000050 b3 27 3c 3b 17 d4 90 bd 48 a1 92 bd f4 cc 91 bc
       0.0028710186 -0.07071703 -0.07159668 -0.017797925
000060 50 1e 5c bd 0d 8c 68 3d 95 c5 81 b7 1a c2 2c 3d
       -0.053739846 0.056774188 -1.5470005e-05 0.042177297
000070 19 d0 29 3b 50 2f 86 bd 99 3a 0d 3b 05 41 83 bc
       0.002591139 -0.06551993 0.002154982 -0.016022215
000080 7c 03 a4 b8 b5 55 81 3d 0b d0 b3 bd 22 f8 1f bd
       -7.8207784e-05 0.063151754 -0.087799154 -0.039054997
000090 b7 2a a7 bd 72 d7 56 bd 34 d6 8d bd d0 19 9e 3d
       -0.08162444 -0.05245156 -0.06925622 0.07719767
0000a0 e7 e3 5b bd af 38 09 3c 7b b8 fb 37 c0 de 10 3d
       -0.05368414 0.008375331 3.0007437e-05 0.03536868
0000b0 7d 39 b4 bd 24 15 a1 b0 41 db ad bd cb 11 51 3c
       -0.088000275 -1.17203e-09 -0.08489085 0.01276059
0000c0 bb e0 1e 3d 0b d7 86 bd ad e6 89 3d 9a 8a b6 3d
       0.03878854 -0.06583985 0.06733451 0.08913155
0000d0 a5 e6 3d bc c1 c7 f0 3b 79 01 af bd 84 ca 25 ba
       -0.0115906345 0.0073480313 -0.08545203 -0.00063244277
0000e0 8a 26 a3 b2 22 b7 e3 bc 30 ab 09 3c d4 d8 13 bd
       -1.8993223e-08 -0.027797285 0.008402631 -0.036095455
0000f0 c7 c1 e4 bc 2f 41 37 b1 06 ef 5b 3d b4 98 fe b6
       -0.027924431 -2.6667057e-09 0.053694747 -7.587567e-06
000100 20 0f b6 3c e0 98 a3 bb 00 70 0d 3d 56 0e 59 bc
       0.022224009 -0.0049925894 0.03453064 -0.013248047
000110 a3 43 43 3d 2d 04 62 b9 71 62 be 3d 96 fe 2a b5
       0.047671925 -0.00021554595 0.0929612 -6.3700406e-07
000120 c3 1a 70 36 b3 f8 5b 3d 81 4b a7 bb c2 86 91 3d
       3.5778364e-06 0.053703975 -0.0051054363 0.07105781
000130 b1 54 d7 bc 87 2d 3a b1 fd 40 28 bd 82 b8 c4 3c
       -0.026285501 -2.7092442e-09 -0.041077603 0.024013761
000140 8f a9 7f 3d 80 e1 d8 b2 73 7f 08 b6 0c 96 31 3a
       0.062417563 -2.5248255e-08 -2.0339764e-06 0.0006774373
000150 3f 77 f6 35 0d 0a eb b3 5b 28 3c 3d 21 8f a8 bc
       1.8363133e-06 -1.09448685e-07 0.045936923 -0.020576062
000160 a5 25 12 bd b0 ee 20 3c ec 63 d0 3a 4d 53 27 3d
       -0.035680432 0.009822533 0.001589892 0.040850926
000170 b5 ae 0c bd 77 f1 85 30 ef b3 92 ba 6d 82 47 3c
       -0.0343463 9.745652e-10 -0.001119254 0.012177092
000180 c5 99 97 3c a2 f1 86 3a f6 4c 37 bd d9 db b6 bd
       0.01850594 0.0010295401 -0.04475113 -0.08928651
000190 8d b9 31 b2 da 53 2b bd 4d 22 02 3d 1e 5d 80 bd
       -1.0344945e-08 -0.041828014 0.031770993 -0.06267761
0001a0 1d 69 f7 31 50 b3 d3 bc 1a cf 0f bd 3f b2 4b 3a
       7.200596e-09 -0.025842339 -0.035109617 0.0007770396
0001b0 c5 9d aa ba c3 12 3e 3b eb d5 11 bd 85 d6 1e bb
       -0.001301699 0.0029002882 -0.0356044 -0.002423675
0001c0 be 91 19 bd 43 97 44 bc bd 90 12 3d 9d 1d 9b 3d
       -0.037492506 -0.011998954 0.035782564 0.07574008
0001d0 01 93 73 3d 23 53 3b bd 9e 5e 3c bd d0 76 7e bc
       0.059466366 -0.045733582 -0.04598867 -0.015531257
0001e0 a6 e3 10 3a 69 47 4f bd 34 57 a0 bb 22 e8 40 3a
       0.00055270863 -0.05060521 -0.004893208 0.0007358809
0001f0 bb af 91 3d 94 44 42 bd 13 32 99 3d e3 8c 54 3d
       0.07113596 -0.047428682 0.07480254 0.051892173
000200 2a 22 0a 3b 99 a9 71 bd 67 59 fd b4 3d c1 9b 3c
       0.0021077492 -0.05899963 -4.718997e-07 0.019013042
000210 4c ea 11 bc c8 2b 7a bd 73 15 ea 3b 98 06 c1 bd
       -0.008905958 -0.06107691 0.00714367 -0.09425086
000220 0f 6f 7e 3d 36 59 ec 2f b1 6b 12 bd 10 56 de bc
       0.062117632 4.2991538e-10 -0.035747234 -0.027140647
000230 8c 4c c2 bc 54 40 a7 b0 74 44 2e 3d df 85 30 3d
       -0.023718141 -1.2169132e-09 0.04254575 0.04309642
000240 3f 5f 42 3b 45 1e 7e 3a 44 73 50 3d 4d 47 ac 3d
       0.0029658822 0.00096938416 0.050891176 0.08412037
000250 13 fa 4a 3d fa 75 87 3d 95 26 34 bd 23 31 9b bd
       0.049554896 0.06614299 -0.043982107 -0.075777315
000260 99 90 82 bd 38 e5 da b9 c3 25 ca 3b 8c 64 47 bd
       -0.06375236 -0.00041750981 0.0061690523 -0.048679873
000270 25 5d cc bc 7a a5 8b bd 21 06 7f 3d 20 ca 63 bd
       -0.024946759 -0.068186715 0.062261704 -0.055612683
000280 c4 f2 26 3c be bf af bd 05 4d 41 30 6b 1a 94 bd
       0.010189716 -0.08581494 7.032244e-10 -0.07231601
000290 ef e9 2b bb 92 9f 09 ba 7d 20 c6 bc 28 66 bc 3d
       -0.0026231965 -0.0005249913 -0.024185413 0.09199172
0002a0 aa 8e 43 bd 7a 41 df b9 8c 67 2f 33 9a f9 4a 3d
       -0.047743477 -0.00042582658 4.0839538e-08 0.049554445
0002b0 3e 35 92 bd 8a 31 63 bd 12 a2 ee 31 34 49 aa 3b
       -0.071390614 -0.055467166 6.945137e-09 0.005196715
0002c0 29 68 da b3 5a 9d cb 3a 5d 94 06 3c 4a 92 91 3d
       -1.0170363e-07 0.0015534565 0.0082140835 0.071079805
0002d0 79 a6 59 3d 9a d6 80 bc 13 1a bc bd da b3 4a bd
       0.053137276 -0.01572733 -0.09184661 -0.049487926
0002e0 ca b2 02 bd a6 dd d6 3a 94 48 56 3d 78 24 a6 3d
       -0.031908788 0.0016392961 0.05231531 0.081124246
0002f0 8a 93 d1 3c eb 36 65 39 86 66 95 bc 39 31 80 39
       0.025583047 0.000218596 -0.018237364 0.00024450736
000300 f8 7c 10 3d ad f0 7c 3b 38 21 4a 3d 1d c3 19 3d
       0.03527543 0.0038595602 0.049348086 0.03753959
000310 8f ef c2 3c 99 01 1b 3c 9b a7 2e 33 e5 2a a1 3b
       0.023795871 0.00946083 4.066497e-08 0.0049184435
000320 c7 f6 80 bd 6c 4e 0f 3d b0 db 50 bd 34 32 70 3d
       -0.06297069 0.0349869 -0.05099076 0.058641627
000330 27 21 dd bc fb 33 19 bd b2 3f ac 3a 07 48 91 bc
       -0.026993347 -0.037403088 0.0013141541 -0.01773454
000340 70 98 94 36 8c cf a9 33 a2 53 83 bb 81 bb 80 b8
       4.42849e-06 7.907428e-08 -0.0040077725 -6.138441e-05
000350 8d 06 86 bb 84 98 1a bd c1 5f e8 3c e7 8c 00 bd
       -0.0040901364 -0.037743106 0.028365972 -0.031384375
000360 a9 10 09 3d 3e ff 80 b8 63 3b 86 bd ab bf 3e bc
       0.033463154 -6.151058e-05 -0.06554296 -0.011642377
000370 2f a5 41 bd f7 02 01 3c b2 17 77 bd 1f 08 53 3a
       -0.047276672 0.007874242 -0.060325332 0.00080502214
000380 8b 77 3d 3d d6 e8 ea 3c 94 e2 f7 3c a6 bf ac 3d
       0.046256583 0.028675478 0.030259408 0.084349915
000390 32 0f 50 b9 90 f7 40 3d d8 73 65 3d c2 77 98 bd
       -0.00019842086 0.047111094 0.05601868 -0.07444717
0003a0 c9 13 a7 bd 5d 29 ff 39 06 89 84 3d e7 39 b8 bd
       -0.081580706 0.00048668208 0.06471448 -0.08995419
0003b0 18 f2 f4 af e6 cc 7a bd 64 5b 68 b2 13 7d 13 bc
       -4.455536e-10 -0.061230563 -1.3524957e-08 -0.009001988
0003c0 4c e6 29 bd 64 dd c1 bd 01 42 30 3d 4a b5 57 3d
       -0.041479394 -0.09466055 0.043031696 0.052663125
0003d0 77 cf 01 bc df 9c 28 3d 25 5f b3 3c 4f 94 f8 bb
       -0.007922999 0.04116523 0.021895954 -0.007586039
0003e0 cb 0e b7 32 7d fe ad 3d 93 69 28 bd ed 16 9d 3c
       2.1310731e-08 0.084958054 -0.04111631 0.01917597
0003f0 cc b1 36 3d 38 1a a1 b9 23 38 55 bd 46 78 c9 3b
       0.044603154 -0.00030727847 -0.05205549 0.006148371

lstm.bias_ih_l0_reverse f4 [200]
000000 4f 66 a0 3d 96 69 3c bd 3b d1 9e 3d 4b f1 5a 3d
       0.07832014 -0.045999132 0.07754751 0.05345277
000010 cb 6c 86 3b 35 f6 95 bd 7c 8f 6f bd d6 31 43 bc
       0.0041023246 -0.07322351 -0.058486447 -0.011913737
000020 a8 d4 62 bd 4b 0c 96 3d 3d 6d a0 b1 9f 74 92 bb
       -0.055378586 0.073265634 -4.669032e-09 -0.0044694687
000030 40 ba 89 bd 57 96 98 3c 50 f7 95 3d de 25 20 3c
       -0.067249775 0.018626375 0.07322562 0.009774653
000040 27 b4 8e bd 4e f6 d5 3b dc 5a 79 3d 1d 67 f7 3d
       -0.06967955 0.006529606 0.060877666 0.12080214
000050 2f f3 a7 3b ea 92 ab 3d a2 94 8d bc e8 6e f2 3d
       0.0051254253 0.08377631 -0.017282788 0.1183756
000060 83 14 12 bd ef cd 67 3c 22 ea 92 bd b2 de 31 3d
       -0.035664093 0.0141482195 -0.071735635 0.04342527
000070 c1 24 3e 3c 0c 58 84 bd dd e2 12 30 47 bc 6f bd
       0.0116054425 -0.06462106 5.343688e-10 -0.058529165
000080 e4 86 96 3d 8a fd 2c bd 85 28 62 bd 60 9f 5f 3a
       0.07349947 -0.04223398 -0.055214424 0.00085305236
000090 cf 8a c4 bd c7 dc 9f bb f3 1a b6 3d 81 45 86 bd
       -0.09596788 -0.0048786136 0.08891859 -0.065562256
0000a0 e1 e6 4b bb 79 4c 5d 3c c7 14 51 b9 8b b9 86 3a
       -0.0031112956 0.013507002 -0.00019939533 0.0010278685
0000b0 5d 05 70 3d d7 ff 6a bd 88 f8 df bd 69 8a 2d 3d
       0.058598865 -0.057372894 -0.109360754 0.042368326
0000c0 5f dc 98 3a c8 f1 a1 3d a3 ff 11 bc a2 99 78 bd
       0.0011662355 0.07907444 -0.008911046 -0.06069339
0000d0 bc 7a 6a bc c9 24 c2 bd 7d 86 bf 31 d1 12 c1 3d
       -0.014311489 -0.094796725 5.574121e-09 0.09427417
0000e0 37 e2 d6 3c 95 55 49 3d 53 a6 1c bb 40 4b 0f 3c
       0.026230915 0.049153883 -0.0023902848 0.008745968
0000f0 9f 94 0c bc 8a 92 16 bd 9f 9b 4f 3c b0 ff 87 3d
       -0.008580356 -0.036760844 0.01267138 0.066405654
000100 17 48 ab 38 48 7b ee bc 27 f2 9e bd 5b d6 cf b8
       8.167343e-05 -0.02911152 -0.07761031 -9.910456e-05
000110 ef 31 98 bd 88 22 75 3d 35 ff 8b 3d f6 bf 4d 3d
       -0.07431399 0.059847385 0.06835786 0.050231896
000120 a8 85 30 b1 41 5e ce bc 8e bc 0c bd b6 82 9e b8
       -2.5687346e-09 -0.025191428 -0.034359507 -7.558374e-05
000130 a4 f2 0e 3c 02 fd 91 bb 44 0a de 3c 3d a3 d0 3b
       0.008724842 -0.0044552097 0.027104504 0.006367116
000140 7a 5d da 3a 7d 7f 5a 3c 69 d9 47 3c 09 37 91 3c
       0.0016659938 0.01333606 0.012197831 0.017726438
000150 c0 0b 29 3d 89 a7 bf 3d 1b af 14 3d 27 c1 11 bc
       0.04127097 0.09358127 0.036299806 -0.008896149
000160 a2 da 9a 3c eb 35 04 bd 71 38 80 3a 6b e9 d3 bd
       0.01890308 -0.032277983 0.0009782446 -0.10347255
000170 76 79 a3 3c bf 2b bb bd 9a e4 1d bd 6b 0b 73 3d
       0.019955378 -0.09139203 -0.03854809 0.05933706
000180 2c 2e 5a 3d 28 f0 99 bd fe a8 85 bc 97 85 68 3d
       0.05326669 -0.07516509 -0.016315933 0.056768026
000190 27 07 87 bd e8 39 c4 31 1f a5 30 bd cb 3b b4 3d
       -0.06593161 5.710934e-09 -0.04312622 0.08800467
0001a0 a4 43 40 bb 34 7f 32 af 3f 6d ef bc 7b a2 d3 bc
       -0.0029337192 -1.6234197e-10 -0.029226897 -0.025834313
0001b0 2b 1d 22 38 ff ae 86 3d 75 00 61 bd 13 cd d8 bb
       3.8650975e-05 0.065763466 -0.054932076 -0.0066162436
0001c0 97 75 07 b1 0d 0c 12 3e 8d 7f 3a bd b1 aa 5d bd
       -1.9711928e-09 0.1426241 -0.0455318 -0.054117862
0001d0 cf e4 c9 3d d7 f4 a1 37 c7 fe a2 3b 44 f9 91 bd
       0.09858095 1.9306708e-05 0.0049742195 -0.07127622
0001e0 0d d3 7f bd 6f 1e 94 b1 c0 83 61 37 53 fd fe 33
       -0.062457133 -4.310827e-09 1.34417205e-05 1.1873876e-07
0001f0 b3 aa b0 bb 19 d7 e2 ba a8 4c 74 3d e9 b7 15 3a
       -0.0053914427 -0.0017306536 0.059643418 0.00057113037
000200 d5 87 44 39 67 e1 be bd 91 80 0f 3c 35 ca 3c bc
       0.00018742618 -0.09320336 0.00875868 -0.011522819
000210 45 3f 8f 3d bd e1 e7 3d 21 92 a6 bd b7 cb e0 3c
       0.069944896 0.11322353 -0.081333406 0.027440889
000220 a7 cf 27 3d f5 59 08 bc fd 3f 8c 3c 47 57 30 3d
       0.040969517 -0.008322229 0.017120356 0.043051984
000230 88 c1 69 3d 29 aa 88 3d c4 b5 ae bb b8 1e 2d bc
       0.05706933 0.066730805 -0.0053317267 -0.010566406
000240 11 50 55 3d 55 5b 72 3d 73 31 c1 bd 4c c5 8f bd
       0.05207831 0.059169132 -0.0943326 -0.07020053
000250 5b a5 85 bd 94 88 5a 3d 1b b0 62 3b 64 40 ff bc
       -0.0652568 0.053352907 0.003458983 -0.031158634
000260 4b 77 21 3a 4b be 0f 32 86 01 ee 3a d6 82 65 bd
       0.00061594386 8.366963e-09 0.0018158413 -0.056032978
000270 51 66 a3 3c d2 0d 83 bd 75 b3 24 3b 79 9f 32 3d
       0.01994625 -0.063991204 0.0025131379 0.043609116
000280 a4 aa d5 3c 46 33 20 bd 2d 56 0f bc 98 2f a5 3d
       0.026082344 -0.0391114 -0.008748573 0.080657184
000290 f9 34 f5 bc bc f7 9e 3d ec 73 89 bd 29 bf 18 bd
       -0.029932486 0.07762095 -0.067115635 -0.03729168
0002a0 12 92 7d 31 16 4b e8 3c 1b ce 28 bc 3e f9 85 bb
       3.6899377e-09 0.028356116 -0.010303046 -0.00408855
0002b0 11 4b f9 3c c7 fc 40 3d a2 ea 6f 31 f9 45 92 38
       0.030431302 0.047116067 3.491245e-09 6.974856e-05
0002c0 9d 37 ad 3d a0 c6 9c 3c 90 9b 3d bc e3 fb f3 bd
       0.08457873 0.01913768 -0.0115727335 -0.11913278
0002d0 50 25 f0 bc e1 f2 d3 3b fb 37 b7 bd 65 55 a1 3b
       -0.029314667 0.0064681624 -0.08946224 0.00492351
0002e0 7b 32 41 bb e1 e0 b4 bd 4a c8 03 3d 15 59 cd 3c
       -0.0029479552 -0.08831955 0.032173432 0.025066892
0002f0 1a bc 9e 3d 4f b4 b9 bd c1 1b 5a bd 46 e6 5d 3d
       0.07750721 -0.09067594 -0.053249124 0.054174684
000300 1d b6 8d bd a7 ca ab 3d 00 75 7c 3d 64 98 e7 bb
       -0.06919501 0.08388262 0.061635017 -0.007067727
000310 ab eb 80 3d 41 91 31 3c 4b e0 01 bd ff e0 7b 33
       0.0629495 0.010837854 -0.031708043 5.8645124e-08
