src/model_checkpoint.pt (torch, 382867 bytes, 17 tensors)

lstm.weight_ih_l0 f4 [200, 33]
00000000: bb4f 562c 5363 47bc db17 b33c bd0a 12b7
00000010: ecd9 973a 7032 443d 70a9 99ba 6f71 a9bd
00000020: ce49 18b8 127f a9bd 5f69 283d 0f0f 85bd
00000030: 3ea7 6ebd 1a78 0dbd 99d7 8c3d 1e9e 2b26
00000040: 2d50 1324 0e6a 01bd a066 aa3d 0ada 69bc
00000050: 116d 3cbd 1106 1a3d a316 5e3c 2310 3eba
00000060: fc39 a53d c75e a2bd 0a2c 88bd b4ef adb7
00000070: 213d 173b 969f 793d c167 7dbd 13b9 dcba
00000080: 1437 793b 3d9d c239 210e 7ea7 411a f522
00000090: 3024 04bd 5fc7 c231 9633 2225 2a07 3ba1
000000a0: 42e3 bebc 0b0a 95bc d18c 843d 6d9e 8f3c
000000b0: 0562 65bd 321b 36bd 1e1f 9dbd da71 213c
000000c0: 2676 663d b629 483d 0a71 a73b e4ab 05bc
000000d0: a26c f1bb ecf1 943d f67d 05b4 5baf 0e39
000000e0: 7d83 a4bd c7e5 7ebd e12f 65ba e462 4f3d
000000f0: d0ab 81af cc6a 73bd 1456 66bc cf09 483c
00000100: d040 69bd 9f79 853d 0893 063d cd21 4eb5
00000110: a02c a3bd 0efc 7321 f4fa 88bd 2d9d d3bc
00000120: 414b 1f3c e967 70b6 5a30 46a2 434e 34bb
00000130: aaa7 bdbc 8491 b0a8 f433 c4b4 613e 5cbd
00000140: 5b2f 733b 622d 45bc 7cf9 21bd beb9 443d
00000150: 7ff4 1ebd 390f 713c 484c 8e3d c5b4 c93a
00000160: 6fb4 ffbc c43b 39bd 2e0d f93c 5eac 243b
00000170: d440 1824 2d42 a83d 0e3c a03d 449d c0bb
00000180: ab29 863d 7c4b 1a3d 42b5 1abd 8c26 a7bd
00000190: 1495 fc3c 5435 0fbb c9c2 9abd e860 223c
000001a0: fb68 f0bc b2f2 993d c94a 9a3d bedb 67bc
000001b0: 2240 903c 6aa7 983d df7b aa3c 1951 bf3c
000001c0: e530 9437 d7c8 9a3c 516d 8eb8 01ae 5bbd
000001d0: 8170 d2bc 8484 a639 db3a 29ba 14a7 16a3
000001e0: 605f c03c eef9 303c 8d86 403d ceaf 873c
000001f0: be38 febb 4f6c a137 257d 8a3d 9447 57ba
00000200: 89a6 a83d 83eb a33d e22a 753d 7584 473d
00000210: e82e 2c39 c673 98b8 9bc0 3d3d 7c3b 5caa
00000220: 400c 293c 2558 83bd 73c2 d73b 1336 213d
00000230: f7b9 6d2a a865 35bb 30b0 173b c530 6a3d
00000240: 26a5 183d 6014 9bb9 f771 15bd 6b2e 0a3d
00000250: 3db0 1ea7 69b1 5bbd a875 983d 569a 05bd
00000260: 5033 4622 f272 3a3d 6ea1 9fbc 8491 e533
00000270: 9fb9 553d f5e3 77bb d02b f83c 9293 c422
00000280: 5539 3dba b2bc 90bc 6cb1 0f3d c28d 90bb
00000290: 5014 febb 26e5 1bbc b76d 6f39 18d2 e03b
000002a0: 71fd f63c 9354 6836 6c6c 583d 741b 843a
000002b0: 78e3 9bbd aef1 9d3c f172 2b3d bead a33d
000002c0: 7c59 8bbc c60b 72bd 6325 6da3 3b53 86bc
000002d0: f497 cbb5 93a2 a5bc f8cf 5d3d a306 6a3d
000002e0: ef5d 94bc b7b2 b03c 3f6d c23a ab1a a43b
000002f0: 798f 54bb 0f04 2c3c 5b9a 963d 2e6b 613d
00000300: 8ae1 a1bd ab12 7fbd d633 0fbb 4e2c a4b0
00000310: 1c1a 9f3c 948d ebbc ef4b 03bb e8bf 01bb
00000320: ab79 64bd c5de 6f3d cdb4 013b 57ec 9cbc
00000330: c316 a73d 9e1c faba 68c1 af3a 43c3 a23c
00000340: af4d 603d 5925 04ba 6a3e 393d 9173 7ebc
00000350: 8a76 53bd 8e33 89bd 05c3 143d 2717 46bd
00000360: b417 2b3d 499d 213d 767f 4a3c 1af1 123d
00000370: a982 90ba 000e 0d3a e944 943d 6491 2fbd
00000380: d182 2f3d 786f 5a3b 749d 663b 836f a63c
00000390: 7f8c adbd e3dc 28bc 56ca 79bd 416d a23d
000003a0: cc10 783c ea83 babc d726 13bc 71c6 59bd
000003b0: 1ffe 5b3d 9ef4 6cb2 f025 28ba d73e a5bd
000003c0: 0317 ae3c 7361 20bc 9270 dd3b 729e 90bc
000003d0: 0c75 a13d 9a9a 50bc 2f7e a5bd 3161 c33a
000003e0: 3c0d 64bc 20c6 36bd aace a23c a988 6f3d
000003f0: 0fbe d63c 4cc0 873d df21 3e3d dcde 30a3
3.0455488e-12 -0.012169677 0.021861961 -8.704778e-06 0.0011585332 0.047899663 -0.001172347 -0.08273589
-3.630836e-05 -0.0827619 0.041116115 -0.06497013 -0.058264963 -0.034538366 0.068770595 5.954183e-16
3.1943455e-17 -0.031595282 0.083203554 -0.014273176 -0.04600245 0.03760344 0.013555202 -0.00072503294
0.080677 -0.079282336 -0.06649025 -2.0734828e-05 0.0023077207 0.06094321 -0.061866526 -0.0016839824
0.0038027214 0.00037119715 -3.525724e-15 6.643518e-18 -0.032261074 5.668809e-09 1.4068738e-16 -6.3367546e-19
-0.023301724 -0.018193265 0.06472171 0.017531598 -0.05600168 -0.04445953 -0.07671951 0.0098538045
0.05626502 0.048867904 0.005109911 -0.008158658 -0.0073676864 0.072727054 -1.2432415e-07 0.000136075
-0.08032892 -0.06223085 -0.0008742791 0.05063142 -2.3587043e-10 -0.05942802 -0.014058609 0.01220937
-0.056946576 0.06517338 0.032855064 -7.6790167e-07 -0.07967496 8.2665194e-19 -0.066884905 -0.025831783
0.009722532 -3.582327e-06 -2.68596e-18 -0.0027512468 -0.023151238 -1.9603033e-14 -3.6545646e-07 -0.053770427
0.0037107083 -0.012034746 -0.039544567 0.0480287 -0.03880739 0.014713102 0.06948143 0.0015388957
-0.031213967 -0.045223013 0.030401792 0.0025127153 3.3014658e-17 0.08215747 0.078239545 -0.0058781225
0.06550916 0.037669644 -0.037770517 -0.08161649 0.030832805 -0.0021851854 -0.075566836 0.0099108
-0.029346934 0.075169936 0.075337954 -0.014151512 0.017608706 0.07453807 0.02081102 0.0233541
1.7665743e-05 0.018894596 -6.7914494e-05 -0.05363274 -0.025688412 0.0003176072 -0.00064556085 -8.1668965e-18
0.023482978 0.010801775 0.047003318 0.016563322 -0.007758229 1.924313e-05 0.06762151 -0.0008212265
0.08234889 0.08003905 0.05985535 0.048710305 0.00016420672 -7.269489e-05 0.04632626 -1.9560563e-13
0.010317862 -0.064132966 0.0065844595 0.03935821 2.1114348e-13 -0.0027679 0.0023145787 0.057175416
0.037266873 -0.00029579084 -0.03648564 0.033735674 -2.2022444e-15 -0.05363599 0.07444316 -0.03261789
2.6861168e-18 0.045519777 -0.019486155 1.06901126e-07 0.052178975 -0.0037825082 0.030294329 5.3282153e-18
-0.0007218321 -0.017668102 0.035081312 -0.00441143 -0.0077538863 -0.009515082 0.00022833688 0.0068609826
0.030150147 3.4619923e-06 0.052837774 0.0010078982 -0.076117456 0.01928028 0.041857664 0.07992123
-0.017010443 -0.05909326 -1.2855713e-17 -0.01639711 -1.5168903e-06 -0.020219123 0.054153413 0.057135236
-0.018111197 0.021569593 0.0014833583 0.005008062 -0.003243415 0.0104990145 0.0735366 0.055033855
-0.07904346 -0.062273663 -0.0021850965 -1.1945163e-09 0.01942163 -0.028754033 -0.0020034274 -0.0019798223
-0.055780094 0.05856206 0.0019791604 -0.019155664 0.08158638 -0.0019082015 0.001340908 0.019868499
0.054761585 -0.00050409656 0.04522554 -0.015530483 -0.05162672 -0.066992864 0.036318798 -0.048361924
0.041770652 0.03945664 0.012359491 0.035874464 -0.0011025268 0.00053808093 0.07239706 -0.042863265
0.042849366 0.00333306 0.0035189064 0.020316845 -0.08474063 -0.01030657 -0.06098398 0.07930995
0.015140723 -0.02276798 -0.008981428 -0.053167764 0.053709146 -1.37926275e-08 -0.00064143445 -0.080686264
0.021251207 -0.009788859 0.006757804 -0.017653678 0.07883653 -0.012732172 -0.08080708 0.0014906285
-0.013919171 -0.04462254 0.019873936 0.05847994 0.026213674 0.066284746 0.04641902 -9.5881714e-18

lstm.weight_hh_l0 f4 [200, 50]
00000000: 108d 2ebd 0ccf 1239 f66a 0025 2779 023b
00000010: 7767 acbd a758 263d 22a7 ad3b 0317 1c3c
00000020: 31aa c539 4c92 7fbd a10f a2bd 602b 213d
00000030: 4aa4 fab9 9533 72bd e3fc 1d3d 161b 2db9
00000040: 78aa e7bc 79f8 f53c f88a 94bd 5123 aabb
00000050: aa85 5ebd 5b00 263d 27ff 443c fd17 033c
00000060: 8731 1b3a d378 b53c 900f 073c eed4 e43c
00000070: e901 77bd 7d66 3dbd 9780 44bd b5cb 21bb
00000080: cc31 4ebb 3f45 d434 84ec a0bb 13f6 24bd
00000090: 0b2b a5a7 112c aa3d b3bf aebb 2681 45a1
000000a0: 2d32 87a2 e8d2 93bd 14a5 4b3a 4b4c adbd
000000b0: f7f3 debc 2edf 3eb8 6c19 903d b9b4 bb3c
000000c0: 974a 3cbc 945f 63bd c9a3 863a 6e53 c0a8
000000d0: fe53 a3bb 6da1 52bd cd93 1739 7445 9c2c
000000e0: 1f9c 6b3d 202b d53b f75f 3d3d 81f2 4e3d
000000f0: 27c7 86bd 84ee 123d bc22 983d 6c38 2cba
00000100: 7312 c23c c1b2 b2bc db1e fe3a 5011 ae3c
00000110: 1736 9dbc e0bb df3c 6d06 11bd 7afa 4a3d
00000120: 6943 93bd 165b a223 2791 183d d174 4138
00000130: 43f3 1cb9 46b2 dc3b dcba 473d fb69 8cbd
00000140: 8b18 4fbd 8140 65bd f283 c13b ce56 76ba
00000150: 27b4 683d 4cc9 233d a98b 913d db0d a93d
00000160: 70e3 923a a806 ebbc 5602 0ebd 1ac0 f83c
00000170: a5ed 693d fbaf 92bc d3ba 393d a46f c43c
00000180: b5b6 67bb f03e 8ca1 7c17 aebc f3af 9dbd
00000190: a957 d9bc 5563 823d f7fe 4823 d40f 21bd
000001a0: 1c06 acbd 122d beba 93aa 4a3d 974b f2ba
000001b0: cae5 3138 77fb 2a3d 20c0 44a3 b76a 0abd
000001c0: 1346 55bd b0bb a2a4 6805 7e3d 5609 563d
000001d0: 671f 10bc bb7e 9e3d d7b1 8d3d 5b2f 6e3c
000001e0: e8cc 70bd 6e00 7dbd 32b0 b63c 211f 76bd
000001f0: 2636 59bc c3a1 d53c b60a 4d3a 3506 56b6
00000200: 4897 943d 9378 5a3a ca53 41b3 527b f3b3
00000210: 5029 543d 0b2c d4bb abd4 8abd 0086 78bc
00000220: bec0 023c 054b d63c 9720 3c3d b6ef 5f39
00000230: 7a17 b4bc 2efb 0dba a085 973c 8f9c 2abc
00000240: 6b56 fe3c fbf8 fbbc 5534 013b 228a af3b
00000250: 113b bebc ea9f 253b f501 8dbd 6b60 1ebd
00000260: d701 2f3a 3e47 c23c 11bb b13b e380 4723
00000270: 62dc f6bb 074f f1a5 2f9d 803d cd83 2f3d
00000280: 7fe1 3cbd 7f0c 30bc edae 84bc e7f3 64bb
00000290: 7a9f 2cbd c193 293c 408e 6ebd e0a0 f8bc
000002a0: ada3 50bd bb5f 6cb6 c8a7 0bbd 4605 5cbc
000002b0: 3df4 2320 558b 98bb a817 13bd f81a a3bd
000002c0: 439e 1db5 b424 9aa0 4f55 38bd a5cf 00bb
000002d0: eb90 45b8 98d6 013c 1625 2cb5 eb57 b4bb
000002e0: b398 00bd b93b 09a5 41d1 adba 42c3 1c3d
000002f0: a1cd 45bd ce7e 83bd 8999 623d f715 bdbb
00000300: e0c7 8e3c 42f3 7639 e815 163c 06d5 95bd
00000310: 93ee 3dba 72b5 68bd bf0d cf3c 3ecb 70ba
00000320: 9565 8fbd 99ec 97bc 5a82 a2ba 36e1 a7bb
00000330: 7f51 4ebd b0da 84b7 15a1 89bd d423 8b3d
00000340: 8839 9dbb 3dfd a8bd db40 663d f538 843d
00000350: fc95 77bd 7ff6 2d3c 981e aabd 50ac 483d
00000360: 370e db3b 5522 2e3c 233a fa39 2906 14bd
00000370: 4502 6a3d 4772 bd3c 9ce9 b5b3 6acb b53c
00000380: 27b6 00bd ba15 033d ef71 a23d 4682 4baa
00000390: c2c9 08bd f0a5 953a c6d4 03bd c97d 5c3d
000003a0: 6075 35bd ff94 8d3d 0231 c9bc 9e8b de37
000003b0: bdf0 56ae dc2e 97a6 d67a ad3d 7d9c 293d
000003c0: 12cf fabc 8cfb 253d f927 9a3d e510 8f3d
000003d0: 7390 13bc 25b0 663d 6116 d93c a593 983d
000003e0: b66f 44bb c8ef 4cbd 3313 863d 3be6 39bd
000003f0: 50e5 8dbd 1298 a2bd 7f83 52bd 0429 56bd
-0.042614996 0.00014000776 1.113847e-16 0.0019908638 -0.08418172 0.04061189 0.005299465 0.009526971
0.0003770157 -0.06239538 -0.07913137 0.039348006 -0.0004780612 -0.059131224 0.03857125 -0.00016508656
-0.028279528 0.030025708 -0.07253069 -0.0051921983 -0.05432669 0.040527683 0.012023724 0.008001325
0.0005920161 0.02215234 0.0082434565 0.027933564 -0.060304556 -0.04624032 -0.047974195 -0.002468807
-0.0031462787 3.953846e-07 -0.0049110074 -0.040273737 -4.5843367e-15 0.08309186 -0.005332911 -6.6917123e-19
-3.664495e-18 -0.072179615 0.0007768434 -0.08461817 -0.02721594 -4.5507382e-05 0.07036099 0.022913324
-0.011492393 -0.055511072 0.00102722 -2.1352464e-14 -0.004984378 -0.05142348 0.00014455542 4.4414975e-12
0.057521936 0.006505385 0.046234097 0.05052424 -0.06580954 0.035871997 0.074285 -0.0006569687
0.023690438 -0.021813752 0.0019387858 0.02124849 -0.019190831 0.027311265 -0.03540652 0.04955528
-0.07190592 1.7602652e-17 0.037247803 4.612358e-05 -0.00014967941 0.006735119 0.048762187 -0.06856152
-0.050560515 -0.05596972 0.0059056217 -0.000939709 0.05681243 0.039986894 0.07106716 0.08254596
0.0011206698 -0.028689697 -0.034670196 0.030365039 0.0571114 -0.01790618 0.045344185 0.023979016
-0.0035356705 -9.503428e-19 -0.021251433 -0.07699575 -0.026531057 0.06366602 1.0896013e-17 -0.039321736
-0.08399603 -0.0014509282 0.04947908 -0.0018485662 4.2414096e-05 0.04174372 -1.0665865e-17 -0.033793177
-0.05206878 -7.0574256e-17 0.062016875 0.052254997 -0.008796549 0.07739016 0.06918686 0.014537658
-0.058789164 -0.061767988 0.022300813 -0.06008828 -0.013257539 0.02607811 0.00078217254 -3.1892098e-06
0.07255417 0.0008334007 -4.501252e-08 -1.1338001e-07 0.05179721 -0.006474977 -0.067788444 -0.015168667
0.007980524 0.026158819 0.045929518 0.00021356237 -0.02198385 -0.0005416152 0.018496335 -0.010413303
0.031047067 -0.030758372 0.001971503 0.005357043 -0.023221524 0.0025272318 -0.06885139 -0.03866617
0.00066759944 0.023715612 0.0054239114 1.08151044e-17 -0.007533596 -4.1860387e-16 0.062799804 0.042850304
-0.046113487 -0.010745167 -0.016196692 -0.0034935416 -0.042144276 0.010350169 -0.05824113 -0.030350149
-0.050937343 -3.5222463e-06 -0.034095556 -0.013428992 1.3887449e-19 -0.0046552815 -0.035911232 -0.07964128
-5.871736e-07 -2.6112903e-19 -0.04500323 -0.0019655016 -4.7103425e-05 0.007924698 -6.412896e-07 -0.0055036447
-0.031395625 -1.190309e-16 -0.0013261215 0.03827215 -0.048291806 -0.064206704 0.055322204 -0.0057704407
0.017429292 0.00023551009 0.009160496 -0.073160216 -0.0007245328 -0.056813665 0.02527511 -0.0009185559
-0.07001797 -0.018545436 -0.0012398467 -0.005123283 -0.05037069 -1.583746e-05 -0.06720177 0.06793943
-0.004798118 -0.08251426 0.056214195 0.06456176 -0.06044577 0.010617851 -0.083066165 0.048992455
0.006685044 0.010628303 0.0004772703 -0.036138687 0.05713107 0.02312578 -8.4709626e-08 0.022191722
-0.031423714 0.032003142 0.07931887 -1.807522e-13 -0.033395536 0.0011417251 -0.03218534 0.053830896
-0.04430139 0.069131844 -0.024559502 2.6529477e-05 -4.8871785e-11 -1.0490431e-15 0.08470695 0.041409004
-0.030616317 0.040523097 0.075271554 0.06985644 -0.009006607 0.05632033 0.026499929 0.07450036
-0.0029973811 -0.05003336 0.06546631 -0.04538558 -0.069285035 -0.07939161 -0.051394936 -0.05228521

lstm.bias_ih_l0 f4 [200]
00000000: faab a13d 6cd5 15bc f5e9 ec22 a01e 79bd
00000010: 766b a13d 5e43 64bc 16d9 56bb 75ab 2fa4
00000020: 7465 cb3c ea23 b4bc 3216 4b3a ccf6 af22
00000030: 7284 dcbc dc72 c5bb 9b0b c73c 195e 773c
00000040: 7503 b422 f1c3 f4bb cb66 3bbd 0962 c733
00000050: d79d 4422 7c90 353d 4a86 193c 356a 263b
00000060: 3d1f a7bd 90eb 683d e454 90a7 e4f0 3537
00000070: 8347 e33a e781 1bbc 7ddd 7a3c ca61 d9b9
00000080: c9d7 8c3a c30f 6e3c f094 df34 7ccb 963d
00000090: dd13 67bd c5f6 983c ff25 923d 893b afbc
000000a0: 0346 81bc 2235 09bd 0b7a 0ebd af53 9b3d
000000b0: 6942 3ebd f6e0 283d 2894 05a5 60e7 eb38
000000c0: 2da9 98bd 2231 5ea8 44d3 533d b01b a3bd
000000d0: 45ee 1abc e50d 94bd cbfa 2d3d c9ff aabd
000000e0: f9b8 0a3c 45f7 84bc 415c 7ebd 5ba6 113b
000000f0: 5b37 9d3c c0e0 4a3d 1b19 80bd 78a3 6a3d
00000100: 2a20 cb3c 1b27 06bd be01 57bd 25cc bfbc
00000110: f3a5 373d fd4f 8cbd 6c86 c13b b5e5 82bb
00000120: 403b 4abc 104c 1033 ec7f 713d dfab 8dbb
00000130: 372d 1c3d 225a a7ac 8f1e 97b9 892f 713d
00000140: 89d3 3839 adec 7c3d a6ba 9a3c 3222 173d
00000150: c9bf b23c daf1 fd3c c39d f43d 2eaf 95bd
00000160: 75f0 993d 3b32 333d e656 45bd 2efc 833c
00000170: 9702 3234 8ae8 953d 116a 84bd d883 5fbc
00000180: 86b2 12b6 f41f 1bbd 5f05 343d 8679 9c2e
00000190: c24a 98bd 2aea 9ebd 885b 99b8 5e2c 8aba
000001a0: c0ed 843c 7617 e336 8a95 cba2 04fc d33d
000001b0: 055d 7f3d d88c febc fd27 69bd a062 d93c
000001c0: da30 adbd e8e3 7b3c 537e 9fbd 796d ad3c
000001d0: 8947 533c ebb2 f6bc a2e9 7ebd 6caa b4b6
000001e0: 3642 73bc ff23 733d 21ec 49bb daa4 503c
000001f0: 77e4 7b3d 87ba ea3c 43bb 973d d91f 23bc
00000200: 15b1 4131 0c45 9bbd 1578 f2ba 8cdc 0fba
00000210: 03bc 2f3d ee06 a0af 2a38 b23c 163f 11b9
00000220: c8a9 6e2a d569 ebbc b7d8 8d39 ea9e a23b
00000230: 8cda 55ba b935 06b2 070e 4b3d e36d 7bbd
00000240: 772e 4b3d 0a64 3bbd 1873 1a38 d3a8 c93c
00000250: 4694 a03d 6b80 61bd 1607 403c 253b 5dbd
00000260: cba0 a23d b097 1a38 e24f babc 2eae 753b
00000270: 9890 2c3d d1bb 203d fb71 7c3d 0ffd ee3c
00000280: 9b44 b63c db3c 58bd 8d4a d039 e0ee 1435
00000290: c2cd 4fb9 f99b cd3d 2d46 12bc b5e9 e7bb
000002a0: 9a24 99bd cfaf 2fbc a0ab b1bb dcf2 2fb6
000002b0: 20c3 c135 c701 a93c 0282 a1bd 31d5 813c
000002c0: 8452 88bc 622a 7d39 0026 f4bc 20c2 1fbc
000002d0: 7066 95bc dc43 54bc fd59 093d a4c4 983d
000002e0: 9462 e339 c1a5 873d ae60 a7bb cec0 983d
000002f0: 10da 6dbc 6449 1e3d b28a 003a d030 9cbc
00000300: 347e dfbc f084 9eb8 66dd 943d 3dc5 abbc
00000310: 23b4 9c3a 0bca 993d 4da1 373c 0e17 5bbd
0.0789413 -0.009145122 6.421564e-18 -0.060820222 0.07881825 -0.013932077 -0.0032783202 -3.8092306e-17
0.02482865 -0.021989781 0.0007747143 4.769515e-18 -0.026918624 -0.006025655 0.024297526 0.015098118
4.879276e-18 -0.007469647 -0.045752328 9.284492e-08 2.6646513e-18 0.044327244 0.009370396 0.0025392894
-0.08160255 0.056865275 -4.0060067e-15 1.0844527e-05 0.0017340038 -0.00949142 0.015311596 -0.00041462324
0.0010745461 0.014530125 4.1645353e-07 0.0736303 -0.056415427 0.018672356 0.071361534 -0.021390693
-0.015780455 -0.033497937 -0.034784358 0.07584321 -0.046450052 0.041230164 -1.1586108e-16 0.0001124877
-0.07454143 -1.23341296e-14 0.05171515 -0.07964265 -0.009456222 -0.07229213 0.042475503 -0.083495684
0.0084669525 -0.016231189 -0.0620997 0.00222244 0.019191435 0.049530745 -0.062547885 0.057284802
0.02479561 -0.032752138 -0.052491896 -0.023412773 0.044835996 -0.06851194 0.005905917 -0.0039946684
-0.012343228 3.359679e-08 0.058959886 -0.004323467 0.038129058 -4.7564322e-12 -0.00028823732 0.058883224
0.0001762641 0.06174915 0.018887829 0.036897846 0.021819966 0.030999113 0.11944153 -0.073088035
0.07516567 0.043749075 -0.048178576 0.01611146 1.6578484e-07 0.07319744 -0.06465543 -0.013642274
-2.185961e-06 -0.03787227 0.043950435 7.1156456e-11 -0.07436134 -0.07759507 -7.3126575e-05 -0.0010541787
0.01622665 6.7678584e-06 -5.518159e-18 0.103508025 0.06234457 -0.031073019 -0.0569229 0.026536286
-0.08456583 0.015374161 -0.07787766 0.021170365 0.012895473 -0.030114612 -0.06223453 -5.3842577e-06
-0.014847329 0.0593605 -0.003081091 0.012734616 0.061497178 0.028653396 0.07408764 -0.009956324
2.8185856e-09 -0.07581529 -0.0018498922 -0.0005487881 0.04290391 -2.9108754e-10 0.021755297 -0.00013851779
2.1197551e-13 -0.028736988 0.0002705508 0.0049627917 -0.0008157871 -7.812042e-09 0.049573924 -0.061384093
0.04960486 -0.0457497 3.682365e-05 0.024616634 0.07840781 -0.05505411 0.011720439 -0.054011483
0.07940825 3.685773e-05 -0.02274317 0.0037487852 0.042130083 0.039241616 0.061632138 0.029173402
0.02224951 -0.05279241 0.00039728396 5.5481905e-07 -0.00019817709 0.10039515 -0.008927864 -0.0070774206
-0.07477684 -0.010723068 -0.0054220706 -2.6218395e-06 1.4436409e-06 0.02063073 -0.07886125 0.015848728
-0.016640909 0.00024143749 -0.029803276 -0.009750873 -0.018237323 -0.012955632 0.033533085 0.07459381
0.0004337026 0.06623412 -0.0051079607 0.074586496 -0.014517322 0.03864421 0.000490348 -0.019066244
-0.027281858 -7.558789e-05 0.07268791 -0.020968074 0.001195554 0.0750924 0.011207891 -0.053488784

lstm.bias_hh_l0 f4 [200]
00000000: 0e8f 61bd 4fa3 203c 5294 e63c 316a cebc
00000010: 4f94 6d3d 565f 4f38 ffb9 38bc aace 8d29
00000020: 4f08 7cbd f0b0 a63d 02dd b03b 9366 3a3d
00000030: 1e19 1e3d 8719 b1b8 6c29 513c ee61 46bd
00000040: 45d8 2e3c 5ad3 e73d 81ac 2924 1e09 22a5
00000050: 87dc 9039 3361 b0bc bc51 08bd 184e 9eb5
00000060: 623e 9bb8 509a 9ebd 67e7 08ba 8440 13bd
00000070: a0ac cf38 52c8 73bd 2394 f0b9 ce3b 833d
00000080: e4d0 6b3d 14f7 0c3b d20c a839 be8d 8cbd
00000090: 5f3a 78bd e755 83bd 70f1 f4a2 8a5b 9e3d
000000a0: 84b9 2b3d 0c5d 18b9 05dd 5bbd b722 a8bc
000000b0: f38b 25bd 4be5 4ebd 67b2 51bd 46ad 683d
000000c0: 57d7 403d ece8 fd3b 963e 9abd 70b9 2039
000000d0: e758 953d b624 32bd 4c9f 593d ecb8 74bb
000000e0: 962b e629 7e83 9f3c 1461 983d 654b 8b3b
000000f0: 17ac a1bc e370 9fbc 7d87 333d a153 e33b
00000100: bee0 8dbc 1480 85bc a3da 8ebc adfb 6739
00000110: 7e54 19b9 1e04 e23b d0e5 492a 1fbc 543a
00000120: e26d 69bd 6ef1 893d e6fc 63a3 b366 35a4
00000130: 1478 153b db62 9728 033c 0c3c 0a69 29bc
00000140: 756e 6faf 466f 1dbd fae9 a23c 704f 4e3c
00000150: 228a 03bc 4301 7b3d 6371 933d a351 c13c
00000160: 3770 8fbd 808a 56b9 aa67 20ba c3b8 853a
00000170: e6f7 a53d fe2a 8c3d 8f6a bbbc cdc1 7aa2
00000180: cfbb ad3c e1b7 0424 d5f1 cabc a16a d03c
00000190: 5b80 85bd 8b37 b238 a730 b4bc 30f1 ad36
000001a0: a371 80b0 8f47 a8bd fe05 413a 6217 213d
000001b0: c6c1 efb8 ec9c 5b22 6f65 dd39 b013 493a
000001c0: 4bd6 463d 061f 223d 7450 1236 54cc edbc
000001d0: ab99 22bc 8f29 9b3d b4fe 743a f98c e138
000001e0: 2157 273d 86be b23a 3361 26b0 77f0 7fbb
000001f0: 10d4 c436 3882 f0bc a8ad bb3d 63f0 a6bd
00000200: edc5 95a0 ede7 15bd fd80 51bd 4597 1abc
00000210: 3b54 b13c 222f 0f3d 47bd 64bd 9c67 163d
00000220: 7789 46bc 3e7d 89bd aa45 c5bc 29ff 35bd
00000230: d3f2 a33b 8710 5c3d 6a54 fc3c b0b4 b628
00000240: d098 1b3d 7acb 8abd 5232 093d f25e 3d3c
00000250: e515 2bbc 6795 9dbc b0ba aa3c 07fa 023c
00000260: b298 71bd 47ad 1c3d 240d d73c 425c bdbc
00000270: 262f 9fbc 853d 2035 cd80 a3bc 0df8 26bc
00000280: 7445 c3ba 6752 e0bc fa94 243b 84a0 053c
00000290: 2305 023d e252 95bd bba9 a63d 98f1 0fbd
000002a0: adb8 99bd bdc8 0bbd 5e6c 503d ece8 59b9
000002b0: 5b79 523d a8e6 773d 9b4e 8dbd 86b6 5abd
000002c0: 4b38 d73a 4d4b a43c b42c 05bd f2f3 dd3c
000002d0: 3119 8f3d 3e27 afb9 bb84 30b9 f54e bf3d
000002e0: 5ca6 5425 4454 693b 702b 973d 8f5f 10ba
000002f0: ba9a 8abd dd3b a93d 151c ecba 263b 9d3c
00000300: a433 aa22 ebc8 f8ba 0931 aa3b 2a8d 2ebc
00000310: aad1 a2bd bada 4fbd 75e1 fdbc 73a0 1238
-0.05506807 0.009804561 0.028146897 -0.02519712 0.058002766 4.9441434e-05 -0.011274814 6.2975084e-14
-0.06153136 0.08139217 0.00539744 0.04550798 0.038598172 -8.4447725e-05 0.012766223 -0.048433237
0.01067168 0.11319609 3.679215e-17 -1.4054349e-16 0.00027630126 -0.021530723 -0.033281073 -1.1794646e-06
-7.402596e-05 -0.077442765 -0.000522247 -0.0359502 9.902683e-05 -0.059517212 -0.00045886738 0.06407891
0.05757226 0.0021509575 0.0003205301 -0.06862973 -0.060602542 -0.06412869 -6.6391964e-18 0.077323034
0.04192497 -0.00014530512 -0.053677578 -0.020524366 -0.04041667 -0.05051164 -0.05119553 0.05680587
0.047080364 0.0077487137 -0.075314686 0.0001532787 0.072923474 -0.04349204 0.053130433 -0.0037341667
1.0221613e-13 0.01947188 0.07440391 0.004250931 -0.01973538 -0.019463008 0.043830384 0.0069374596
-0.01731908 -0.016296424 -0.017438238 0.00022123633 -0.00014622693 0.0068974635 1.7932118e-13 0.00081151904
-0.056989558 0.06735502 -1.2359248e-17 -3.9335108e-17 0.0022807168 1.680724e-14 0.00855923 -0.010339985
-2.1776166e-10 -0.038436197 0.01988696 0.012592182 -0.008028539 0.0612805 0.07199361 0.023598498
-0.07003825 -0.00020460226 -0.0006118963 0.0010202158 0.081039235 0.068441376 -0.02287796 -3.3983915e-18
0.021207718 2.877869e-17 -0.024773518 0.02544147 -0.065186225 8.498047e-05 -0.021995855 5.1838797e-06
-9.345523e-10 -0.08216774 0.00073632586 0.03932894 -0.00011432501 2.9763108e-18 0.0004222798 0.0007670475
0.04854421 0.039580368 2.1802525e-06 -0.029028095 -0.009924333 0.07576286 0.0009345815 0.00010755094
0.040854577 0.0013637103 -6.0528577e-10 -0.003905324 5.8659425e-06 -0.029358968 0.09163982 -0.08151319
-2.5372558e-19 -0.036598135 -0.051148403 -0.0094354795 0.02164661 0.03495706 -0.05584457 0.036719903
-0.012117735 -0.06713341 -0.02408107 -0.044432793 0.005003312 0.0537267 0.03080197 2.028442e-14
0.03798753 -0.06777091 0.033495255 0.011558281 -0.010442232 -0.01923628 0.020840973 0.0079941815
-0.058983512 0.038251188 0.026251383 -0.023115281 -0.019431662 5.969417e-07 -0.019958878 -0.010190976
-0.0014898018 -0.027383042 0.002511321 0.008155946 0.03174318 -0.07291199 0.08137842 -0.03514251
-0.07505927 -0.034126986 0.050884597 -0.00020781503 0.051385265 0.060522705 -0.068997584 -0.053396724
0.0016419975 0.020055437 -0.032513335 0.027093861 0.06987227 -0.0003340784 -0.00016834114 0.09341232
1.8444434e-16 0.0035603205 0.07381332 -0.00055074034 -0.06767793 0.08263371 -0.001801374 0.019193243
4.613327e-18 -0.0018980777 0.0051938337 -0.010653773 -0.079501465 -0.050745703 -0.030991295 3.4958543e-05

lstm.weight_ih_l0_reverse f4 [200, 33]
00000000: 1860 e63a 6fe5 e03c 3e94 2ba7 68b3 2a3d
00000010: 0528 ca3a 8114 b4bb af2f 4bbd a34e ce39
00000020: dae7 e33c 9b46 3cbd 1d61 dcbc fd9a 863b
00000030: 645a a1ba 7433 9cbc f803 2425 1dad 723d
00000040: a759 993c 7849 8f3d 3306 1f3c 7036 ac3d
00000050: add6 75b9 37f0 a2bc e229 9d3c f55b 113c
00000060: 2d39 97bd 7450 68bb e3ab 58bc c58f b737
00000070: 5b04 5e3b caf1 bf22 67f3 28bd 1046 0cb2
00000080: e509 923d c477 06b7 8472 a73d 94f3 4f3d
00000090: 4840 a43c a484 693d 014d 2abd 12bf 1d3d
000000a0: 6825 d5bc 839f 973c a466 3939 5cc8 8f3d
000000b0: 1162 85bd 0be3 7b3d 6aa2 023c 1b42 de36
000000c0: 1db0 ab3d ee0a 89bd 5fa1 86bd 05de 3ebc
000000d0: 97ae 1abd 1288 0e3d 2766 a0bd 064c c0b9
000000e0: 7989 e43c 3a03 c6bc d76f ad3c ec84 113c
000000f0: f795 923d 80dc 55bc 7f17 1abd 8f8c 323d
00000100: 0a21 113b 4944 f2b2 1baa 033d ed79 423a
00000110: c9ca 69ba f1a0 9ebd 6ab8 afbc 302b 25bd
00000120: e832 34bb 6302 8abd c8dd 1cbd a37a 4fa1
00000130: 7fec bf3c 12ed 3f3d 9aaf 8437 5979 fabb
00000140: 8ac2 4fbd a68e dd3b 3d47 ec2b 8d04 c6bc
00000150: de83 2f3d aa05 5ebd fc77 a23d 0731 80bd
00000160: 5433 13bd 4196 763d 783c 013d 5b01 a1bd
00000170: 9b9b b03a 26ae 043d 2762 9237 9dc6 3b3a
00000180: 615a 3b3d 2f56 5523 1dca f0b4 35c1 98bd
00000190: de46 a63c d2cc 8cbd 397c 6abc 2992 34ba
000001a0: a1dd 863d b12a cfbc 4c47 1f3b 8231 bd3c
000001b0: df66 85bd ba85 a5bc 893d 5fbd bdce 05bd
000001c0: 04fd 23b7 d80d 0abd fd38 4a3d 363c 963c
000001d0: 51cf 95bd 82f1 483c 3785 6dbd 48b5 002c
000001e0: 377a a4bd 691f 96bc 36f8 103d 42b8 1239
000001f0: 1480 c636 06c8 f839 aac5 8a30 f64c c8bc
00000200: ef12 033d a05d 0bbb 4fdf 93bd 0a56 fabc
00000210: 2877 a53d d2a1 003d 927b a3bc eedd 0abc
00000220: 8c8b 0f39 604a 973d 8a38 7bbc 4a81 9621
00000230: 94c5 0d3d e4e2 4e39 04ea 3dba 1924 ad3d
00000240: 405d bfb0 2cb8 3fba 4277 f3bb b9fe 563d
00000250: 4d00 84bd 62e0 16b8 e716 893a 2314 2a3a
00000260: 458f 9b3b 784e 763c c813 08b7 4c76 553a
00000270: e5cd 943b 6249 8d3d 4b34 833d af76 553d
00000280: 92c1 643c dd24 873d 39f3 a43a a45c 63ba
00000290: cce9 143d 8b93 cb3b 0c70 2e3d a6cd 8dae
000002a0: e317 973d 7c0c a2bd 0c97 5bb7 2501 26bb
000002b0: a505 a9bd fcab 743c cc99 2225 f31b 8e3d
000002c0: e0c6 98b9 b9dc f93b 6be0 2525 195f 2229
000002d0: 97b2 28ba ce03 923d 52a5 cabb 3e77 8a3b
000002e0: 0e6e a137 af02 a5bd 5c23 9abd 4cc4 513d
000002f0: 1b96 593d 5c0f 2f34 d100 efba 3f06 cbb8
00000300: 03b9 81bd bc0e a9bd 6fd3 883d e968 293d
00000310: 7bf0 97bb f426 f13c 37f0 0bbd c664 85b5
00000320: 3519 8ebd d567 14bd cefa d7bc 3172 f8bc
00000330: 1013 8e3d dc45 89bd 4d19 9abd de93 2db6
00000340: 809e 89bd 7c7d c3bc 6fdf 09ba 45c9 a423
00000350: 10d2 1d38 67e1 903d 252a 7abc 1845 273b
00000360: e7f2 283d a57f 1bbd 7761 6b3d 9a8a 06bc
00000370: 5eed 973b 9608 3e3d 9831 013b b349 d1bc
00000380: 92b7 8fbd e66a 503d 6e54 4734 3ef4 603d
00000390: bdc9 8dbc 48a2 283c 6a9a 15bc f112 92bd
000003a0: 1637 15bd e1f6 f9bc 0031 2b39 97c1 983d
000003b0: 350d da3c 354a 163b fde8 68bd 288d e23b
000003c0: 4b1e 693d f701 e1bc 3cd1 09bc 4bbc f83c
000003d0: 7421 921c 18b4 1b3d b96a fcbc 5fd7 15bc
000003e0: 57ca 9a38 715d a738 2572 aabd 677a 8abd
000003f0: b9e1 4eaa 7ba2 e7bc 8d55 2b3a 0955 683d
0.0017576246 0.027453152 -2.381138e-15 0.041675 0.0015423304 -0.0054956083 -0.04960602 0.0003934997
0.027820516 -0.045965772 -0.026901776 0.0041078315 -0.0012310264 -0.019067504 1.4226077e-16 0.059247125
0.018719507 0.06996435 0.009706068 0.08408821 -0.00023444994 -0.019889934 0.01918501 0.008872022
-0.07383952 -0.0035448344 -0.013224575 2.1882248e-05 0.0033877108 5.2026658e-18 -0.04124775 -8.165003e-09
0.071307935 -8.0149075e-06 0.08176139 0.050769404 0.020050183 0.05701126 -0.041577343 0.038512297
-0.026018813 0.018508678 0.00017681211 0.070206374 -0.06512845 0.061495822 0.007973293 6.6238113e-06
0.083832 -0.06691538 -0.06573748 -0.011649613 -0.037764158 0.034797736 -0.07831984 -0.00036677736
0.027897583 -0.02417146 0.021171493 0.008881789 0.0715751 -0.01305306 -0.037620064 0.04359108
0.0022144937 -2.820356e-08 0.032144647 0.0007418681 -0.0008918462 -0.07745541 -0.02145024 -0.04032439
-0.0027496163 -0.067387365 -0.038297445 -7.0296636e-19 0.0234282 0.046856947 1.5817397e-05 -0.0076438603
-0.050722636 0.00676139 1.6788581e-12 -0.024172092 0.042850368 -0.05420462 0.079330415 -0.06259351
-0.035937622 0.060201887 0.031551808 -0.07861587 0.0013474108 0.032392643 1.7450262e-05 0.00071630796
0.04574049 1.1565003e-17 -4.485054e-07 -0.07458726 0.020297464 -0.06875004 -0.014311844 -0.00068882346
0.06585241 -0.025288912 0.002430397 0.023094896 -0.06513762 -0.020205367 -0.054502044 -0.032667864
-9.774467e-06 -0.03370461 0.049370755 0.018339258 -0.07314933 0.012264611 -0.05798837 1.8290525e-12
-0.08031123 -0.018325524 0.035392962 0.00013992286 5.91577e-06 0.00047451275 1.0097001e-09 -0.02445076
0.03200048 -0.0021265522 -0.07220327 -0.030558605 0.08079368 0.031404324 -0.019956384 -0.008475764
0.00013689528 0.07387233 -0.015333304 1.0198618e-18 0.034612253 0.00019730214 -0.0007244649 0.08454151
-1.3923582e-09 -0.00073135155 -0.007429988 0.052489016 -0.0644537 -3.597176e-05 0.0010459096 0.0006487986
0.0047473037 0.015033357 -8.110837e-06 0.0008142933 0.004541146 0.06898762 0.064064585 0.05211514
0.013962166 0.06598828 0.0012584693 -0.00086731673 0.03635578 0.006212657 0.042587325 -6.448468e-11
0.07377603 -0.079125375 -1.3088586e-05 -0.0025330272 -0.0825303 0.014933582 1.4103369e-16 0.06938925
-0.00029139873 0.007625189 1.4387504e-16 3.605371e-14 -0.00064353034 0.07129632 -0.0061842585 0.0042256406
1.9243944e-05 -0.080571525 -0.075262755 0.051212594 0.053121667 1.6303733e-07 -0.0018234496 -9.680958e-05
-0.06334116 -0.082547635 0.06680953 0.041359816 -0.004636822 0.02943752 -0.034164634 -9.938601e-07
-0.069384016 -0.036231834 -0.02636471 -0.030327888 0.0693723 -0.06702778 -0.07524357 -2.586508e-06
-0.067196846 -0.023863547 -0.00052594295 1.7866157e-17 3.7627353e-05 0.07074242 -0.015268837 0.002552336
0.041247275 -0.03796353 0.057465997 -0.008211756 0.0046364507 0.046394907 0.0019713398 -0.025547838
-0.07017435 0.050883196 1.8564035e-07 0.054920428 -0.01730811 0.010292597 -0.009131053 -0.07132519
-0.036429487 -0.030513229 0.00016326085 0.07458799 0.026617626 0.0022932414 -0.05686282 0.0069138
0.056913655 -0.027466757 -0.008411702 0.030363223 9.670117e-22 0.038013548 -0.030812608 -0.009145587
7.380981e-05 7.980585e-05 -0.083225526 -0.06761628 -1.8374789e-13 -0.028275719 0.00065358804 0.05672172

lstm.weight_hh_l0_reverse f4 [200, 50]
00000000: 03a9 3cbd 512b 2c3c 3ea7 59bc 3e23 4bbd
00000010: 72de c0ba 29f7 9a3d 620b 6abd 56c7 60bd
00000020: d8bc 1bba 1e7e 9f3c 8be8 8abd ec98 a7b2
00000030: d501 3a2c 6a1f 663c d799 36bd 9c21 0236
00000040: 9449 91bd c1ff 80bb 4d8e 19bb 7506 d7bc
00000050: d062 4c3c abac 6a3c 7ebf 68bd f295 11bb
00000060: fef3 35bc becd db2a 327a 9c37 207f 473d
00000070: 1646 173d 8ee8 1bbd 0954 b6a3 b8dd be36
00000080: f74c 843a d8ac 3a37 62b8 043d bd2b ae3c
00000090: 015d 922c 9675 5f3d f1f1 2239 11f4 1cbd
000000a0: bfcf b13c c749 b7bc d726 553d f933 b0bc
000000b0: 472c f83b fad0 4abd 80aa 593d f477 b8ba
000000c0: badd 48bc b4bd 78bd 7a33 923d 6114 32bb
000000d0: 8f56 1caa 41ee 1dbc 5a29 62bc ef8c 8c3c
000000e0: bd48 993c 6617 7b3d 532c 83b3 cbf4 a5bc
000000f0: ab27 a03c ca84 523d c6ee 65bd d8ec 1b3d
00000100: 3860 b8bc a043 833c 255c 1c3b 77aa d5bc
00000110: 9991 d2bc 425d 9ebd f491 b43c e944 a33d
00000120: 796e 593d fc34 81bd f66a 853d 0c3d f8bc
00000130: 9a5d 833d 89c6 09b9 eaf9 34bd 4d73 503b
00000140: 52d2 a43d 4714 043d f068 8b3b 9a04 983c
00000150: a22f 1c3c 794d ac3d 3f86 a6bc 0b93 3637
00000160: 91a6 993d b3e1 883b 885a 3bbc 98c7 3ebd
00000170: ccb0 abbd 3821 6439 10fc 60b9 c588 98bc
00000180: d04f 32bd 62f4 3f3c 2e9e dfbc c797 113d
00000190: 89c9 a7bd 0230 a8bd 10ad ce20 f29b 583d
000001a0: fc7d 843c 5297 e43c e17a a7bd acd4 46bd
000001b0: 7c31 243a 97e9 093c df2a 53bd 62c4 6cbd
000001c0: 179d 5cbc aab4 223c 75a0 973d 9077 1ebd
000001d0: c20a d23a 3c87 8d3d 1374 f93a 822f 71a4
000001e0: bd50 80ba 07f6 0922 d78f 42bd cbb8 cd22
000001f0: 3f2c 1d39 7d7d 8b3d 74e6 3a3c 579d 2ebd
00000200: c827 82a3 2678 cb28 d4e5 6dbd 473b 3d3c
00000210: 995e 063b 00de 3bbc d35d 67bd 9970 853d
00000220: bff7 25bd bdb5 a7bc b5e5 ee3b 1471 36bc
00000230: 9f0e fb3b e851 023d 3051 c0bc 221c 9fbc
00000240: d2fd 2ebb e531 ba3c 35b9 81bb 93ef a73d
00000250: ca1f 7bbd 2a8f 2a3b 2e45 863d f0a1 2cbb
00000260: eaaa 48b8 a4b2 e8bc 3f99 0abd 0514 763d
00000270: 8809 a2bd 116a 153c d5bc a6bb 188b c43a
00000280: 84d0 9aa6 56fe ab3d efe7 893d b1a2 143d
00000290: ff43 94bd 7dcf 9ebc 584b 4d3d ac38 37bd
000002a0: f9dd 00bd 4aee 793b 2ec6 783d e2cc 15bd
000002b0: c48a 8f3a de47 70bd cffa 84bb 37bc 90bc
000002c0: 8b09 7b3d bfd5 63bd f827 e4ae 5d3f 8c29
000002d0: e098 bcb8 7456 853c cb53 35bc a810 abbd
000002e0: 8005 a23c 0798 c8bc 5ad6 ab3d 0696 36bd
000002f0: 0dd1 2624 f705 43bd d749 4c3d 7c60 2abb
00000300: 9000 8132 7de6 f5bc daa2 f235 59f5 5134
00000310: 9547 aa3d ea51 be3c cf8d 993d b547 4b3b
00000320: ab1a 933d 0eaa 763d b8df c33c 24d8 4a3c
00000330: e28f 27b0 ab75 bf38 c058 0ebd 8598 033a
00000340: 3d56 efbc 0f98 eebc 4785 793d 2bcf 38ba
00000350: a712 60bc f699 07b9 7eb8 1c39 9d5d 27bd
00000360: 4520 343c b4bf f32f ba78 86bd 23a6 8dbd
00000370: 45c9 12bd 64b6 0ebd 9ff2 d5a2 e6b2 cda0
00000380: d3a4 8c3d 439b ae3a f118 1f3d 8fa0 a22e
00000390: a587 833b fad0 caa8 7c29 5dbd 2fc5 89bd
000003a0: 1eb8 5e36 c300 7d3c cbdd 4d21 811e 1b3d
000003b0: 8d8e 6433 b757 3bbd 2c7d c6bc 466a c9b9
000003c0: de0f 91bc 7cf9 9dbc 13ea 283c b6ea ce3c
000003d0: d6aa cbbc 81f2 a1bd 972a 0c23 4d2e 3d3d
000003e0: ef70 f1bc 5d59 ad3b f092 633d ba7a cfbc
000003f0: 179c dc3c 1da8 86a5 3934 343c a1a8 5eb4
-0.04605962 0.010508374 -0.013284503 -0.049594156 -0.0014714731 0.07566673 -0.05713976 -0.0548776
-0.00059409207 0.019469317 -0.06782635 -1.95109e-08 2.6433207e-12 0.014045576 -0.044580307 1.9391073e-06
-0.07094112 -0.0039367382 -0.0023430765 -0.026248196 0.012474731 0.014323394 -0.056823246 -0.0022214619
-0.011105536 3.9044977e-13 1.865355e-05 0.04870522 0.036932074 -0.03806358 -1.976807e-17 5.6882527e-06
0.0010093738 1.1126707e-05 0.032402404 0.02126109 4.159895e-12 0.054555498 0.00015539654 -0.038318697
0.021705506 -0.022374047 0.052038994 -0.021509157 0.0075736376 -0.0495157 0.053141117 -0.0014073835
-0.012259895 -0.06072779 0.071387246 -0.0027172791 -1.3885614e-13 -0.009639324 -0.013803804 0.017157046
0.018711442 0.06130161 -6.1082254e-08 -0.020258328 0.019550165 0.05139617 -0.056135915 0.03806767
-0.022506818 0.016023457 0.0023858633 -0.02608226 -0.025704192 -0.07732631 0.022042252 0.07972128
0.05308387 -0.06308934 0.06514542 -0.030302547 0.064143375 -0.00013139298 -0.04418365 0.0031807006
0.08047928 0.0322459 0.004254453 0.018556882 0.009532841 0.08413214 -0.020327685 1.08822815e-05
0.07502473 0.004177296 -0.011435159 -0.046577066 -0.08383331 0.0002175615 -0.00021456205 -0.018619904
-0.043533146 0.01171598 -0.027297106 0.035545137 -0.08192737 -0.08212282 3.501228e-19 0.052883096
0.016173355 0.027904186 -0.08177734 -0.048542663 0.0006263477 0.008417509 -0.051554557 -0.057804473
-0.0134651875 0.009930769 0.074036516 -0.038688242 0.0016024935 0.069105595 0.0019031785 -5.2298785e-17
-0.0009789687 1.8697208e-18 -0.047500458 5.576102e-18 0.0001498917 0.06811044 0.011407483 -0.04263052
-1.4111476e-17 2.2589633e-14 -0.05808051 0.011549777 0.0020503162 -0.011466503 -0.056485962 0.06515617
-0.040519472 -0.020472402 0.007290567 -0.011135358 0.007661655 0.031816393 -0.023476213 -0.019422594
-0.0026701582 0.02272887 -0.003958846 0.08199992 -0.061309613 0.0026025274 0.06556164 -0.002634164
-4.7842892e-05 -0.028405495 -0.033837553 0.060077686 -0.07911974 0.0091195265 -0.0050884285 0.0014995066
-1.0742415e-15 0.0839812 0.06733691 0.036287967 -0.07239532 -0.019386047 0.05012068 -0.04473178
-0.03146169 0.0038136416 0.060735874 -0.036572345 0.001095139 -0.058662288 -0.004058219 -0.017667873
0.061288398 -0.055623766 -1.03753395e-10 6.228241e-14 -8.993014e-05 0.016276576 -0.011067341 -0.08352786
0.019778013 -0.024486555 0.08390494 -0.044576667 3.6172585e-17 -0.04761311 0.049875107 -0.002599745
1.5017832e-08 -0.030017132 1.8077801e-06 1.9553899e-07 0.083144344 0.023232419 0.07497751 0.0031018083
0.07182821 0.06022077 0.023910388 0.0123806335 -6.0958716e-10 9.129507e-05 -0.034752607 0.00050199806
-0.029215926 -0.029125242 0.06091812 -0.00070499134 -0.013676322 -0.00012931958 0.00014946048 -0.04086076
0.010994022 4.4337656e-10 -0.065659955 -0.06916454 -0.035836477 -0.03484191 -5.799065e-18 -3.4846736e-19
0.06867375 0.0013321418 0.038842145 7.395428e-11 0.004013973 -2.2517134e-14 -0.05399464 -0.06727063
3.3187748e-06 0.015442076 6.975024e-19 0.037870888 5.3215036e-08 -0.04573795 -0.024229608 -0.00038416887
-0.017707761 -0.019284002 0.010309714 0.025258403 -0.024861734 -0.07907582 7.598434e-18 0.046186734
-0.029472796 0.005290194 0.055560052 -0.025327075 0.026929898 -2.3359213e-16 0.010998779 -2.0736708e-07

lstm.bias_ih_l0_reverse f4 [200]
00000000: e472 88bd dcbb 8d3d b553 67bc cf54 a5bd
00000010: b0e1 d33a a07d 45b9 14a4 0d3b 6c36 e23c
00000020: 8749 04bd 8693 79bd 914a 22bc 5490 0eb7
00000030: 4757 6d3b 3a9e 95bd 381c 153d 47c6 33bd
00000040: ac43 ecbd a932 febd ee7b b0bb e20e 99bd
00000050: 8db2 9c3d fca2 20b6 cb0a 933d fc99 4e3d
00000060: 5502 83bc 9c99 ff3b 936a f2bd a3eb 86bd
00000070: ecf8 74bd ab5c 9e3d 3840 3cbd 87ae 91bd
00000080: 23be ebbc f3f1 293c 861e 3f3d d2fa 6f3d
00000090: 0e5f 8123 f709 5fba 177f 2ea4 10e4 0d3d
000000a0: ad31 993d 35ce 3d3c 700d 273d 2f03 1420
000000b0: 7f1a a03d 1217 0d3a f74e 43bd 0991 ea3c
000000c0: 4101 7f38 1ef3 9d3d 8e76 4dbd d6ef f323
000000d0: 0f9b 963a 49c7 8a3c b79c a4b7 1567 dba6
000000e0: ccdd b9bc 038b 4cbc 042b f7ba 2e1c 033b
000000f0: c07f 3524 299f d8bc 3f33 3f3d 07e9 ab3d
00000100: 1433 023d 8af6 8a3d 15ac d5bd 5137 90bd
00000110: d8d0 ba3c 8878 2fbd a816 b8bc 9c7b d030
00000120: a6d9 9fbd 9266 a9bc 4fdf 0c36 a200 553d
00000130: 20c6 24b7 29e7 00bd a529 333d 1ea2 27bb
00000140: 4976 58bc 5bc4 8a3b a9cb 06a5 6364 90bd
00000150: 439a 973d 31da 12bb effc 2c22 20e4 91bb
00000160: 32e5 89bd 38c3 63bd 90bd f03b 92b4 b13b
00000170: c763 18b7 1996 de3c 560c 673d 82c3 86bd
00000180: 4be7 87bd ab8f 75bd b052 813d 4147 6c3d
00000190: 8382 883d 3eb9 6abd 64ac 9abb bdce c3a8
000001a0: e7ff 573b 490f bcbc d095 393d 968c 0abc
000001b0: e2ae 90a8 327a ffb6 2aac 4538 8653 7b3c
000001c0: fec5 aa3c 0550 d5bc 66b0 713d ab08 9a3d
000001d0: 020c 813c 5683 263b 7ec6 d439 d9b5 aa3c
000001e0: d425 04bd fa4c 723d 7729 65a8 8aec b4b6
000001f0: 7907 273b 1135 07bd 9395 1cbd fabd 23bd
00000200: a6b1 4dbd 744d f3bc ca8d 45bd 1247 a43d
00000210: 8439 86bd ab62 71bd 9e3a 31bd 385d 0a3b
00000220: 3ffe 0fbc 3a0c 3abc 1dc3 7b3c 8d38 06bd
00000230: b986 cfb8 bd7c d63b 16dc 7ebd 75ca a6bc
00000240: 7ec8 34b7 76fd 00bd 0f4c cfba 5466 ecba
00000250: 7784 403c 363b 2dbd 9f5b 123d 9aa2 94bc
00000260: 472e 50bd 2cd8 8838 6bd5 03be 41da 81bd
00000270: 4467 df3c aaeb 21a4 d034 d239 496d 1fb8
00000280: 39ea 133b 51ae 973d 3661 c1bc e1ff a63b
00000290: 2a38 0c3c 3bc9 1bbd a4b5 5b3d faf9 3d3d
000002a0: f822 512f 0ce6 8b3c ae5e 2d3d 9b1e 823d
000002b0: b725 a8bd d4a7 ea3c 9045 cabc 4238 523d
000002c0: c50b 5f3d 4ab7 003d 7dca 4b3d 3e48 ab3d
000002d0: 006d e8bb ee6f 3ebd 6d6c fc3b 0d72 6bbc
000002e0: 1a08 99bb c501 f63b 1232 5fbb 559c 22bd
000002f0: a581 063b 4b5e 423d 4062 4e3d 1188 0ebc
00000300: 51bd 2fbc f5b5 05bd 4507 99bb da35 0e3d
00000310: d279 ae3b 4559 18bc 36a5 febc e1d1 a93d
-0.06662539 0.06920597 -0.014119078 -0.080728166 0.0016165283 -0.00018834183 0.002161269 0.027613841
-0.032296684 -0.060931705 -0.009905473 -8.497464e-06 0.0036215351 -0.0730557 0.036403865 -0.043890264
-0.11536345 -0.124120064 -0.0053858673 -0.07473542 0.07651243 -2.3936727e-06 0.07179793 0.05043982
-0.015992323 0.007800294 -0.11836734 -0.06587913 -0.059807703 0.07732519 -0.04595968 -0.071133666
-0.028777188 0.010372627 0.04665997 0.05858881 1.4026465e-17 -0.000850826 -3.7837885e-17 0.034641325
0.07480178 0.011584808 0.0407843 1.2537141e-19 0.07817554 0.0005382161 -0.04768273 0.028633611
6.0797905e-05 0.077123865 -0.05016189 2.6447687e-17 0.0011490303 0.01694073 -1.96233e-05 -1.5224118e-15
-0.022688769 -0.012484315 -0.0018857424 0.002000581 3.9356327e-17 -0.026443081 0.04667973 0.08394056
0.031786993 0.06785305 -0.10433213 -0.07041801 0.022804663 -0.042839557 -0.02247174 1.5169124e-09
-0.07805185 -0.020678792 2.0991608e-06 0.052002557 -9.821291e-06 -0.03147045 0.043740887 -0.0025578807
-0.013211795 0.004234833 -1.169165e-16 -0.07050397 0.0740247 -0.0022407884 2.3444249e-18 -0.0044522434
-0.06733169 -0.055606097 0.0073468164 0.005423137 -9.083137e-06 0.027171182 0.05640825 -0.06580259
-0.066359125 -0.059951466 0.063145995 0.05768514 0.06665518 -0.057305567 -0.0047202576 -2.1739007e-14
0.0032958926 -0.022956507 0.045308888 -0.00845637 -1.6063055e-14 -7.6138176e-06 4.71288e-05 0.015339738
0.020846363 -0.026039133 0.059006117 0.075211845 0.015752796 0.0025407872 0.0004058368 0.020838665
-0.03226264 0.05915544 -1.2721045e-14 -5.391955e-06 0.0025486632 -0.033009592 -0.038228583 -0.039976098
-0.050218247 -0.029700018 -0.048230924 0.08021368 -0.06553939 -0.058931988 -0.043268792 0.0021112692
-0.008788644 -0.011355454 0.015366343 -0.032768775 -9.895623e-05 0.0065456317 -0.06222161 -0.02036021
-1.0775517e-05 -0.03149172 -0.0015815514 -0.0018035867 0.011750332 -0.042292796 0.035731908 -0.01814394
-0.050825384 6.5252505e-05 -0.12874381 -0.06340457 0.02727092 -3.5110925e-17 0.0004009367 -3.8010334e-05
0.0022570028 0.07406295 -0.023605924 0.005096421 0.008558312 -0.038033705 0.053640023 0.046380974
1.9020863e-10 0.017077468 0.04232662 0.06353494 -0.082103185 0.02864448 -0.024691373 0.051323183
0.054454584 0.031424798 0.049753655 0.083633885 -0.007093072 -0.046493463 0.007703355 -0.014370454
-0.0046701552 0.007507535 -0.0034056944 -0.03969987 0.0020524052 0.047453206 0.050386667 -0.008699433
-0.010726289 -0.03264423 -0.004670056 0.034719326 0.0053245807 -0.009298627 -0.031084638 0.08291984

lstm.bias_hh_l0_reverse f4 [200]
00000000: 0828 d43a 4f9f aa3c e5f6 ae3c 9e8b 3bbd
00000010: e3e7 1239 af3a 34b9 c24c 9f39 27ca 173d
00000020: edd7 46bd 0b3f ad3d 0d4c 08bb 8a9d c9a7
00000030: 9501 92bd 81b9 b03c 08ad 9fbd 4d9c 033d
00000040: 89ba b93d 0d85 693c 22fc 18bd 81dc 8f3d
00000050: 02d6 5e3d 44c0 ec20 7580 cabb d59d cf32
00000060: 9383 1439 04d5 9d3d b0f4 90bd 88de 70bd
00000070: 999f 423d 5a9d 6b3b d674 19bc cbd4 b7bc
00000080: 9de4 563d 11e4 8f3d a618 0cb2 62c2 a7bd
00000090: d6d5 71bd 4326 81bc 0bee 613b ebd4 833d
000000a0: f967 bd3b 7b26 2cbc 9721 a1bd 61c8 c7bc
000000b0: 5e09 273b 168c 8ea9 f38a e9ba bde8 8b33
000000c0: 4d81 e03a 212c 7a3d fbc8 8b3d b87f f43c
000000d0: a341 5a26 260d 7dbd d4d7 a9a3 fec3 b5ae
000000e0: fd3f a4bd d245 813c 873d b5ba 98b0 33bd
000000f0: b617 433d 5081 4fbc 664f da3b e97b 053d
00000100: 2033 81bc b45c 2a3b 109f 0c3e 0737 5e3d
00000110: 6f1c 61bd bc45 183d 3efd 9bbc 0ab0 9f3d
00000120: a37a 26bd ee5a 623d c9dd 313d 38d3 3cbd
00000130: d433 1dac 2ba6 19bd b53b 173d 77e3 7da4
00000140: d326 5ebc 62d3 9cbd 3456 1637 61b8 4ebd
00000150: da67 80bc 780b ad3c c786 8e3d 8750 9bb7
00000160: b386 0dbd 8f8e 723d 76df 8d27 713d 513d
00000170: 28c1 1ebd ded1 ce28 a9b7 a93c cba2 123d
00000180: 5e09 483b e14a 143d 83e9 223d 5484 0938
00000190: 2919 aabd 8acf 85bc b36f 6caa 7cf4 0223
000001a0: fde2 a7bd 7706 3c32 0b69 953d e0c2 a4bd
000001b0: 317d 8cbd 7460 3dbd c3e5 303b 23aa 3737
000001c0: 35b0 0bbd 44c4 8525 8506 ad3d e961 9d3b
000001d0: 52d6 17bd 6641 9dbd 7f69 523d 7c1b 4a3d
000001e0: cefb 6b3d 2f32 d9bc 853e b53a 491d fab7
000001f0: 25c5 44bb 5b79 f4ba 9054 95ba 0d31 7c3d
00000200: 4395 70bd 23c6 25bb c41f 5dbd acb6 0f3d
00000210: d946 f83c b0fd 40bc eedd 41ba c9a0 613d
00000220: 3518 dfbb fc86 39bd 0c95 95a4 6d06 e23c
00000230: 83de 88bc c4e3 94bd e445 01bc 00a7 8dbb
00000240: 1c43 3c35 097e bb36 fc45 7f3d ddbc 7bbd
00000250: 318d 14bb 2641 54bb 2f76 083c a4b4 1d3d
00000260: 74ef 513c 639b 86bd 2d6e 6a3d 5fa5 8dbd
00000270: da1c 903d e1cd 503c f2d0 183d fb56 6932
00000280: 67a6 3738 62f6 ca3c 3e7b 9b3d 05a3 26bd
00000290: 459f 743d f49b 2e3d 36cb e8bd 605c a33d
000002a0: 9611 53bd e1e5 aa38 e598 6abd 52eb a5bd
000002b0: d07b e73c c446 2d3b 8e1a 3738 bac4 343d
000002c0: 8651 173d 57ec 533d 615a ab3d d8c8 783d
000002d0: eff4 babc cdea 2a3d 387d acba 4dd9 75ac
000002e0: 6cce 713d 66eb 05bb f571 07bd 2ab4 0b37
000002f0: 0342 083a 162b 323a c493 623d 347b 77bd
00000300: 6e16 a2bd 8a85 a9ba 376b 1bbc 583b 753d
00000310: eeab 3e3d 2cee f9a8 c4d1 2bbb 5eb6 c5bb
0.0016186247 0.020827917 0.021357963 -0.045787446 0.0001401003 -0.00017187999 0.00030384032 0.037058022
-0.048545767 0.0845929 -0.0020797283 -5.595951e-15 -0.07129208 0.02157283 -0.07796675 0.032131482
0.09068782 0.014252913 -0.037349828 0.0702448 0.054403313 4.0107186e-19 -0.006179864 2.4169745e-08
0.00014163395 0.07706645 -0.070779204 -0.058805972 0.047515485 0.0035951943 -0.009366235 -0.022440335
0.052464116 0.07025922 -8.154677e-09 -0.081913725 -0.05904182 -0.015765315 0.003447416 0.06437095
0.005780217 -0.010507221 -0.07867735 -0.02438754 0.002548776 -6.330368e-14 -0.0017817899 6.515027e-08
0.0017128378 0.06107724 0.06825443 0.029846057 7.57229e-16 -0.061780117 -1.8414423e-17 -8.265742e-11
-0.08020017 0.015780363 -0.0013827541 -0.043869585 0.047630034 -0.012665108 0.006662297 0.032588873
-0.015771449 0.0025995197 0.13732553 0.054251697 -0.054958757 0.03717588 -0.019041654 0.07797249
-0.0406443 0.0552625 0.0434244 -0.04609987 -2.2339812e-12 -0.037511986 0.036922175 -5.50533e-17
-0.013559061 -0.076575056 8.960767e-06 -0.050468806 -0.01567452 0.021123633 0.069593005 -1.8514938e-05
-0.034552287 0.059217986 3.937764e-15 0.051083986 -0.038758427 2.296161e-14 0.020717459 0.035799783
0.0030523161 0.036204223 0.039773475 3.2786586e-05 -0.0830558 -0.016334314 -2.0999764e-13 7.099086e-18
-0.081975915 1.094451e-08 0.07295426 -0.08044982 -0.06859816 -0.046234563 0.0026992417 1.0947263e-05
-0.03410359 2.3204817e-16 0.08448509 0.0048029316 -0.037069626 -0.076784894 0.05137014 0.049342617
0.057613187 -0.026513187 0.0013827836 -2.981596e-05 -0.0030024734 -0.0018651889 -0.0011393 0.061570216
-0.058736097 -0.00252951 -0.053985372 0.03508632 0.03030722 -0.011779234 -0.0007395436 0.055084977
-0.0068083056 -0.045294747 -6.4870945e-17 0.027590955 -0.016707664 -0.07270005 -0.007890198 -0.0043228865
7.0133115e-07 5.5877067e-06 0.0623226 -0.06145941 -0.0022667164 -0.0032387464 0.008328958 0.03850235
0.012813438 -0.065726064 0.057233978 -0.06916308 0.07036753 0.012744398 0.03730864 1.3582162e-08
4.3785574e-05 0.024775688 0.07591866 -0.04068281 0.059722204 0.042629197 -0.113668844 0.079766035
-0.051530443 8.14905e-05 -0.057274718 -0.081015244 0.02825728 0.0026439885 4.365533e-05 0.044132926
0.03694298 0.051739063 0.08366848 0.060738415 -0.022821872 0.04172783 -0.0013159877 -3.493722e-12
0.05903475 -0.0020434498 -0.033067662 8.326993e-06 0.0005197825 0.00067965814 0.0553167 -0.06042023
-0.079144344 -0.0012933474 -0.009486011 0.059871048 0.046550684 -2.7747844e-14 -0.002621756 -0.0060337028
